node {
  name: "ReadFile/filename"
  op: "Const"
  attr {
    key: "dtype"
    value {
      type: DT_STRING
    }
  }
  attr {
    key: "value"
    value {
      tensor {
        dtype: DT_STRING
        tensor_shape {
        }
        string_val: "../data/down/5f5eef60_nohash_0.wav"
      }
    }
  }
}
node {
  name: "ReadFile"
  op: "ReadFile"
  input: "ReadFile/filename"
}
node {
  name: "DecodeWav"
  op: "DecodeWav"
  input: "ReadFile"
  attr {
    key: "desired_channels"
    value {
      i: 1
    }
  }
  attr {
    key: "desired_samples"
    value {
      i: -1
    }
  }
}
node {
  name: "Mul/y"
  op: "Const"
  attr {
    key: "dtype"
    value {
      type: DT_FLOAT
    }
  }
  attr {
    key: "value"
    value {
      tensor {
        dtype: DT_FLOAT
        tensor_shape {
        }
        float_val: 0.0
      }
    }
  }
}
node {
  name: "Mul"
  op: "Mul"
  input: "DecodeWav"
  input: "Mul/y"
  attr {
    key: "T"
    value {
      type: DT_FLOAT
    }
  }
}
node {
  name: "Reshape/shape"
  op: "Const"
  attr {
    key: "dtype"
    value {
      type: DT_INT32
    }
  }
  attr {
    key: "value"
    value {
      tensor {
        dtype: DT_INT32
        tensor_shape {
          dim {
            size: 2
          }
        }
        tensor_content: "\377\377\377\377\001\000\000\000"
      }
    }
  }
}
node {
  name: "Reshape"
  op: "Reshape"
  input: "Mul"
  input: "Reshape/shape"
  attr {
    key: "T"
    value {
      type: DT_FLOAT
    }
  }
  attr {
    key: "Tshape"
    value {
      type: DT_INT32
    }
  }
}
node {
  name: "EncodeWav/sample_rate"
  op: "Const"
  attr {
    key: "dtype"
    value {
      type: DT_INT32
    }
  }
  attr {
    key: "value"
    value {
      tensor {
        dtype: DT_INT32
        tensor_shape {
        }
        int_val: 16000
      }
    }
  }
}
node {
  name: "EncodeWav"
  op: "EncodeWav"
  input: "Reshape"
  input: "EncodeWav/sample_rate"
}
node {
  name: "WriteFile/filename"
  op: "Const"
  attr {
    key: "dtype"
    value {
      type: DT_STRING
    }
  }
  attr {
    key: "value"
    value {
      tensor {
        dtype: DT_STRING
        tensor_shape {
        }
        string_val: "/home/lebhoryi/RT-Thread/WakeUp-Xiaorui/test_data/_silence_/0.wav"
      }
    }
  }
}
node {
  name: "WriteFile"
  op: "WriteFile"
  input: "WriteFile/filename"
  input: "EncodeWav"
}
node {
  name: "Placeholder"
  op: "Placeholder"
  attr {
    key: "dtype"
    value {
      type: DT_STRING
    }
  }
  attr {
    key: "shape"
    value {
      shape {
      }
    }
  }
}
node {
  name: "ReadFile_1"
  op: "ReadFile"
  input: "Placeholder"
}
node {
  name: "DecodeWav_1"
  op: "DecodeWav"
  input: "ReadFile_1"
  attr {
    key: "desired_channels"
    value {
      i: 1
    }
  }
  attr {
    key: "desired_samples"
    value {
      i: 16000
    }
  }
}
node {
  name: "Placeholder_1"
  op: "Placeholder"
  attr {
    key: "dtype"
    value {
      type: DT_FLOAT
    }
  }
  attr {
    key: "shape"
    value {
      shape {
      }
    }
  }
}
node {
  name: "Mul_1"
  op: "Mul"
  input: "DecodeWav_1"
  input: "Placeholder_1"
  attr {
    key: "T"
    value {
      type: DT_FLOAT
    }
  }
}
node {
  name: "Placeholder_2"
  op: "Placeholder"
  attr {
    key: "dtype"
    value {
      type: DT_INT32
    }
  }
  attr {
    key: "shape"
    value {
      shape {
        dim {
          size: 2
        }
        dim {
          size: 2
        }
      }
    }
  }
}
node {
  name: "Placeholder_3"
  op: "Placeholder"
  attr {
    key: "dtype"
    value {
      type: DT_INT32
    }
  }
  attr {
    key: "shape"
    value {
      shape {
        dim {
          size: 2
        }
      }
    }
  }
}
node {
  name: "Pad"
  op: "Pad"
  input: "Mul_1"
  input: "Placeholder_2"
  attr {
    key: "T"
    value {
      type: DT_FLOAT
    }
  }
  attr {
    key: "Tpaddings"
    value {
      type: DT_INT32
    }
  }
}
node {
  name: "Slice/size"
  op: "Const"
  attr {
    key: "dtype"
    value {
      type: DT_INT32
    }
  }
  attr {
    key: "value"
    value {
      tensor {
        dtype: DT_INT32
        tensor_shape {
          dim {
            size: 2
          }
        }
        tensor_content: "\200>\000\000\377\377\377\377"
      }
    }
  }
}
node {
  name: "Slice"
  op: "Slice"
  input: "Pad"
  input: "Placeholder_3"
  input: "Slice/size"
  attr {
    key: "Index"
    value {
      type: DT_INT32
    }
  }
  attr {
    key: "T"
    value {
      type: DT_FLOAT
    }
  }
}
node {
  name: "Placeholder_4"
  op: "Placeholder"
  attr {
    key: "dtype"
    value {
      type: DT_FLOAT
    }
  }
  attr {
    key: "shape"
    value {
      shape {
        dim {
          size: 16000
        }
        dim {
          size: 1
        }
      }
    }
  }
}
node {
  name: "Placeholder_5"
  op: "Placeholder"
  attr {
    key: "dtype"
    value {
      type: DT_FLOAT
    }
  }
  attr {
    key: "shape"
    value {
      shape {
      }
    }
  }
}
node {
  name: "Mul_2"
  op: "Mul"
  input: "Placeholder_4"
  input: "Placeholder_5"
  attr {
    key: "T"
    value {
      type: DT_FLOAT
    }
  }
}
node {
  name: "Add"
  op: "Add"
  input: "Mul_2"
  input: "Slice"
  attr {
    key: "T"
    value {
      type: DT_FLOAT
    }
  }
}
node {
  name: "clip_by_value/Minimum/y"
  op: "Const"
  attr {
    key: "dtype"
    value {
      type: DT_FLOAT
    }
  }
  attr {
    key: "value"
    value {
      tensor {
        dtype: DT_FLOAT
        tensor_shape {
        }
        float_val: 1.0
      }
    }
  }
}
node {
  name: "clip_by_value/Minimum"
  op: "Minimum"
  input: "Add"
  input: "clip_by_value/Minimum/y"
  attr {
    key: "T"
    value {
      type: DT_FLOAT
    }
  }
}
node {
  name: "clip_by_value/y"
  op: "Const"
  attr {
    key: "dtype"
    value {
      type: DT_FLOAT
    }
  }
  attr {
    key: "value"
    value {
      tensor {
        dtype: DT_FLOAT
        tensor_shape {
        }
        float_val: -1.0
      }
    }
  }
}
node {
  name: "clip_by_value"
  op: "Maximum"
  input: "clip_by_value/Minimum"
  input: "clip_by_value/y"
  attr {
    key: "T"
    value {
      type: DT_FLOAT
    }
  }
}
node {
  name: "AudioSpectrogram"
  op: "AudioSpectrogram"
  input: "clip_by_value"
  attr {
    key: "magnitude_squared"
    value {
      b: true
    }
  }
  attr {
    key: "stride"
    value {
      i: 320
    }
  }
  attr {
    key: "window_size"
    value {
      i: 640
    }
  }
}
node {
  name: "Mfcc"
  op: "Mfcc"
  input: "AudioSpectrogram"
  input: "DecodeWav_1:1"
  attr {
    key: "dct_coefficient_count"
    value {
      i: 13
    }
  }
  attr {
    key: "filterbank_channel_count"
    value {
      i: 40
    }
  }
  attr {
    key: "lower_frequency_limit"
    value {
      f: 20.0
    }
  }
  attr {
    key: "upper_frequency_limit"
    value {
      f: 4000.0
    }
  }
}
node {
  name: "fingerprint_input"
  op: "Placeholder"
  attr {
    key: "dtype"
    value {
      type: DT_FLOAT
    }
  }
  attr {
    key: "shape"
    value {
      shape {
        dim {
          size: -1
        }
        dim {
          size: 637
        }
      }
    }
  }
}
node {
  name: "dropout_prob"
  op: "Placeholder"
  attr {
    key: "dtype"
    value {
      type: DT_FLOAT
    }
  }
  attr {
    key: "shape"
    value {
      shape {
        unknown_rank: true
      }
    }
  }
}
node {
  name: "Reshape_1/shape"
  op: "Const"
  attr {
    key: "dtype"
    value {
      type: DT_INT32
    }
  }
  attr {
    key: "value"
    value {
      tensor {
        dtype: DT_INT32
        tensor_shape {
          dim {
            size: 4
          }
        }
        tensor_content: "\377\377\377\3771\000\000\000\r\000\000\000\001\000\000\000"
      }
    }
  }
}
node {
  name: "Reshape_1"
  op: "Reshape"
  input: "fingerprint_input"
  input: "Reshape_1/shape"
  attr {
    key: "T"
    value {
      type: DT_FLOAT
    }
  }
  attr {
    key: "Tshape"
    value {
      type: DT_INT32
    }
  }
}
node {
  name: "truncated_normal/shape"
  op: "Const"
  attr {
    key: "dtype"
    value {
      type: DT_INT32
    }
  }
  attr {
    key: "value"
    value {
      tensor {
        dtype: DT_INT32
        tensor_shape {
          dim {
            size: 4
          }
        }
        tensor_content: "\n\000\000\000\004\000\000\000\001\000\000\000\034\000\000\000"
      }
    }
  }
}
node {
  name: "truncated_normal/mean"
  op: "Const"
  attr {
    key: "dtype"
    value {
      type: DT_FLOAT
    }
  }
  attr {
    key: "value"
    value {
      tensor {
        dtype: DT_FLOAT
        tensor_shape {
        }
        float_val: 0.0
      }
    }
  }
}
node {
  name: "truncated_normal/stddev"
  op: "Const"
  attr {
    key: "dtype"
    value {
      type: DT_FLOAT
    }
  }
  attr {
    key: "value"
    value {
      tensor {
        dtype: DT_FLOAT
        tensor_shape {
        }
        float_val: 0.01
      }
    }
  }
}
node {
  name: "truncated_normal/TruncatedNormal"
  op: "TruncatedNormal"
  input: "truncated_normal/shape"
  attr {
    key: "T"
    value {
      type: DT_INT32
    }
  }
  attr {
    key: "dtype"
    value {
      type: DT_FLOAT
    }
  }
  attr {
    key: "seed"
    value {
      i: 0
    }
  }
  attr {
    key: "seed2"
    value {
      i: 0
    }
  }
}
node {
  name: "truncated_normal/mul"
  op: "Mul"
  input: "truncated_normal/TruncatedNormal"
  input: "truncated_normal/stddev"
  attr {
    key: "T"
    value {
      type: DT_FLOAT
    }
  }
}
node {
  name: "truncated_normal"
  op: "Add"
  input: "truncated_normal/mul"
  input: "truncated_normal/mean"
  attr {
    key: "T"
    value {
      type: DT_FLOAT
    }
  }
}
node {
  name: "Variable"
  op: "VariableV2"
  attr {
    key: "container"
    value {
      s: ""
    }
  }
  attr {
    key: "dtype"
    value {
      type: DT_FLOAT
    }
  }
  attr {
    key: "shape"
    value {
      shape {
        dim {
          size: 10
        }
        dim {
          size: 4
        }
        dim {
          size: 1
        }
        dim {
          size: 28
        }
      }
    }
  }
  attr {
    key: "shared_name"
    value {
      s: ""
    }
  }
}
node {
  name: "Variable/Assign"
  op: "Assign"
  input: "Variable"
  input: "truncated_normal"
  attr {
    key: "T"
    value {
      type: DT_FLOAT
    }
  }
  attr {
    key: "_class"
    value {
      list {
        s: "loc:@Variable"
      }
    }
  }
  attr {
    key: "use_locking"
    value {
      b: true
    }
  }
  attr {
    key: "validate_shape"
    value {
      b: true
    }
  }
}
node {
  name: "Variable/read"
  op: "Identity"
  input: "Variable"
  attr {
    key: "T"
    value {
      type: DT_FLOAT
    }
  }
  attr {
    key: "_class"
    value {
      list {
        s: "loc:@Variable"
      }
    }
  }
}
node {
  name: "zeros"
  op: "Const"
  attr {
    key: "dtype"
    value {
      type: DT_FLOAT
    }
  }
  attr {
    key: "value"
    value {
      tensor {
        dtype: DT_FLOAT
        tensor_shape {
          dim {
            size: 28
          }
        }
        float_val: 0.0
      }
    }
  }
}
node {
  name: "Variable_1"
  op: "VariableV2"
  attr {
    key: "container"
    value {
      s: ""
    }
  }
  attr {
    key: "dtype"
    value {
      type: DT_FLOAT
    }
  }
  attr {
    key: "shape"
    value {
      shape {
        dim {
          size: 28
        }
      }
    }
  }
  attr {
    key: "shared_name"
    value {
      s: ""
    }
  }
}
node {
  name: "Variable_1/Assign"
  op: "Assign"
  input: "Variable_1"
  input: "zeros"
  attr {
    key: "T"
    value {
      type: DT_FLOAT
    }
  }
  attr {
    key: "_class"
    value {
      list {
        s: "loc:@Variable_1"
      }
    }
  }
  attr {
    key: "use_locking"
    value {
      b: true
    }
  }
  attr {
    key: "validate_shape"
    value {
      b: true
    }
  }
}
node {
  name: "Variable_1/read"
  op: "Identity"
  input: "Variable_1"
  attr {
    key: "T"
    value {
      type: DT_FLOAT
    }
  }
  attr {
    key: "_class"
    value {
      list {
        s: "loc:@Variable_1"
      }
    }
  }
}
node {
  name: "Conv2D"
  op: "Conv2D"
  input: "Reshape_1"
  input: "Variable/read"
  attr {
    key: "T"
    value {
      type: DT_FLOAT
    }
  }
  attr {
    key: "data_format"
    value {
      s: "NHWC"
    }
  }
  attr {
    key: "dilations"
    value {
      list {
        i: 1
        i: 1
        i: 1
        i: 1
      }
    }
  }
  attr {
    key: "padding"
    value {
      s: "VALID"
    }
  }
  attr {
    key: "strides"
    value {
      list {
        i: 1
        i: 1
        i: 1
        i: 1
      }
    }
  }
  attr {
    key: "use_cudnn_on_gpu"
    value {
      b: true
    }
  }
}
node {
  name: "add_1"
  op: "Add"
  input: "Conv2D"
  input: "Variable_1/read"
  attr {
    key: "T"
    value {
      type: DT_FLOAT
    }
  }
}
node {
  name: "bn1/gamma/Initializer/ones"
  op: "Const"
  attr {
    key: "_class"
    value {
      list {
        s: "loc:@bn1/gamma"
      }
    }
  }
  attr {
    key: "dtype"
    value {
      type: DT_FLOAT
    }
  }
  attr {
    key: "value"
    value {
      tensor {
        dtype: DT_FLOAT
        tensor_shape {
          dim {
            size: 28
          }
        }
        float_val: 1.0
      }
    }
  }
}
node {
  name: "bn1/gamma"
  op: "VariableV2"
  attr {
    key: "_class"
    value {
      list {
        s: "loc:@bn1/gamma"
      }
    }
  }
  attr {
    key: "container"
    value {
      s: ""
    }
  }
  attr {
    key: "dtype"
    value {
      type: DT_FLOAT
    }
  }
  attr {
    key: "shape"
    value {
      shape {
        dim {
          size: 28
        }
      }
    }
  }
  attr {
    key: "shared_name"
    value {
      s: ""
    }
  }
}
node {
  name: "bn1/gamma/Assign"
  op: "Assign"
  input: "bn1/gamma"
  input: "bn1/gamma/Initializer/ones"
  attr {
    key: "T"
    value {
      type: DT_FLOAT
    }
  }
  attr {
    key: "_class"
    value {
      list {
        s: "loc:@bn1/gamma"
      }
    }
  }
  attr {
    key: "use_locking"
    value {
      b: true
    }
  }
  attr {
    key: "validate_shape"
    value {
      b: true
    }
  }
}
node {
  name: "bn1/gamma/read"
  op: "Identity"
  input: "bn1/gamma"
  attr {
    key: "T"
    value {
      type: DT_FLOAT
    }
  }
  attr {
    key: "_class"
    value {
      list {
        s: "loc:@bn1/gamma"
      }
    }
  }
}
node {
  name: "bn1/beta/Initializer/zeros"
  op: "Const"
  attr {
    key: "_class"
    value {
      list {
        s: "loc:@bn1/beta"
      }
    }
  }
  attr {
    key: "dtype"
    value {
      type: DT_FLOAT
    }
  }
  attr {
    key: "value"
    value {
      tensor {
        dtype: DT_FLOAT
        tensor_shape {
          dim {
            size: 28
          }
        }
        float_val: 0.0
      }
    }
  }
}
node {
  name: "bn1/beta"
  op: "VariableV2"
  attr {
    key: "_class"
    value {
      list {
        s: "loc:@bn1/beta"
      }
    }
  }
  attr {
    key: "container"
    value {
      s: ""
    }
  }
  attr {
    key: "dtype"
    value {
      type: DT_FLOAT
    }
  }
  attr {
    key: "shape"
    value {
      shape {
        dim {
          size: 28
        }
      }
    }
  }
  attr {
    key: "shared_name"
    value {
      s: ""
    }
  }
}
node {
  name: "bn1/beta/Assign"
  op: "Assign"
  input: "bn1/beta"
  input: "bn1/beta/Initializer/zeros"
  attr {
    key: "T"
    value {
      type: DT_FLOAT
    }
  }
  attr {
    key: "_class"
    value {
      list {
        s: "loc:@bn1/beta"
      }
    }
  }
  attr {
    key: "use_locking"
    value {
      b: true
    }
  }
  attr {
    key: "validate_shape"
    value {
      b: true
    }
  }
}
node {
  name: "bn1/beta/read"
  op: "Identity"
  input: "bn1/beta"
  attr {
    key: "T"
    value {
      type: DT_FLOAT
    }
  }
  attr {
    key: "_class"
    value {
      list {
        s: "loc:@bn1/beta"
      }
    }
  }
}
node {
  name: "bn1/moving_mean/Initializer/zeros"
  op: "Const"
  attr {
    key: "_class"
    value {
      list {
        s: "loc:@bn1/moving_mean"
      }
    }
  }
  attr {
    key: "dtype"
    value {
      type: DT_FLOAT
    }
  }
  attr {
    key: "value"
    value {
      tensor {
        dtype: DT_FLOAT
        tensor_shape {
          dim {
            size: 28
          }
        }
        float_val: 0.0
      }
    }
  }
}
node {
  name: "bn1/moving_mean"
  op: "VariableV2"
  attr {
    key: "_class"
    value {
      list {
        s: "loc:@bn1/moving_mean"
      }
    }
  }
  attr {
    key: "container"
    value {
      s: ""
    }
  }
  attr {
    key: "dtype"
    value {
      type: DT_FLOAT
    }
  }
  attr {
    key: "shape"
    value {
      shape {
        dim {
          size: 28
        }
      }
    }
  }
  attr {
    key: "shared_name"
    value {
      s: ""
    }
  }
}
node {
  name: "bn1/moving_mean/Assign"
  op: "Assign"
  input: "bn1/moving_mean"
  input: "bn1/moving_mean/Initializer/zeros"
  attr {
    key: "T"
    value {
      type: DT_FLOAT
    }
  }
  attr {
    key: "_class"
    value {
      list {
        s: "loc:@bn1/moving_mean"
      }
    }
  }
  attr {
    key: "use_locking"
    value {
      b: true
    }
  }
  attr {
    key: "validate_shape"
    value {
      b: true
    }
  }
}
node {
  name: "bn1/moving_mean/read"
  op: "Identity"
  input: "bn1/moving_mean"
  attr {
    key: "T"
    value {
      type: DT_FLOAT
    }
  }
  attr {
    key: "_class"
    value {
      list {
        s: "loc:@bn1/moving_mean"
      }
    }
  }
}
node {
  name: "bn1/moving_variance/Initializer/ones"
  op: "Const"
  attr {
    key: "_class"
    value {
      list {
        s: "loc:@bn1/moving_variance"
      }
    }
  }
  attr {
    key: "dtype"
    value {
      type: DT_FLOAT
    }
  }
  attr {
    key: "value"
    value {
      tensor {
        dtype: DT_FLOAT
        tensor_shape {
          dim {
            size: 28
          }
        }
        float_val: 1.0
      }
    }
  }
}
node {
  name: "bn1/moving_variance"
  op: "VariableV2"
  attr {
    key: "_class"
    value {
      list {
        s: "loc:@bn1/moving_variance"
      }
    }
  }
  attr {
    key: "container"
    value {
      s: ""
    }
  }
  attr {
    key: "dtype"
    value {
      type: DT_FLOAT
    }
  }
  attr {
    key: "shape"
    value {
      shape {
        dim {
          size: 28
        }
      }
    }
  }
  attr {
    key: "shared_name"
    value {
      s: ""
    }
  }
}
node {
  name: "bn1/moving_variance/Assign"
  op: "Assign"
  input: "bn1/moving_variance"
  input: "bn1/moving_variance/Initializer/ones"
  attr {
    key: "T"
    value {
      type: DT_FLOAT
    }
  }
  attr {
    key: "_class"
    value {
      list {
        s: "loc:@bn1/moving_variance"
      }
    }
  }
  attr {
    key: "use_locking"
    value {
      b: true
    }
  }
  attr {
    key: "validate_shape"
    value {
      b: true
    }
  }
}
node {
  name: "bn1/moving_variance/read"
  op: "Identity"
  input: "bn1/moving_variance"
  attr {
    key: "T"
    value {
      type: DT_FLOAT
    }
  }
  attr {
    key: "_class"
    value {
      list {
        s: "loc:@bn1/moving_variance"
      }
    }
  }
}
node {
  name: "bn1/Const"
  op: "Const"
  attr {
    key: "dtype"
    value {
      type: DT_FLOAT
    }
  }
  attr {
    key: "value"
    value {
      tensor {
        dtype: DT_FLOAT
        tensor_shape {
          dim {
          }
        }
      }
    }
  }
}
node {
  name: "bn1/Const_1"
  op: "Const"
  attr {
    key: "dtype"
    value {
      type: DT_FLOAT
    }
  }
  attr {
    key: "value"
    value {
      tensor {
        dtype: DT_FLOAT
        tensor_shape {
          dim {
          }
        }
      }
    }
  }
}
node {
  name: "bn1/FusedBatchNorm"
  op: "FusedBatchNorm"
  input: "add_1"
  input: "bn1/gamma/read"
  input: "bn1/beta/read"
  input: "bn1/Const"
  input: "bn1/Const_1"
  attr {
    key: "T"
    value {
      type: DT_FLOAT
    }
  }
  attr {
    key: "data_format"
    value {
      s: "NHWC"
    }
  }
  attr {
    key: "epsilon"
    value {
      f: 0.001
    }
  }
  attr {
    key: "is_training"
    value {
      b: true
    }
  }
}
node {
  name: "bn1/Const_2"
  op: "Const"
  attr {
    key: "dtype"
    value {
      type: DT_FLOAT
    }
  }
  attr {
    key: "value"
    value {
      tensor {
        dtype: DT_FLOAT
        tensor_shape {
        }
        float_val: 0.99
      }
    }
  }
}
node {
  name: "bn1/AssignMovingAvg/sub/x"
  op: "Const"
  attr {
    key: "_class"
    value {
      list {
        s: "loc:@bn1/moving_mean"
      }
    }
  }
  attr {
    key: "dtype"
    value {
      type: DT_FLOAT
    }
  }
  attr {
    key: "value"
    value {
      tensor {
        dtype: DT_FLOAT
        tensor_shape {
        }
        float_val: 1.0
      }
    }
  }
}
node {
  name: "bn1/AssignMovingAvg/sub"
  op: "Sub"
  input: "bn1/AssignMovingAvg/sub/x"
  input: "bn1/Const_2"
  attr {
    key: "T"
    value {
      type: DT_FLOAT
    }
  }
  attr {
    key: "_class"
    value {
      list {
        s: "loc:@bn1/moving_mean"
      }
    }
  }
}
node {
  name: "bn1/AssignMovingAvg/sub_1"
  op: "Sub"
  input: "bn1/moving_mean/read"
  input: "bn1/FusedBatchNorm:1"
  attr {
    key: "T"
    value {
      type: DT_FLOAT
    }
  }
  attr {
    key: "_class"
    value {
      list {
        s: "loc:@bn1/moving_mean"
      }
    }
  }
}
node {
  name: "bn1/AssignMovingAvg/mul"
  op: "Mul"
  input: "bn1/AssignMovingAvg/sub_1"
  input: "bn1/AssignMovingAvg/sub"
  attr {
    key: "T"
    value {
      type: DT_FLOAT
    }
  }
  attr {
    key: "_class"
    value {
      list {
        s: "loc:@bn1/moving_mean"
      }
    }
  }
}
node {
  name: "bn1/AssignMovingAvg"
  op: "AssignSub"
  input: "bn1/moving_mean"
  input: "bn1/AssignMovingAvg/mul"
  attr {
    key: "T"
    value {
      type: DT_FLOAT
    }
  }
  attr {
    key: "_class"
    value {
      list {
        s: "loc:@bn1/moving_mean"
      }
    }
  }
  attr {
    key: "use_locking"
    value {
      b: false
    }
  }
}
node {
  name: "bn1/AssignMovingAvg_1/sub/x"
  op: "Const"
  attr {
    key: "_class"
    value {
      list {
        s: "loc:@bn1/moving_variance"
      }
    }
  }
  attr {
    key: "dtype"
    value {
      type: DT_FLOAT
    }
  }
  attr {
    key: "value"
    value {
      tensor {
        dtype: DT_FLOAT
        tensor_shape {
        }
        float_val: 1.0
      }
    }
  }
}
node {
  name: "bn1/AssignMovingAvg_1/sub"
  op: "Sub"
  input: "bn1/AssignMovingAvg_1/sub/x"
  input: "bn1/Const_2"
  attr {
    key: "T"
    value {
      type: DT_FLOAT
    }
  }
  attr {
    key: "_class"
    value {
      list {
        s: "loc:@bn1/moving_variance"
      }
    }
  }
}
node {
  name: "bn1/AssignMovingAvg_1/sub_1"
  op: "Sub"
  input: "bn1/moving_variance/read"
  input: "bn1/FusedBatchNorm:2"
  attr {
    key: "T"
    value {
      type: DT_FLOAT
    }
  }
  attr {
    key: "_class"
    value {
      list {
        s: "loc:@bn1/moving_variance"
      }
    }
  }
}
node {
  name: "bn1/AssignMovingAvg_1/mul"
  op: "Mul"
  input: "bn1/AssignMovingAvg_1/sub_1"
  input: "bn1/AssignMovingAvg_1/sub"
  attr {
    key: "T"
    value {
      type: DT_FLOAT
    }
  }
  attr {
    key: "_class"
    value {
      list {
        s: "loc:@bn1/moving_variance"
      }
    }
  }
}
node {
  name: "bn1/AssignMovingAvg_1"
  op: "AssignSub"
  input: "bn1/moving_variance"
  input: "bn1/AssignMovingAvg_1/mul"
  attr {
    key: "T"
    value {
      type: DT_FLOAT
    }
  }
  attr {
    key: "_class"
    value {
      list {
        s: "loc:@bn1/moving_variance"
      }
    }
  }
  attr {
    key: "use_locking"
    value {
      b: false
    }
  }
}
node {
  name: "Relu"
  op: "Relu"
  input: "bn1/FusedBatchNorm"
  attr {
    key: "T"
    value {
      type: DT_FLOAT
    }
  }
}
node {
  name: "dropout/Shape"
  op: "Shape"
  input: "Relu"
  attr {
    key: "T"
    value {
      type: DT_FLOAT
    }
  }
  attr {
    key: "out_type"
    value {
      type: DT_INT32
    }
  }
}
node {
  name: "dropout/random_uniform/min"
  op: "Const"
  attr {
    key: "dtype"
    value {
      type: DT_FLOAT
    }
  }
  attr {
    key: "value"
    value {
      tensor {
        dtype: DT_FLOAT
        tensor_shape {
        }
        float_val: 0.0
      }
    }
  }
}
node {
  name: "dropout/random_uniform/max"
  op: "Const"
  attr {
    key: "dtype"
    value {
      type: DT_FLOAT
    }
  }
  attr {
    key: "value"
    value {
      tensor {
        dtype: DT_FLOAT
        tensor_shape {
        }
        float_val: 1.0
      }
    }
  }
}
node {
  name: "dropout/random_uniform/RandomUniform"
  op: "RandomUniform"
  input: "dropout/Shape"
  attr {
    key: "T"
    value {
      type: DT_INT32
    }
  }
  attr {
    key: "dtype"
    value {
      type: DT_FLOAT
    }
  }
  attr {
    key: "seed"
    value {
      i: 0
    }
  }
  attr {
    key: "seed2"
    value {
      i: 0
    }
  }
}
node {
  name: "dropout/random_uniform/sub"
  op: "Sub"
  input: "dropout/random_uniform/max"
  input: "dropout/random_uniform/min"
  attr {
    key: "T"
    value {
      type: DT_FLOAT
    }
  }
}
node {
  name: "dropout/random_uniform/mul"
  op: "Mul"
  input: "dropout/random_uniform/RandomUniform"
  input: "dropout/random_uniform/sub"
  attr {
    key: "T"
    value {
      type: DT_FLOAT
    }
  }
}
node {
  name: "dropout/random_uniform"
  op: "Add"
  input: "dropout/random_uniform/mul"
  input: "dropout/random_uniform/min"
  attr {
    key: "T"
    value {
      type: DT_FLOAT
    }
  }
}
node {
  name: "dropout/add"
  op: "Add"
  input: "dropout_prob"
  input: "dropout/random_uniform"
  attr {
    key: "T"
    value {
      type: DT_FLOAT
    }
  }
}
node {
  name: "dropout/Floor"
  op: "Floor"
  input: "dropout/add"
  attr {
    key: "T"
    value {
      type: DT_FLOAT
    }
  }
}
node {
  name: "dropout/div"
  op: "RealDiv"
  input: "Relu"
  input: "dropout_prob"
  attr {
    key: "T"
    value {
      type: DT_FLOAT
    }
  }
}
node {
  name: "dropout/mul"
  op: "Mul"
  input: "dropout/div"
  input: "dropout/Floor"
  attr {
    key: "T"
    value {
      type: DT_FLOAT
    }
  }
}
node {
  name: "truncated_normal_1/shape"
  op: "Const"
  attr {
    key: "dtype"
    value {
      type: DT_INT32
    }
  }
  attr {
    key: "value"
    value {
      tensor {
        dtype: DT_INT32
        tensor_shape {
          dim {
            size: 4
          }
        }
        tensor_content: "\n\000\000\000\004\000\000\000\034\000\000\000\036\000\000\000"
      }
    }
  }
}
node {
  name: "truncated_normal_1/mean"
  op: "Const"
  attr {
    key: "dtype"
    value {
      type: DT_FLOAT
    }
  }
  attr {
    key: "value"
    value {
      tensor {
        dtype: DT_FLOAT
        tensor_shape {
        }
        float_val: 0.0
      }
    }
  }
}
node {
  name: "truncated_normal_1/stddev"
  op: "Const"
  attr {
    key: "dtype"
    value {
      type: DT_FLOAT
    }
  }
  attr {
    key: "value"
    value {
      tensor {
        dtype: DT_FLOAT
        tensor_shape {
        }
        float_val: 0.01
      }
    }
  }
}
node {
  name: "truncated_normal_1/TruncatedNormal"
  op: "TruncatedNormal"
  input: "truncated_normal_1/shape"
  attr {
    key: "T"
    value {
      type: DT_INT32
    }
  }
  attr {
    key: "dtype"
    value {
      type: DT_FLOAT
    }
  }
  attr {
    key: "seed"
    value {
      i: 0
    }
  }
  attr {
    key: "seed2"
    value {
      i: 0
    }
  }
}
node {
  name: "truncated_normal_1/mul"
  op: "Mul"
  input: "truncated_normal_1/TruncatedNormal"
  input: "truncated_normal_1/stddev"
  attr {
    key: "T"
    value {
      type: DT_FLOAT
    }
  }
}
node {
  name: "truncated_normal_1"
  op: "Add"
  input: "truncated_normal_1/mul"
  input: "truncated_normal_1/mean"
  attr {
    key: "T"
    value {
      type: DT_FLOAT
    }
  }
}
node {
  name: "Variable_2"
  op: "VariableV2"
  attr {
    key: "container"
    value {
      s: ""
    }
  }
  attr {
    key: "dtype"
    value {
      type: DT_FLOAT
    }
  }
  attr {
    key: "shape"
    value {
      shape {
        dim {
          size: 10
        }
        dim {
          size: 4
        }
        dim {
          size: 28
        }
        dim {
          size: 30
        }
      }
    }
  }
  attr {
    key: "shared_name"
    value {
      s: ""
    }
  }
}
node {
  name: "Variable_2/Assign"
  op: "Assign"
  input: "Variable_2"
  input: "truncated_normal_1"
  attr {
    key: "T"
    value {
      type: DT_FLOAT
    }
  }
  attr {
    key: "_class"
    value {
      list {
        s: "loc:@Variable_2"
      }
    }
  }
  attr {
    key: "use_locking"
    value {
      b: true
    }
  }
  attr {
    key: "validate_shape"
    value {
      b: true
    }
  }
}
node {
  name: "Variable_2/read"
  op: "Identity"
  input: "Variable_2"
  attr {
    key: "T"
    value {
      type: DT_FLOAT
    }
  }
  attr {
    key: "_class"
    value {
      list {
        s: "loc:@Variable_2"
      }
    }
  }
}
node {
  name: "zeros_1"
  op: "Const"
  attr {
    key: "dtype"
    value {
      type: DT_FLOAT
    }
  }
  attr {
    key: "value"
    value {
      tensor {
        dtype: DT_FLOAT
        tensor_shape {
          dim {
            size: 30
          }
        }
        float_val: 0.0
      }
    }
  }
}
node {
  name: "Variable_3"
  op: "VariableV2"
  attr {
    key: "container"
    value {
      s: ""
    }
  }
  attr {
    key: "dtype"
    value {
      type: DT_FLOAT
    }
  }
  attr {
    key: "shape"
    value {
      shape {
        dim {
          size: 30
        }
      }
    }
  }
  attr {
    key: "shared_name"
    value {
      s: ""
    }
  }
}
node {
  name: "Variable_3/Assign"
  op: "Assign"
  input: "Variable_3"
  input: "zeros_1"
  attr {
    key: "T"
    value {
      type: DT_FLOAT
    }
  }
  attr {
    key: "_class"
    value {
      list {
        s: "loc:@Variable_3"
      }
    }
  }
  attr {
    key: "use_locking"
    value {
      b: true
    }
  }
  attr {
    key: "validate_shape"
    value {
      b: true
    }
  }
}
node {
  name: "Variable_3/read"
  op: "Identity"
  input: "Variable_3"
  attr {
    key: "T"
    value {
      type: DT_FLOAT
    }
  }
  attr {
    key: "_class"
    value {
      list {
        s: "loc:@Variable_3"
      }
    }
  }
}
node {
  name: "Conv2D_1"
  op: "Conv2D"
  input: "dropout/mul"
  input: "Variable_2/read"
  attr {
    key: "T"
    value {
      type: DT_FLOAT
    }
  }
  attr {
    key: "data_format"
    value {
      s: "NHWC"
    }
  }
  attr {
    key: "dilations"
    value {
      list {
        i: 1
        i: 1
        i: 1
        i: 1
      }
    }
  }
  attr {
    key: "padding"
    value {
      s: "VALID"
    }
  }
  attr {
    key: "strides"
    value {
      list {
        i: 1
        i: 2
        i: 1
        i: 1
      }
    }
  }
  attr {
    key: "use_cudnn_on_gpu"
    value {
      b: true
    }
  }
}
node {
  name: "add_2"
  op: "Add"
  input: "Conv2D_1"
  input: "Variable_3/read"
  attr {
    key: "T"
    value {
      type: DT_FLOAT
    }
  }
}
node {
  name: "bn2/gamma/Initializer/ones"
  op: "Const"
  attr {
    key: "_class"
    value {
      list {
        s: "loc:@bn2/gamma"
      }
    }
  }
  attr {
    key: "dtype"
    value {
      type: DT_FLOAT
    }
  }
  attr {
    key: "value"
    value {
      tensor {
        dtype: DT_FLOAT
        tensor_shape {
          dim {
            size: 30
          }
        }
        float_val: 1.0
      }
    }
  }
}
node {
  name: "bn2/gamma"
  op: "VariableV2"
  attr {
    key: "_class"
    value {
      list {
        s: "loc:@bn2/gamma"
      }
    }
  }
  attr {
    key: "container"
    value {
      s: ""
    }
  }
  attr {
    key: "dtype"
    value {
      type: DT_FLOAT
    }
  }
  attr {
    key: "shape"
    value {
      shape {
        dim {
          size: 30
        }
      }
    }
  }
  attr {
    key: "shared_name"
    value {
      s: ""
    }
  }
}
node {
  name: "bn2/gamma/Assign"
  op: "Assign"
  input: "bn2/gamma"
  input: "bn2/gamma/Initializer/ones"
  attr {
    key: "T"
    value {
      type: DT_FLOAT
    }
  }
  attr {
    key: "_class"
    value {
      list {
        s: "loc:@bn2/gamma"
      }
    }
  }
  attr {
    key: "use_locking"
    value {
      b: true
    }
  }
  attr {
    key: "validate_shape"
    value {
      b: true
    }
  }
}
node {
  name: "bn2/gamma/read"
  op: "Identity"
  input: "bn2/gamma"
  attr {
    key: "T"
    value {
      type: DT_FLOAT
    }
  }
  attr {
    key: "_class"
    value {
      list {
        s: "loc:@bn2/gamma"
      }
    }
  }
}
node {
  name: "bn2/beta/Initializer/zeros"
  op: "Const"
  attr {
    key: "_class"
    value {
      list {
        s: "loc:@bn2/beta"
      }
    }
  }
  attr {
    key: "dtype"
    value {
      type: DT_FLOAT
    }
  }
  attr {
    key: "value"
    value {
      tensor {
        dtype: DT_FLOAT
        tensor_shape {
          dim {
            size: 30
          }
        }
        float_val: 0.0
      }
    }
  }
}
node {
  name: "bn2/beta"
  op: "VariableV2"
  attr {
    key: "_class"
    value {
      list {
        s: "loc:@bn2/beta"
      }
    }
  }
  attr {
    key: "container"
    value {
      s: ""
    }
  }
  attr {
    key: "dtype"
    value {
      type: DT_FLOAT
    }
  }
  attr {
    key: "shape"
    value {
      shape {
        dim {
          size: 30
        }
      }
    }
  }
  attr {
    key: "shared_name"
    value {
      s: ""
    }
  }
}
node {
  name: "bn2/beta/Assign"
  op: "Assign"
  input: "bn2/beta"
  input: "bn2/beta/Initializer/zeros"
  attr {
    key: "T"
    value {
      type: DT_FLOAT
    }
  }
  attr {
    key: "_class"
    value {
      list {
        s: "loc:@bn2/beta"
      }
    }
  }
  attr {
    key: "use_locking"
    value {
      b: true
    }
  }
  attr {
    key: "validate_shape"
    value {
      b: true
    }
  }
}
node {
  name: "bn2/beta/read"
  op: "Identity"
  input: "bn2/beta"
  attr {
    key: "T"
    value {
      type: DT_FLOAT
    }
  }
  attr {
    key: "_class"
    value {
      list {
        s: "loc:@bn2/beta"
      }
    }
  }
}
node {
  name: "bn2/moving_mean/Initializer/zeros"
  op: "Const"
  attr {
    key: "_class"
    value {
      list {
        s: "loc:@bn2/moving_mean"
      }
    }
  }
  attr {
    key: "dtype"
    value {
      type: DT_FLOAT
    }
  }
  attr {
    key: "value"
    value {
      tensor {
        dtype: DT_FLOAT
        tensor_shape {
          dim {
            size: 30
          }
        }
        float_val: 0.0
      }
    }
  }
}
node {
  name: "bn2/moving_mean"
  op: "VariableV2"
  attr {
    key: "_class"
    value {
      list {
        s: "loc:@bn2/moving_mean"
      }
    }
  }
  attr {
    key: "container"
    value {
      s: ""
    }
  }
  attr {
    key: "dtype"
    value {
      type: DT_FLOAT
    }
  }
  attr {
    key: "shape"
    value {
      shape {
        dim {
          size: 30
        }
      }
    }
  }
  attr {
    key: "shared_name"
    value {
      s: ""
    }
  }
}
node {
  name: "bn2/moving_mean/Assign"
  op: "Assign"
  input: "bn2/moving_mean"
  input: "bn2/moving_mean/Initializer/zeros"
  attr {
    key: "T"
    value {
      type: DT_FLOAT
    }
  }
  attr {
    key: "_class"
    value {
      list {
        s: "loc:@bn2/moving_mean"
      }
    }
  }
  attr {
    key: "use_locking"
    value {
      b: true
    }
  }
  attr {
    key: "validate_shape"
    value {
      b: true
    }
  }
}
node {
  name: "bn2/moving_mean/read"
  op: "Identity"
  input: "bn2/moving_mean"
  attr {
    key: "T"
    value {
      type: DT_FLOAT
    }
  }
  attr {
    key: "_class"
    value {
      list {
        s: "loc:@bn2/moving_mean"
      }
    }
  }
}
node {
  name: "bn2/moving_variance/Initializer/ones"
  op: "Const"
  attr {
    key: "_class"
    value {
      list {
        s: "loc:@bn2/moving_variance"
      }
    }
  }
  attr {
    key: "dtype"
    value {
      type: DT_FLOAT
    }
  }
  attr {
    key: "value"
    value {
      tensor {
        dtype: DT_FLOAT
        tensor_shape {
          dim {
            size: 30
          }
        }
        float_val: 1.0
      }
    }
  }
}
node {
  name: "bn2/moving_variance"
  op: "VariableV2"
  attr {
    key: "_class"
    value {
      list {
        s: "loc:@bn2/moving_variance"
      }
    }
  }
  attr {
    key: "container"
    value {
      s: ""
    }
  }
  attr {
    key: "dtype"
    value {
      type: DT_FLOAT
    }
  }
  attr {
    key: "shape"
    value {
      shape {
        dim {
          size: 30
        }
      }
    }
  }
  attr {
    key: "shared_name"
    value {
      s: ""
    }
  }
}
node {
  name: "bn2/moving_variance/Assign"
  op: "Assign"
  input: "bn2/moving_variance"
  input: "bn2/moving_variance/Initializer/ones"
  attr {
    key: "T"
    value {
      type: DT_FLOAT
    }
  }
  attr {
    key: "_class"
    value {
      list {
        s: "loc:@bn2/moving_variance"
      }
    }
  }
  attr {
    key: "use_locking"
    value {
      b: true
    }
  }
  attr {
    key: "validate_shape"
    value {
      b: true
    }
  }
}
node {
  name: "bn2/moving_variance/read"
  op: "Identity"
  input: "bn2/moving_variance"
  attr {
    key: "T"
    value {
      type: DT_FLOAT
    }
  }
  attr {
    key: "_class"
    value {
      list {
        s: "loc:@bn2/moving_variance"
      }
    }
  }
}
node {
  name: "bn2/Const"
  op: "Const"
  attr {
    key: "dtype"
    value {
      type: DT_FLOAT
    }
  }
  attr {
    key: "value"
    value {
      tensor {
        dtype: DT_FLOAT
        tensor_shape {
          dim {
          }
        }
      }
    }
  }
}
node {
  name: "bn2/Const_1"
  op: "Const"
  attr {
    key: "dtype"
    value {
      type: DT_FLOAT
    }
  }
  attr {
    key: "value"
    value {
      tensor {
        dtype: DT_FLOAT
        tensor_shape {
          dim {
          }
        }
      }
    }
  }
}
node {
  name: "bn2/FusedBatchNorm"
  op: "FusedBatchNorm"
  input: "add_2"
  input: "bn2/gamma/read"
  input: "bn2/beta/read"
  input: "bn2/Const"
  input: "bn2/Const_1"
  attr {
    key: "T"
    value {
      type: DT_FLOAT
    }
  }
  attr {
    key: "data_format"
    value {
      s: "NHWC"
    }
  }
  attr {
    key: "epsilon"
    value {
      f: 0.001
    }
  }
  attr {
    key: "is_training"
    value {
      b: true
    }
  }
}
node {
  name: "bn2/Const_2"
  op: "Const"
  attr {
    key: "dtype"
    value {
      type: DT_FLOAT
    }
  }
  attr {
    key: "value"
    value {
      tensor {
        dtype: DT_FLOAT
        tensor_shape {
        }
        float_val: 0.99
      }
    }
  }
}
node {
  name: "bn2/AssignMovingAvg/sub/x"
  op: "Const"
  attr {
    key: "_class"
    value {
      list {
        s: "loc:@bn2/moving_mean"
      }
    }
  }
  attr {
    key: "dtype"
    value {
      type: DT_FLOAT
    }
  }
  attr {
    key: "value"
    value {
      tensor {
        dtype: DT_FLOAT
        tensor_shape {
        }
        float_val: 1.0
      }
    }
  }
}
node {
  name: "bn2/AssignMovingAvg/sub"
  op: "Sub"
  input: "bn2/AssignMovingAvg/sub/x"
  input: "bn2/Const_2"
  attr {
    key: "T"
    value {
      type: DT_FLOAT
    }
  }
  attr {
    key: "_class"
    value {
      list {
        s: "loc:@bn2/moving_mean"
      }
    }
  }
}
node {
  name: "bn2/AssignMovingAvg/sub_1"
  op: "Sub"
  input: "bn2/moving_mean/read"
  input: "bn2/FusedBatchNorm:1"
  attr {
    key: "T"
    value {
      type: DT_FLOAT
    }
  }
  attr {
    key: "_class"
    value {
      list {
        s: "loc:@bn2/moving_mean"
      }
    }
  }
}
node {
  name: "bn2/AssignMovingAvg/mul"
  op: "Mul"
  input: "bn2/AssignMovingAvg/sub_1"
  input: "bn2/AssignMovingAvg/sub"
  attr {
    key: "T"
    value {
      type: DT_FLOAT
    }
  }
  attr {
    key: "_class"
    value {
      list {
        s: "loc:@bn2/moving_mean"
      }
    }
  }
}
node {
  name: "bn2/AssignMovingAvg"
  op: "AssignSub"
  input: "bn2/moving_mean"
  input: "bn2/AssignMovingAvg/mul"
  attr {
    key: "T"
    value {
      type: DT_FLOAT
    }
  }
  attr {
    key: "_class"
    value {
      list {
        s: "loc:@bn2/moving_mean"
      }
    }
  }
  attr {
    key: "use_locking"
    value {
      b: false
    }
  }
}
node {
  name: "bn2/AssignMovingAvg_1/sub/x"
  op: "Const"
  attr {
    key: "_class"
    value {
      list {
        s: "loc:@bn2/moving_variance"
      }
    }
  }
  attr {
    key: "dtype"
    value {
      type: DT_FLOAT
    }
  }
  attr {
    key: "value"
    value {
      tensor {
        dtype: DT_FLOAT
        tensor_shape {
        }
        float_val: 1.0
      }
    }
  }
}
node {
  name: "bn2/AssignMovingAvg_1/sub"
  op: "Sub"
  input: "bn2/AssignMovingAvg_1/sub/x"
  input: "bn2/Const_2"
  attr {
    key: "T"
    value {
      type: DT_FLOAT
    }
  }
  attr {
    key: "_class"
    value {
      list {
        s: "loc:@bn2/moving_variance"
      }
    }
  }
}
node {
  name: "bn2/AssignMovingAvg_1/sub_1"
  op: "Sub"
  input: "bn2/moving_variance/read"
  input: "bn2/FusedBatchNorm:2"
  attr {
    key: "T"
    value {
      type: DT_FLOAT
    }
  }
  attr {
    key: "_class"
    value {
      list {
        s: "loc:@bn2/moving_variance"
      }
    }
  }
}
node {
  name: "bn2/AssignMovingAvg_1/mul"
  op: "Mul"
  input: "bn2/AssignMovingAvg_1/sub_1"
  input: "bn2/AssignMovingAvg_1/sub"
  attr {
    key: "T"
    value {
      type: DT_FLOAT
    }
  }
  attr {
    key: "_class"
    value {
      list {
        s: "loc:@bn2/moving_variance"
      }
    }
  }
}
node {
  name: "bn2/AssignMovingAvg_1"
  op: "AssignSub"
  input: "bn2/moving_variance"
  input: "bn2/AssignMovingAvg_1/mul"
  attr {
    key: "T"
    value {
      type: DT_FLOAT
    }
  }
  attr {
    key: "_class"
    value {
      list {
        s: "loc:@bn2/moving_variance"
      }
    }
  }
  attr {
    key: "use_locking"
    value {
      b: false
    }
  }
}
node {
  name: "Relu_1"
  op: "Relu"
  input: "bn2/FusedBatchNorm"
  attr {
    key: "T"
    value {
      type: DT_FLOAT
    }
  }
}
node {
  name: "dropout_1/Shape"
  op: "Shape"
  input: "Relu_1"
  attr {
    key: "T"
    value {
      type: DT_FLOAT
    }
  }
  attr {
    key: "out_type"
    value {
      type: DT_INT32
    }
  }
}
node {
  name: "dropout_1/random_uniform/min"
  op: "Const"
  attr {
    key: "dtype"
    value {
      type: DT_FLOAT
    }
  }
  attr {
    key: "value"
    value {
      tensor {
        dtype: DT_FLOAT
        tensor_shape {
        }
        float_val: 0.0
      }
    }
  }
}
node {
  name: "dropout_1/random_uniform/max"
  op: "Const"
  attr {
    key: "dtype"
    value {
      type: DT_FLOAT
    }
  }
  attr {
    key: "value"
    value {
      tensor {
        dtype: DT_FLOAT
        tensor_shape {
        }
        float_val: 1.0
      }
    }
  }
}
node {
  name: "dropout_1/random_uniform/RandomUniform"
  op: "RandomUniform"
  input: "dropout_1/Shape"
  attr {
    key: "T"
    value {
      type: DT_INT32
    }
  }
  attr {
    key: "dtype"
    value {
      type: DT_FLOAT
    }
  }
  attr {
    key: "seed"
    value {
      i: 0
    }
  }
  attr {
    key: "seed2"
    value {
      i: 0
    }
  }
}
node {
  name: "dropout_1/random_uniform/sub"
  op: "Sub"
  input: "dropout_1/random_uniform/max"
  input: "dropout_1/random_uniform/min"
  attr {
    key: "T"
    value {
      type: DT_FLOAT
    }
  }
}
node {
  name: "dropout_1/random_uniform/mul"
  op: "Mul"
  input: "dropout_1/random_uniform/RandomUniform"
  input: "dropout_1/random_uniform/sub"
  attr {
    key: "T"
    value {
      type: DT_FLOAT
    }
  }
}
node {
  name: "dropout_1/random_uniform"
  op: "Add"
  input: "dropout_1/random_uniform/mul"
  input: "dropout_1/random_uniform/min"
  attr {
    key: "T"
    value {
      type: DT_FLOAT
    }
  }
}
node {
  name: "dropout_1/add"
  op: "Add"
  input: "dropout_prob"
  input: "dropout_1/random_uniform"
  attr {
    key: "T"
    value {
      type: DT_FLOAT
    }
  }
}
node {
  name: "dropout_1/Floor"
  op: "Floor"
  input: "dropout_1/add"
  attr {
    key: "T"
    value {
      type: DT_FLOAT
    }
  }
}
node {
  name: "dropout_1/div"
  op: "RealDiv"
  input: "Relu_1"
  input: "dropout_prob"
  attr {
    key: "T"
    value {
      type: DT_FLOAT
    }
  }
}
node {
  name: "dropout_1/mul"
  op: "Mul"
  input: "dropout_1/div"
  input: "dropout_1/Floor"
  attr {
    key: "T"
    value {
      type: DT_FLOAT
    }
  }
}
node {
  name: "Reshape_2/shape"
  op: "Const"
  attr {
    key: "dtype"
    value {
      type: DT_INT32
    }
  }
  attr {
    key: "value"
    value {
      tensor {
        dtype: DT_INT32
        tensor_shape {
          dim {
            size: 2
          }
        }
        tensor_content: "\377\377\377\377 \r\000\000"
      }
    }
  }
}
node {
  name: "Reshape_2"
  op: "Reshape"
  input: "dropout_1/mul"
  input: "Reshape_2/shape"
  attr {
    key: "T"
    value {
      type: DT_FLOAT
    }
  }
  attr {
    key: "Tshape"
    value {
      type: DT_INT32
    }
  }
}
node {
  name: "W/Initializer/random_uniform/shape"
  op: "Const"
  attr {
    key: "_class"
    value {
      list {
        s: "loc:@W"
      }
    }
  }
  attr {
    key: "dtype"
    value {
      type: DT_INT32
    }
  }
  attr {
    key: "value"
    value {
      tensor {
        dtype: DT_INT32
        tensor_shape {
          dim {
            size: 2
          }
        }
        tensor_content: " \r\000\000\020\000\000\000"
      }
    }
  }
}
node {
  name: "W/Initializer/random_uniform/min"
  op: "Const"
  attr {
    key: "_class"
    value {
      list {
        s: "loc:@W"
      }
    }
  }
  attr {
    key: "dtype"
    value {
      type: DT_FLOAT
    }
  }
  attr {
    key: "value"
    value {
      tensor {
        dtype: DT_FLOAT
        tensor_shape {
        }
        float_val: -0.042157456
      }
    }
  }
}
node {
  name: "W/Initializer/random_uniform/max"
  op: "Const"
  attr {
    key: "_class"
    value {
      list {
        s: "loc:@W"
      }
    }
  }
  attr {
    key: "dtype"
    value {
      type: DT_FLOAT
    }
  }
  attr {
    key: "value"
    value {
      tensor {
        dtype: DT_FLOAT
        tensor_shape {
        }
        float_val: 0.042157456
      }
    }
  }
}
node {
  name: "W/Initializer/random_uniform/RandomUniform"
  op: "RandomUniform"
  input: "W/Initializer/random_uniform/shape"
  attr {
    key: "T"
    value {
      type: DT_INT32
    }
  }
  attr {
    key: "_class"
    value {
      list {
        s: "loc:@W"
      }
    }
  }
  attr {
    key: "dtype"
    value {
      type: DT_FLOAT
    }
  }
  attr {
    key: "seed"
    value {
      i: 0
    }
  }
  attr {
    key: "seed2"
    value {
      i: 0
    }
  }
}
node {
  name: "W/Initializer/random_uniform/sub"
  op: "Sub"
  input: "W/Initializer/random_uniform/max"
  input: "W/Initializer/random_uniform/min"
  attr {
    key: "T"
    value {
      type: DT_FLOAT
    }
  }
  attr {
    key: "_class"
    value {
      list {
        s: "loc:@W"
      }
    }
  }
}
node {
  name: "W/Initializer/random_uniform/mul"
  op: "Mul"
  input: "W/Initializer/random_uniform/RandomUniform"
  input: "W/Initializer/random_uniform/sub"
  attr {
    key: "T"
    value {
      type: DT_FLOAT
    }
  }
  attr {
    key: "_class"
    value {
      list {
        s: "loc:@W"
      }
    }
  }
}
node {
  name: "W/Initializer/random_uniform"
  op: "Add"
  input: "W/Initializer/random_uniform/mul"
  input: "W/Initializer/random_uniform/min"
  attr {
    key: "T"
    value {
      type: DT_FLOAT
    }
  }
  attr {
    key: "_class"
    value {
      list {
        s: "loc:@W"
      }
    }
  }
}
node {
  name: "W"
  op: "VariableV2"
  attr {
    key: "_class"
    value {
      list {
        s: "loc:@W"
      }
    }
  }
  attr {
    key: "container"
    value {
      s: ""
    }
  }
  attr {
    key: "dtype"
    value {
      type: DT_FLOAT
    }
  }
  attr {
    key: "shape"
    value {
      shape {
        dim {
          size: 3360
        }
        dim {
          size: 16
        }
      }
    }
  }
  attr {
    key: "shared_name"
    value {
      s: ""
    }
  }
}
node {
  name: "W/Assign"
  op: "Assign"
  input: "W"
  input: "W/Initializer/random_uniform"
  attr {
    key: "T"
    value {
      type: DT_FLOAT
    }
  }
  attr {
    key: "_class"
    value {
      list {
        s: "loc:@W"
      }
    }
  }
  attr {
    key: "use_locking"
    value {
      b: true
    }
  }
  attr {
    key: "validate_shape"
    value {
      b: true
    }
  }
}
node {
  name: "W/read"
  op: "Identity"
  input: "W"
  attr {
    key: "T"
    value {
      type: DT_FLOAT
    }
  }
  attr {
    key: "_class"
    value {
      list {
        s: "loc:@W"
      }
    }
  }
}
node {
  name: "b/Initializer/random_uniform/shape"
  op: "Const"
  attr {
    key: "_class"
    value {
      list {
        s: "loc:@b"
      }
    }
  }
  attr {
    key: "dtype"
    value {
      type: DT_INT32
    }
  }
  attr {
    key: "value"
    value {
      tensor {
        dtype: DT_INT32
        tensor_shape {
          dim {
            size: 1
          }
        }
        int_val: 16
      }
    }
  }
}
node {
  name: "b/Initializer/random_uniform/min"
  op: "Const"
  attr {
    key: "_class"
    value {
      list {
        s: "loc:@b"
      }
    }
  }
  attr {
    key: "dtype"
    value {
      type: DT_FLOAT
    }
  }
  attr {
    key: "value"
    value {
      tensor {
        dtype: DT_FLOAT
        tensor_shape {
        }
        float_val: -0.4330127
      }
    }
  }
}
node {
  name: "b/Initializer/random_uniform/max"
  op: "Const"
  attr {
    key: "_class"
    value {
      list {
        s: "loc:@b"
      }
    }
  }
  attr {
    key: "dtype"
    value {
      type: DT_FLOAT
    }
  }
  attr {
    key: "value"
    value {
      tensor {
        dtype: DT_FLOAT
        tensor_shape {
        }
        float_val: 0.4330127
      }
    }
  }
}
node {
  name: "b/Initializer/random_uniform/RandomUniform"
  op: "RandomUniform"
  input: "b/Initializer/random_uniform/shape"
  attr {
    key: "T"
    value {
      type: DT_INT32
    }
  }
  attr {
    key: "_class"
    value {
      list {
        s: "loc:@b"
      }
    }
  }
  attr {
    key: "dtype"
    value {
      type: DT_FLOAT
    }
  }
  attr {
    key: "seed"
    value {
      i: 0
    }
  }
  attr {
    key: "seed2"
    value {
      i: 0
    }
  }
}
node {
  name: "b/Initializer/random_uniform/sub"
  op: "Sub"
  input: "b/Initializer/random_uniform/max"
  input: "b/Initializer/random_uniform/min"
  attr {
    key: "T"
    value {
      type: DT_FLOAT
    }
  }
  attr {
    key: "_class"
    value {
      list {
        s: "loc:@b"
      }
    }
  }
}
node {
  name: "b/Initializer/random_uniform/mul"
  op: "Mul"
  input: "b/Initializer/random_uniform/RandomUniform"
  input: "b/Initializer/random_uniform/sub"
  attr {
    key: "T"
    value {
      type: DT_FLOAT
    }
  }
  attr {
    key: "_class"
    value {
      list {
        s: "loc:@b"
      }
    }
  }
}
node {
  name: "b/Initializer/random_uniform"
  op: "Add"
  input: "b/Initializer/random_uniform/mul"
  input: "b/Initializer/random_uniform/min"
  attr {
    key: "T"
    value {
      type: DT_FLOAT
    }
  }
  attr {
    key: "_class"
    value {
      list {
        s: "loc:@b"
      }
    }
  }
}
node {
  name: "b"
  op: "VariableV2"
  attr {
    key: "_class"
    value {
      list {
        s: "loc:@b"
      }
    }
  }
  attr {
    key: "container"
    value {
      s: ""
    }
  }
  attr {
    key: "dtype"
    value {
      type: DT_FLOAT
    }
  }
  attr {
    key: "shape"
    value {
      shape {
        dim {
          size: 16
        }
      }
    }
  }
  attr {
    key: "shared_name"
    value {
      s: ""
    }
  }
}
node {
  name: "b/Assign"
  op: "Assign"
  input: "b"
  input: "b/Initializer/random_uniform"
  attr {
    key: "T"
    value {
      type: DT_FLOAT
    }
  }
  attr {
    key: "_class"
    value {
      list {
        s: "loc:@b"
      }
    }
  }
  attr {
    key: "use_locking"
    value {
      b: true
    }
  }
  attr {
    key: "validate_shape"
    value {
      b: true
    }
  }
}
node {
  name: "b/read"
  op: "Identity"
  input: "b"
  attr {
    key: "T"
    value {
      type: DT_FLOAT
    }
  }
  attr {
    key: "_class"
    value {
      list {
        s: "loc:@b"
      }
    }
  }
}
node {
  name: "MatMul"
  op: "MatMul"
  input: "Reshape_2"
  input: "W/read"
  attr {
    key: "T"
    value {
      type: DT_FLOAT
    }
  }
  attr {
    key: "transpose_a"
    value {
      b: false
    }
  }
  attr {
    key: "transpose_b"
    value {
      b: false
    }
  }
}
node {
  name: "add_3"
  op: "Add"
  input: "MatMul"
  input: "b/read"
  attr {
    key: "T"
    value {
      type: DT_FLOAT
    }
  }
}
node {
  name: "truncated_normal_2/shape"
  op: "Const"
  attr {
    key: "dtype"
    value {
      type: DT_INT32
    }
  }
  attr {
    key: "value"
    value {
      tensor {
        dtype: DT_INT32
        tensor_shape {
          dim {
            size: 2
          }
        }
        tensor_content: "\020\000\000\000\200\000\000\000"
      }
    }
  }
}
node {
  name: "truncated_normal_2/mean"
  op: "Const"
  attr {
    key: "dtype"
    value {
      type: DT_FLOAT
    }
  }
  attr {
    key: "value"
    value {
      tensor {
        dtype: DT_FLOAT
        tensor_shape {
        }
        float_val: 0.0
      }
    }
  }
}
node {
  name: "truncated_normal_2/stddev"
  op: "Const"
  attr {
    key: "dtype"
    value {
      type: DT_FLOAT
    }
  }
  attr {
    key: "value"
    value {
      tensor {
        dtype: DT_FLOAT
        tensor_shape {
        }
        float_val: 0.01
      }
    }
  }
}
node {
  name: "truncated_normal_2/TruncatedNormal"
  op: "TruncatedNormal"
  input: "truncated_normal_2/shape"
  attr {
    key: "T"
    value {
      type: DT_INT32
    }
  }
  attr {
    key: "dtype"
    value {
      type: DT_FLOAT
    }
  }
  attr {
    key: "seed"
    value {
      i: 0
    }
  }
  attr {
    key: "seed2"
    value {
      i: 0
    }
  }
}
node {
  name: "truncated_normal_2/mul"
  op: "Mul"
  input: "truncated_normal_2/TruncatedNormal"
  input: "truncated_normal_2/stddev"
  attr {
    key: "T"
    value {
      type: DT_FLOAT
    }
  }
}
node {
  name: "truncated_normal_2"
  op: "Add"
  input: "truncated_normal_2/mul"
  input: "truncated_normal_2/mean"
  attr {
    key: "T"
    value {
      type: DT_FLOAT
    }
  }
}
node {
  name: "Variable_4"
  op: "VariableV2"
  attr {
    key: "container"
    value {
      s: ""
    }
  }
  attr {
    key: "dtype"
    value {
      type: DT_FLOAT
    }
  }
  attr {
    key: "shape"
    value {
      shape {
        dim {
          size: 16
        }
        dim {
          size: 128
        }
      }
    }
  }
  attr {
    key: "shared_name"
    value {
      s: ""
    }
  }
}
node {
  name: "Variable_4/Assign"
  op: "Assign"
  input: "Variable_4"
  input: "truncated_normal_2"
  attr {
    key: "T"
    value {
      type: DT_FLOAT
    }
  }
  attr {
    key: "_class"
    value {
      list {
        s: "loc:@Variable_4"
      }
    }
  }
  attr {
    key: "use_locking"
    value {
      b: true
    }
  }
  attr {
    key: "validate_shape"
    value {
      b: true
    }
  }
}
node {
  name: "Variable_4/read"
  op: "Identity"
  input: "Variable_4"
  attr {
    key: "T"
    value {
      type: DT_FLOAT
    }
  }
  attr {
    key: "_class"
    value {
      list {
        s: "loc:@Variable_4"
      }
    }
  }
}
node {
  name: "zeros_2"
  op: "Const"
  attr {
    key: "dtype"
    value {
      type: DT_FLOAT
    }
  }
  attr {
    key: "value"
    value {
      tensor {
        dtype: DT_FLOAT
        tensor_shape {
          dim {
            size: 128
          }
        }
        float_val: 0.0
      }
    }
  }
}
node {
  name: "Variable_5"
  op: "VariableV2"
  attr {
    key: "container"
    value {
      s: ""
    }
  }
  attr {
    key: "dtype"
    value {
      type: DT_FLOAT
    }
  }
  attr {
    key: "shape"
    value {
      shape {
        dim {
          size: 128
        }
      }
    }
  }
  attr {
    key: "shared_name"
    value {
      s: ""
    }
  }
}
node {
  name: "Variable_5/Assign"
  op: "Assign"
  input: "Variable_5"
  input: "zeros_2"
  attr {
    key: "T"
    value {
      type: DT_FLOAT
    }
  }
  attr {
    key: "_class"
    value {
      list {
        s: "loc:@Variable_5"
      }
    }
  }
  attr {
    key: "use_locking"
    value {
      b: true
    }
  }
  attr {
    key: "validate_shape"
    value {
      b: true
    }
  }
}
node {
  name: "Variable_5/read"
  op: "Identity"
  input: "Variable_5"
  attr {
    key: "T"
    value {
      type: DT_FLOAT
    }
  }
  attr {
    key: "_class"
    value {
      list {
        s: "loc:@Variable_5"
      }
    }
  }
}
node {
  name: "MatMul_1"
  op: "MatMul"
  input: "add_3"
  input: "Variable_4/read"
  attr {
    key: "T"
    value {
      type: DT_FLOAT
    }
  }
  attr {
    key: "transpose_a"
    value {
      b: false
    }
  }
  attr {
    key: "transpose_b"
    value {
      b: false
    }
  }
}
node {
  name: "add_4"
  op: "Add"
  input: "MatMul_1"
  input: "Variable_5/read"
  attr {
    key: "T"
    value {
      type: DT_FLOAT
    }
  }
}
node {
  name: "bn3/gamma/Initializer/ones"
  op: "Const"
  attr {
    key: "_class"
    value {
      list {
        s: "loc:@bn3/gamma"
      }
    }
  }
  attr {
    key: "dtype"
    value {
      type: DT_FLOAT
    }
  }
  attr {
    key: "value"
    value {
      tensor {
        dtype: DT_FLOAT
        tensor_shape {
          dim {
            size: 128
          }
        }
        float_val: 1.0
      }
    }
  }
}
node {
  name: "bn3/gamma"
  op: "VariableV2"
  attr {
    key: "_class"
    value {
      list {
        s: "loc:@bn3/gamma"
      }
    }
  }
  attr {
    key: "container"
    value {
      s: ""
    }
  }
  attr {
    key: "dtype"
    value {
      type: DT_FLOAT
    }
  }
  attr {
    key: "shape"
    value {
      shape {
        dim {
          size: 128
        }
      }
    }
  }
  attr {
    key: "shared_name"
    value {
      s: ""
    }
  }
}
node {
  name: "bn3/gamma/Assign"
  op: "Assign"
  input: "bn3/gamma"
  input: "bn3/gamma/Initializer/ones"
  attr {
    key: "T"
    value {
      type: DT_FLOAT
    }
  }
  attr {
    key: "_class"
    value {
      list {
        s: "loc:@bn3/gamma"
      }
    }
  }
  attr {
    key: "use_locking"
    value {
      b: true
    }
  }
  attr {
    key: "validate_shape"
    value {
      b: true
    }
  }
}
node {
  name: "bn3/gamma/read"
  op: "Identity"
  input: "bn3/gamma"
  attr {
    key: "T"
    value {
      type: DT_FLOAT
    }
  }
  attr {
    key: "_class"
    value {
      list {
        s: "loc:@bn3/gamma"
      }
    }
  }
}
node {
  name: "bn3/beta/Initializer/zeros"
  op: "Const"
  attr {
    key: "_class"
    value {
      list {
        s: "loc:@bn3/beta"
      }
    }
  }
  attr {
    key: "dtype"
    value {
      type: DT_FLOAT
    }
  }
  attr {
    key: "value"
    value {
      tensor {
        dtype: DT_FLOAT
        tensor_shape {
          dim {
            size: 128
          }
        }
        float_val: 0.0
      }
    }
  }
}
node {
  name: "bn3/beta"
  op: "VariableV2"
  attr {
    key: "_class"
    value {
      list {
        s: "loc:@bn3/beta"
      }
    }
  }
  attr {
    key: "container"
    value {
      s: ""
    }
  }
  attr {
    key: "dtype"
    value {
      type: DT_FLOAT
    }
  }
  attr {
    key: "shape"
    value {
      shape {
        dim {
          size: 128
        }
      }
    }
  }
  attr {
    key: "shared_name"
    value {
      s: ""
    }
  }
}
node {
  name: "bn3/beta/Assign"
  op: "Assign"
  input: "bn3/beta"
  input: "bn3/beta/Initializer/zeros"
  attr {
    key: "T"
    value {
      type: DT_FLOAT
    }
  }
  attr {
    key: "_class"
    value {
      list {
        s: "loc:@bn3/beta"
      }
    }
  }
  attr {
    key: "use_locking"
    value {
      b: true
    }
  }
  attr {
    key: "validate_shape"
    value {
      b: true
    }
  }
}
node {
  name: "bn3/beta/read"
  op: "Identity"
  input: "bn3/beta"
  attr {
    key: "T"
    value {
      type: DT_FLOAT
    }
  }
  attr {
    key: "_class"
    value {
      list {
        s: "loc:@bn3/beta"
      }
    }
  }
}
node {
  name: "bn3/moving_mean/Initializer/zeros"
  op: "Const"
  attr {
    key: "_class"
    value {
      list {
        s: "loc:@bn3/moving_mean"
      }
    }
  }
  attr {
    key: "dtype"
    value {
      type: DT_FLOAT
    }
  }
  attr {
    key: "value"
    value {
      tensor {
        dtype: DT_FLOAT
        tensor_shape {
          dim {
            size: 128
          }
        }
        float_val: 0.0
      }
    }
  }
}
node {
  name: "bn3/moving_mean"
  op: "VariableV2"
  attr {
    key: "_class"
    value {
      list {
        s: "loc:@bn3/moving_mean"
      }
    }
  }
  attr {
    key: "container"
    value {
      s: ""
    }
  }
  attr {
    key: "dtype"
    value {
      type: DT_FLOAT
    }
  }
  attr {
    key: "shape"
    value {
      shape {
        dim {
          size: 128
        }
      }
    }
  }
  attr {
    key: "shared_name"
    value {
      s: ""
    }
  }
}
node {
  name: "bn3/moving_mean/Assign"
  op: "Assign"
  input: "bn3/moving_mean"
  input: "bn3/moving_mean/Initializer/zeros"
  attr {
    key: "T"
    value {
      type: DT_FLOAT
    }
  }
  attr {
    key: "_class"
    value {
      list {
        s: "loc:@bn3/moving_mean"
      }
    }
  }
  attr {
    key: "use_locking"
    value {
      b: true
    }
  }
  attr {
    key: "validate_shape"
    value {
      b: true
    }
  }
}
node {
  name: "bn3/moving_mean/read"
  op: "Identity"
  input: "bn3/moving_mean"
  attr {
    key: "T"
    value {
      type: DT_FLOAT
    }
  }
  attr {
    key: "_class"
    value {
      list {
        s: "loc:@bn3/moving_mean"
      }
    }
  }
}
node {
  name: "bn3/moving_variance/Initializer/ones"
  op: "Const"
  attr {
    key: "_class"
    value {
      list {
        s: "loc:@bn3/moving_variance"
      }
    }
  }
  attr {
    key: "dtype"
    value {
      type: DT_FLOAT
    }
  }
  attr {
    key: "value"
    value {
      tensor {
        dtype: DT_FLOAT
        tensor_shape {
          dim {
            size: 128
          }
        }
        float_val: 1.0
      }
    }
  }
}
node {
  name: "bn3/moving_variance"
  op: "VariableV2"
  attr {
    key: "_class"
    value {
      list {
        s: "loc:@bn3/moving_variance"
      }
    }
  }
  attr {
    key: "container"
    value {
      s: ""
    }
  }
  attr {
    key: "dtype"
    value {
      type: DT_FLOAT
    }
  }
  attr {
    key: "shape"
    value {
      shape {
        dim {
          size: 128
        }
      }
    }
  }
  attr {
    key: "shared_name"
    value {
      s: ""
    }
  }
}
node {
  name: "bn3/moving_variance/Assign"
  op: "Assign"
  input: "bn3/moving_variance"
  input: "bn3/moving_variance/Initializer/ones"
  attr {
    key: "T"
    value {
      type: DT_FLOAT
    }
  }
  attr {
    key: "_class"
    value {
      list {
        s: "loc:@bn3/moving_variance"
      }
    }
  }
  attr {
    key: "use_locking"
    value {
      b: true
    }
  }
  attr {
    key: "validate_shape"
    value {
      b: true
    }
  }
}
node {
  name: "bn3/moving_variance/read"
  op: "Identity"
  input: "bn3/moving_variance"
  attr {
    key: "T"
    value {
      type: DT_FLOAT
    }
  }
  attr {
    key: "_class"
    value {
      list {
        s: "loc:@bn3/moving_variance"
      }
    }
  }
}
node {
  name: "bn3/moments/mean/reduction_indices"
  op: "Const"
  attr {
    key: "dtype"
    value {
      type: DT_INT32
    }
  }
  attr {
    key: "value"
    value {
      tensor {
        dtype: DT_INT32
        tensor_shape {
          dim {
            size: 1
          }
        }
        int_val: 0
      }
    }
  }
}
node {
  name: "bn3/moments/mean"
  op: "Mean"
  input: "add_4"
  input: "bn3/moments/mean/reduction_indices"
  attr {
    key: "T"
    value {
      type: DT_FLOAT
    }
  }
  attr {
    key: "Tidx"
    value {
      type: DT_INT32
    }
  }
  attr {
    key: "keep_dims"
    value {
      b: true
    }
  }
}
node {
  name: "bn3/moments/StopGradient"
  op: "StopGradient"
  input: "bn3/moments/mean"
  attr {
    key: "T"
    value {
      type: DT_FLOAT
    }
  }
}
node {
  name: "bn3/moments/SquaredDifference"
  op: "SquaredDifference"
  input: "add_4"
  input: "bn3/moments/StopGradient"
  attr {
    key: "T"
    value {
      type: DT_FLOAT
    }
  }
}
node {
  name: "bn3/moments/variance/reduction_indices"
  op: "Const"
  attr {
    key: "dtype"
    value {
      type: DT_INT32
    }
  }
  attr {
    key: "value"
    value {
      tensor {
        dtype: DT_INT32
        tensor_shape {
          dim {
            size: 1
          }
        }
        int_val: 0
      }
    }
  }
}
node {
  name: "bn3/moments/variance"
  op: "Mean"
  input: "bn3/moments/SquaredDifference"
  input: "bn3/moments/variance/reduction_indices"
  attr {
    key: "T"
    value {
      type: DT_FLOAT
    }
  }
  attr {
    key: "Tidx"
    value {
      type: DT_INT32
    }
  }
  attr {
    key: "keep_dims"
    value {
      b: true
    }
  }
}
node {
  name: "bn3/moments/Squeeze"
  op: "Squeeze"
  input: "bn3/moments/mean"
  attr {
    key: "T"
    value {
      type: DT_FLOAT
    }
  }
  attr {
    key: "squeeze_dims"
    value {
      list {
        i: 0
      }
    }
  }
}
node {
  name: "bn3/moments/Squeeze_1"
  op: "Squeeze"
  input: "bn3/moments/variance"
  attr {
    key: "T"
    value {
      type: DT_FLOAT
    }
  }
  attr {
    key: "squeeze_dims"
    value {
      list {
        i: 0
      }
    }
  }
}
node {
  name: "bn3/AssignMovingAvg/decay"
  op: "Const"
  attr {
    key: "_class"
    value {
      list {
        s: "loc:@bn3/moving_mean"
      }
    }
  }
  attr {
    key: "dtype"
    value {
      type: DT_FLOAT
    }
  }
  attr {
    key: "value"
    value {
      tensor {
        dtype: DT_FLOAT
        tensor_shape {
        }
        float_val: 0.01
      }
    }
  }
}
node {
  name: "bn3/AssignMovingAvg/sub"
  op: "Sub"
  input: "bn3/moving_mean/read"
  input: "bn3/moments/Squeeze"
  attr {
    key: "T"
    value {
      type: DT_FLOAT
    }
  }
  attr {
    key: "_class"
    value {
      list {
        s: "loc:@bn3/moving_mean"
      }
    }
  }
}
node {
  name: "bn3/AssignMovingAvg/mul"
  op: "Mul"
  input: "bn3/AssignMovingAvg/sub"
  input: "bn3/AssignMovingAvg/decay"
  attr {
    key: "T"
    value {
      type: DT_FLOAT
    }
  }
  attr {
    key: "_class"
    value {
      list {
        s: "loc:@bn3/moving_mean"
      }
    }
  }
}
node {
  name: "bn3/AssignMovingAvg"
  op: "AssignSub"
  input: "bn3/moving_mean"
  input: "bn3/AssignMovingAvg/mul"
  attr {
    key: "T"
    value {
      type: DT_FLOAT
    }
  }
  attr {
    key: "_class"
    value {
      list {
        s: "loc:@bn3/moving_mean"
      }
    }
  }
  attr {
    key: "use_locking"
    value {
      b: false
    }
  }
}
node {
  name: "bn3/AssignMovingAvg_1/decay"
  op: "Const"
  attr {
    key: "_class"
    value {
      list {
        s: "loc:@bn3/moving_variance"
      }
    }
  }
  attr {
    key: "dtype"
    value {
      type: DT_FLOAT
    }
  }
  attr {
    key: "value"
    value {
      tensor {
        dtype: DT_FLOAT
        tensor_shape {
        }
        float_val: 0.01
      }
    }
  }
}
node {
  name: "bn3/AssignMovingAvg_1/sub"
  op: "Sub"
  input: "bn3/moving_variance/read"
  input: "bn3/moments/Squeeze_1"
  attr {
    key: "T"
    value {
      type: DT_FLOAT
    }
  }
  attr {
    key: "_class"
    value {
      list {
        s: "loc:@bn3/moving_variance"
      }
    }
  }
}
node {
  name: "bn3/AssignMovingAvg_1/mul"
  op: "Mul"
  input: "bn3/AssignMovingAvg_1/sub"
  input: "bn3/AssignMovingAvg_1/decay"
  attr {
    key: "T"
    value {
      type: DT_FLOAT
    }
  }
  attr {
    key: "_class"
    value {
      list {
        s: "loc:@bn3/moving_variance"
      }
    }
  }
}
node {
  name: "bn3/AssignMovingAvg_1"
  op: "AssignSub"
  input: "bn3/moving_variance"
  input: "bn3/AssignMovingAvg_1/mul"
  attr {
    key: "T"
    value {
      type: DT_FLOAT
    }
  }
  attr {
    key: "_class"
    value {
      list {
        s: "loc:@bn3/moving_variance"
      }
    }
  }
  attr {
    key: "use_locking"
    value {
      b: false
    }
  }
}
node {
  name: "bn3/batchnorm/add/y"
  op: "Const"
  attr {
    key: "dtype"
    value {
      type: DT_FLOAT
    }
  }
  attr {
    key: "value"
    value {
      tensor {
        dtype: DT_FLOAT
        tensor_shape {
        }
        float_val: 0.001
      }
    }
  }
}
node {
  name: "bn3/batchnorm/add"
  op: "Add"
  input: "bn3/moments/Squeeze_1"
  input: "bn3/batchnorm/add/y"
  attr {
    key: "T"
    value {
      type: DT_FLOAT
    }
  }
}
node {
  name: "bn3/batchnorm/Rsqrt"
  op: "Rsqrt"
  input: "bn3/batchnorm/add"
  attr {
    key: "T"
    value {
      type: DT_FLOAT
    }
  }
}
node {
  name: "bn3/batchnorm/mul"
  op: "Mul"
  input: "bn3/batchnorm/Rsqrt"
  input: "bn3/gamma/read"
  attr {
    key: "T"
    value {
      type: DT_FLOAT
    }
  }
}
node {
  name: "bn3/batchnorm/mul_1"
  op: "Mul"
  input: "add_4"
  input: "bn3/batchnorm/mul"
  attr {
    key: "T"
    value {
      type: DT_FLOAT
    }
  }
}
node {
  name: "bn3/batchnorm/mul_2"
  op: "Mul"
  input: "bn3/moments/Squeeze"
  input: "bn3/batchnorm/mul"
  attr {
    key: "T"
    value {
      type: DT_FLOAT
    }
  }
}
node {
  name: "bn3/batchnorm/sub"
  op: "Sub"
  input: "bn3/beta/read"
  input: "bn3/batchnorm/mul_2"
  attr {
    key: "T"
    value {
      type: DT_FLOAT
    }
  }
}
node {
  name: "bn3/batchnorm/add_1"
  op: "Add"
  input: "bn3/batchnorm/mul_1"
  input: "bn3/batchnorm/sub"
  attr {
    key: "T"
    value {
      type: DT_FLOAT
    }
  }
}
node {
  name: "Relu_2"
  op: "Relu"
  input: "bn3/batchnorm/add_1"
  attr {
    key: "T"
    value {
      type: DT_FLOAT
    }
  }
}
node {
  name: "dropout_2/Shape"
  op: "Shape"
  input: "Relu_2"
  attr {
    key: "T"
    value {
      type: DT_FLOAT
    }
  }
  attr {
    key: "out_type"
    value {
      type: DT_INT32
    }
  }
}
node {
  name: "dropout_2/random_uniform/min"
  op: "Const"
  attr {
    key: "dtype"
    value {
      type: DT_FLOAT
    }
  }
  attr {
    key: "value"
    value {
      tensor {
        dtype: DT_FLOAT
        tensor_shape {
        }
        float_val: 0.0
      }
    }
  }
}
node {
  name: "dropout_2/random_uniform/max"
  op: "Const"
  attr {
    key: "dtype"
    value {
      type: DT_FLOAT
    }
  }
  attr {
    key: "value"
    value {
      tensor {
        dtype: DT_FLOAT
        tensor_shape {
        }
        float_val: 1.0
      }
    }
  }
}
node {
  name: "dropout_2/random_uniform/RandomUniform"
  op: "RandomUniform"
  input: "dropout_2/Shape"
  attr {
    key: "T"
    value {
      type: DT_INT32
    }
  }
  attr {
    key: "dtype"
    value {
      type: DT_FLOAT
    }
  }
  attr {
    key: "seed"
    value {
      i: 0
    }
  }
  attr {
    key: "seed2"
    value {
      i: 0
    }
  }
}
node {
  name: "dropout_2/random_uniform/sub"
  op: "Sub"
  input: "dropout_2/random_uniform/max"
  input: "dropout_2/random_uniform/min"
  attr {
    key: "T"
    value {
      type: DT_FLOAT
    }
  }
}
node {
  name: "dropout_2/random_uniform/mul"
  op: "Mul"
  input: "dropout_2/random_uniform/RandomUniform"
  input: "dropout_2/random_uniform/sub"
  attr {
    key: "T"
    value {
      type: DT_FLOAT
    }
  }
}
node {
  name: "dropout_2/random_uniform"
  op: "Add"
  input: "dropout_2/random_uniform/mul"
  input: "dropout_2/random_uniform/min"
  attr {
    key: "T"
    value {
      type: DT_FLOAT
    }
  }
}
node {
  name: "dropout_2/add"
  op: "Add"
  input: "dropout_prob"
  input: "dropout_2/random_uniform"
  attr {
    key: "T"
    value {
      type: DT_FLOAT
    }
  }
}
node {
  name: "dropout_2/Floor"
  op: "Floor"
  input: "dropout_2/add"
  attr {
    key: "T"
    value {
      type: DT_FLOAT
    }
  }
}
node {
  name: "dropout_2/div"
  op: "RealDiv"
  input: "Relu_2"
  input: "dropout_prob"
  attr {
    key: "T"
    value {
      type: DT_FLOAT
    }
  }
}
node {
  name: "dropout_2/mul"
  op: "Mul"
  input: "dropout_2/div"
  input: "dropout_2/Floor"
  attr {
    key: "T"
    value {
      type: DT_FLOAT
    }
  }
}
node {
  name: "truncated_normal_3/shape"
  op: "Const"
  attr {
    key: "dtype"
    value {
      type: DT_INT32
    }
  }
  attr {
    key: "value"
    value {
      tensor {
        dtype: DT_INT32
        tensor_shape {
          dim {
            size: 2
          }
        }
        tensor_content: "\200\000\000\000\016\000\000\000"
      }
    }
  }
}
node {
  name: "truncated_normal_3/mean"
  op: "Const"
  attr {
    key: "dtype"
    value {
      type: DT_FLOAT
    }
  }
  attr {
    key: "value"
    value {
      tensor {
        dtype: DT_FLOAT
        tensor_shape {
        }
        float_val: 0.0
      }
    }
  }
}
node {
  name: "truncated_normal_3/stddev"
  op: "Const"
  attr {
    key: "dtype"
    value {
      type: DT_FLOAT
    }
  }
  attr {
    key: "value"
    value {
      tensor {
        dtype: DT_FLOAT
        tensor_shape {
        }
        float_val: 0.01
      }
    }
  }
}
node {
  name: "truncated_normal_3/TruncatedNormal"
  op: "TruncatedNormal"
  input: "truncated_normal_3/shape"
  attr {
    key: "T"
    value {
      type: DT_INT32
    }
  }
  attr {
    key: "dtype"
    value {
      type: DT_FLOAT
    }
  }
  attr {
    key: "seed"
    value {
      i: 0
    }
  }
  attr {
    key: "seed2"
    value {
      i: 0
    }
  }
}
node {
  name: "truncated_normal_3/mul"
  op: "Mul"
  input: "truncated_normal_3/TruncatedNormal"
  input: "truncated_normal_3/stddev"
  attr {
    key: "T"
    value {
      type: DT_FLOAT
    }
  }
}
node {
  name: "truncated_normal_3"
  op: "Add"
  input: "truncated_normal_3/mul"
  input: "truncated_normal_3/mean"
  attr {
    key: "T"
    value {
      type: DT_FLOAT
    }
  }
}
node {
  name: "Variable_6"
  op: "VariableV2"
  attr {
    key: "container"
    value {
      s: ""
    }
  }
  attr {
    key: "dtype"
    value {
      type: DT_FLOAT
    }
  }
  attr {
    key: "shape"
    value {
      shape {
        dim {
          size: 128
        }
        dim {
          size: 14
        }
      }
    }
  }
  attr {
    key: "shared_name"
    value {
      s: ""
    }
  }
}
node {
  name: "Variable_6/Assign"
  op: "Assign"
  input: "Variable_6"
  input: "truncated_normal_3"
  attr {
    key: "T"
    value {
      type: DT_FLOAT
    }
  }
  attr {
    key: "_class"
    value {
      list {
        s: "loc:@Variable_6"
      }
    }
  }
  attr {
    key: "use_locking"
    value {
      b: true
    }
  }
  attr {
    key: "validate_shape"
    value {
      b: true
    }
  }
}
node {
  name: "Variable_6/read"
  op: "Identity"
  input: "Variable_6"
  attr {
    key: "T"
    value {
      type: DT_FLOAT
    }
  }
  attr {
    key: "_class"
    value {
      list {
        s: "loc:@Variable_6"
      }
    }
  }
}
node {
  name: "zeros_3"
  op: "Const"
  attr {
    key: "dtype"
    value {
      type: DT_FLOAT
    }
  }
  attr {
    key: "value"
    value {
      tensor {
        dtype: DT_FLOAT
        tensor_shape {
          dim {
            size: 14
          }
        }
        float_val: 0.0
      }
    }
  }
}
node {
  name: "Variable_7"
  op: "VariableV2"
  attr {
    key: "container"
    value {
      s: ""
    }
  }
  attr {
    key: "dtype"
    value {
      type: DT_FLOAT
    }
  }
  attr {
    key: "shape"
    value {
      shape {
        dim {
          size: 14
        }
      }
    }
  }
  attr {
    key: "shared_name"
    value {
      s: ""
    }
  }
}
node {
  name: "Variable_7/Assign"
  op: "Assign"
  input: "Variable_7"
  input: "zeros_3"
  attr {
    key: "T"
    value {
      type: DT_FLOAT
    }
  }
  attr {
    key: "_class"
    value {
      list {
        s: "loc:@Variable_7"
      }
    }
  }
  attr {
    key: "use_locking"
    value {
      b: true
    }
  }
  attr {
    key: "validate_shape"
    value {
      b: true
    }
  }
}
node {
  name: "Variable_7/read"
  op: "Identity"
  input: "Variable_7"
  attr {
    key: "T"
    value {
      type: DT_FLOAT
    }
  }
  attr {
    key: "_class"
    value {
      list {
        s: "loc:@Variable_7"
      }
    }
  }
}
node {
  name: "MatMul_2"
  op: "MatMul"
  input: "dropout_2/mul"
  input: "Variable_6/read"
  attr {
    key: "T"
    value {
      type: DT_FLOAT
    }
  }
  attr {
    key: "transpose_a"
    value {
      b: false
    }
  }
  attr {
    key: "transpose_b"
    value {
      b: false
    }
  }
}
node {
  name: "add_5"
  op: "Add"
  input: "MatMul_2"
  input: "Variable_7/read"
  attr {
    key: "T"
    value {
      type: DT_FLOAT
    }
  }
}
node {
  name: "groundtruth_input"
  op: "Placeholder"
  attr {
    key: "dtype"
    value {
      type: DT_FLOAT
    }
  }
  attr {
    key: "shape"
    value {
      shape {
        dim {
          size: -1
        }
        dim {
          size: 14
        }
      }
    }
  }
}
node {
  name: "cross_entropy/softmax_cross_entropy_with_logits_sg/labels_stop_gradient"
  op: "StopGradient"
  input: "groundtruth_input"
  attr {
    key: "T"
    value {
      type: DT_FLOAT
    }
  }
}
node {
  name: "cross_entropy/softmax_cross_entropy_with_logits_sg/Rank"
  op: "Const"
  attr {
    key: "dtype"
    value {
      type: DT_INT32
    }
  }
  attr {
    key: "value"
    value {
      tensor {
        dtype: DT_INT32
        tensor_shape {
        }
        int_val: 2
      }
    }
  }
}
node {
  name: "cross_entropy/softmax_cross_entropy_with_logits_sg/Shape"
  op: "Shape"
  input: "add_5"
  attr {
    key: "T"
    value {
      type: DT_FLOAT
    }
  }
  attr {
    key: "out_type"
    value {
      type: DT_INT32
    }
  }
}
node {
  name: "cross_entropy/softmax_cross_entropy_with_logits_sg/Rank_1"
  op: "Const"
  attr {
    key: "dtype"
    value {
      type: DT_INT32
    }
  }
  attr {
    key: "value"
    value {
      tensor {
        dtype: DT_INT32
        tensor_shape {
        }
        int_val: 2
      }
    }
  }
}
node {
  name: "cross_entropy/softmax_cross_entropy_with_logits_sg/Shape_1"
  op: "Shape"
  input: "add_5"
  attr {
    key: "T"
    value {
      type: DT_FLOAT
    }
  }
  attr {
    key: "out_type"
    value {
      type: DT_INT32
    }
  }
}
node {
  name: "cross_entropy/softmax_cross_entropy_with_logits_sg/Sub/y"
  op: "Const"
  attr {
    key: "dtype"
    value {
      type: DT_INT32
    }
  }
  attr {
    key: "value"
    value {
      tensor {
        dtype: DT_INT32
        tensor_shape {
        }
        int_val: 1
      }
    }
  }
}
node {
  name: "cross_entropy/softmax_cross_entropy_with_logits_sg/Sub"
  op: "Sub"
  input: "cross_entropy/softmax_cross_entropy_with_logits_sg/Rank_1"
  input: "cross_entropy/softmax_cross_entropy_with_logits_sg/Sub/y"
  attr {
    key: "T"
    value {
      type: DT_INT32
    }
  }
}
node {
  name: "cross_entropy/softmax_cross_entropy_with_logits_sg/Slice/begin"
  op: "Pack"
  input: "cross_entropy/softmax_cross_entropy_with_logits_sg/Sub"
  attr {
    key: "N"
    value {
      i: 1
    }
  }
  attr {
    key: "T"
    value {
      type: DT_INT32
    }
  }
  attr {
    key: "axis"
    value {
      i: 0
    }
  }
}
node {
  name: "cross_entropy/softmax_cross_entropy_with_logits_sg/Slice/size"
  op: "Const"
  attr {
    key: "dtype"
    value {
      type: DT_INT32
    }
  }
  attr {
    key: "value"
    value {
      tensor {
        dtype: DT_INT32
        tensor_shape {
          dim {
            size: 1
          }
        }
        int_val: 1
      }
    }
  }
}
node {
  name: "cross_entropy/softmax_cross_entropy_with_logits_sg/Slice"
  op: "Slice"
  input: "cross_entropy/softmax_cross_entropy_with_logits_sg/Shape_1"
  input: "cross_entropy/softmax_cross_entropy_with_logits_sg/Slice/begin"
  input: "cross_entropy/softmax_cross_entropy_with_logits_sg/Slice/size"
  attr {
    key: "Index"
    value {
      type: DT_INT32
    }
  }
  attr {
    key: "T"
    value {
      type: DT_INT32
    }
  }
}
node {
  name: "cross_entropy/softmax_cross_entropy_with_logits_sg/concat/values_0"
  op: "Const"
  attr {
    key: "dtype"
    value {
      type: DT_INT32
    }
  }
  attr {
    key: "value"
    value {
      tensor {
        dtype: DT_INT32
        tensor_shape {
          dim {
            size: 1
          }
        }
        int_val: -1
      }
    }
  }
}
node {
  name: "cross_entropy/softmax_cross_entropy_with_logits_sg/concat/axis"
  op: "Const"
  attr {
    key: "dtype"
    value {
      type: DT_INT32
    }
  }
  attr {
    key: "value"
    value {
      tensor {
        dtype: DT_INT32
        tensor_shape {
        }
        int_val: 0
      }
    }
  }
}
node {
  name: "cross_entropy/softmax_cross_entropy_with_logits_sg/concat"
  op: "ConcatV2"
  input: "cross_entropy/softmax_cross_entropy_with_logits_sg/concat/values_0"
  input: "cross_entropy/softmax_cross_entropy_with_logits_sg/Slice"
  input: "cross_entropy/softmax_cross_entropy_with_logits_sg/concat/axis"
  attr {
    key: "N"
    value {
      i: 2
    }
  }
  attr {
    key: "T"
    value {
      type: DT_INT32
    }
  }
  attr {
    key: "Tidx"
    value {
      type: DT_INT32
    }
  }
}
node {
  name: "cross_entropy/softmax_cross_entropy_with_logits_sg/Reshape"
  op: "Reshape"
  input: "add_5"
  input: "cross_entropy/softmax_cross_entropy_with_logits_sg/concat"
  attr {
    key: "T"
    value {
      type: DT_FLOAT
    }
  }
  attr {
    key: "Tshape"
    value {
      type: DT_INT32
    }
  }
}
node {
  name: "cross_entropy/softmax_cross_entropy_with_logits_sg/Rank_2"
  op: "Const"
  attr {
    key: "dtype"
    value {
      type: DT_INT32
    }
  }
  attr {
    key: "value"
    value {
      tensor {
        dtype: DT_INT32
        tensor_shape {
        }
        int_val: 2
      }
    }
  }
}
node {
  name: "cross_entropy/softmax_cross_entropy_with_logits_sg/Shape_2"
  op: "Shape"
  input: "cross_entropy/softmax_cross_entropy_with_logits_sg/labels_stop_gradient"
  attr {
    key: "T"
    value {
      type: DT_FLOAT
    }
  }
  attr {
    key: "out_type"
    value {
      type: DT_INT32
    }
  }
}
node {
  name: "cross_entropy/softmax_cross_entropy_with_logits_sg/Sub_1/y"
  op: "Const"
  attr {
    key: "dtype"
    value {
      type: DT_INT32
    }
  }
  attr {
    key: "value"
    value {
      tensor {
        dtype: DT_INT32
        tensor_shape {
        }
        int_val: 1
      }
    }
  }
}
node {
  name: "cross_entropy/softmax_cross_entropy_with_logits_sg/Sub_1"
  op: "Sub"
  input: "cross_entropy/softmax_cross_entropy_with_logits_sg/Rank_2"
  input: "cross_entropy/softmax_cross_entropy_with_logits_sg/Sub_1/y"
  attr {
    key: "T"
    value {
      type: DT_INT32
    }
  }
}
node {
  name: "cross_entropy/softmax_cross_entropy_with_logits_sg/Slice_1/begin"
  op: "Pack"
  input: "cross_entropy/softmax_cross_entropy_with_logits_sg/Sub_1"
  attr {
    key: "N"
    value {
      i: 1
    }
  }
  attr {
    key: "T"
    value {
      type: DT_INT32
    }
  }
  attr {
    key: "axis"
    value {
      i: 0
    }
  }
}
node {
  name: "cross_entropy/softmax_cross_entropy_with_logits_sg/Slice_1/size"
  op: "Const"
  attr {
    key: "dtype"
    value {
      type: DT_INT32
    }
  }
  attr {
    key: "value"
    value {
      tensor {
        dtype: DT_INT32
        tensor_shape {
          dim {
            size: 1
          }
        }
        int_val: 1
      }
    }
  }
}
node {
  name: "cross_entropy/softmax_cross_entropy_with_logits_sg/Slice_1"
  op: "Slice"
  input: "cross_entropy/softmax_cross_entropy_with_logits_sg/Shape_2"
  input: "cross_entropy/softmax_cross_entropy_with_logits_sg/Slice_1/begin"
  input: "cross_entropy/softmax_cross_entropy_with_logits_sg/Slice_1/size"
  attr {
    key: "Index"
    value {
      type: DT_INT32
    }
  }
  attr {
    key: "T"
    value {
      type: DT_INT32
    }
  }
}
node {
  name: "cross_entropy/softmax_cross_entropy_with_logits_sg/concat_1/values_0"
  op: "Const"
  attr {
    key: "dtype"
    value {
      type: DT_INT32
    }
  }
  attr {
    key: "value"
    value {
      tensor {
        dtype: DT_INT32
        tensor_shape {
          dim {
            size: 1
          }
        }
        int_val: -1
      }
    }
  }
}
node {
  name: "cross_entropy/softmax_cross_entropy_with_logits_sg/concat_1/axis"
  op: "Const"
  attr {
    key: "dtype"
    value {
      type: DT_INT32
    }
  }
  attr {
    key: "value"
    value {
      tensor {
        dtype: DT_INT32
        tensor_shape {
        }
        int_val: 0
      }
    }
  }
}
node {
  name: "cross_entropy/softmax_cross_entropy_with_logits_sg/concat_1"
  op: "ConcatV2"
  input: "cross_entropy/softmax_cross_entropy_with_logits_sg/concat_1/values_0"
  input: "cross_entropy/softmax_cross_entropy_with_logits_sg/Slice_1"
  input: "cross_entropy/softmax_cross_entropy_with_logits_sg/concat_1/axis"
  attr {
    key: "N"
    value {
      i: 2
    }
  }
  attr {
    key: "T"
    value {
      type: DT_INT32
    }
  }
  attr {
    key: "Tidx"
    value {
      type: DT_INT32
    }
  }
}
node {
  name: "cross_entropy/softmax_cross_entropy_with_logits_sg/Reshape_1"
  op: "Reshape"
  input: "cross_entropy/softmax_cross_entropy_with_logits_sg/labels_stop_gradient"
  input: "cross_entropy/softmax_cross_entropy_with_logits_sg/concat_1"
  attr {
    key: "T"
    value {
      type: DT_FLOAT
    }
  }
  attr {
    key: "Tshape"
    value {
      type: DT_INT32
    }
  }
}
node {
  name: "cross_entropy/softmax_cross_entropy_with_logits_sg"
  op: "SoftmaxCrossEntropyWithLogits"
  input: "cross_entropy/softmax_cross_entropy_with_logits_sg/Reshape"
  input: "cross_entropy/softmax_cross_entropy_with_logits_sg/Reshape_1"
  attr {
    key: "T"
    value {
      type: DT_FLOAT
    }
  }
}
node {
  name: "cross_entropy/softmax_cross_entropy_with_logits_sg/Sub_2/y"
  op: "Const"
  attr {
    key: "dtype"
    value {
      type: DT_INT32
    }
  }
  attr {
    key: "value"
    value {
      tensor {
        dtype: DT_INT32
        tensor_shape {
        }
        int_val: 1
      }
    }
  }
}
node {
  name: "cross_entropy/softmax_cross_entropy_with_logits_sg/Sub_2"
  op: "Sub"
  input: "cross_entropy/softmax_cross_entropy_with_logits_sg/Rank"
  input: "cross_entropy/softmax_cross_entropy_with_logits_sg/Sub_2/y"
  attr {
    key: "T"
    value {
      type: DT_INT32
    }
  }
}
node {
  name: "cross_entropy/softmax_cross_entropy_with_logits_sg/Slice_2/begin"
  op: "Const"
  attr {
    key: "dtype"
    value {
      type: DT_INT32
    }
  }
  attr {
    key: "value"
    value {
      tensor {
        dtype: DT_INT32
        tensor_shape {
          dim {
            size: 1
          }
        }
        int_val: 0
      }
    }
  }
}
node {
  name: "cross_entropy/softmax_cross_entropy_with_logits_sg/Slice_2/size"
  op: "Pack"
  input: "cross_entropy/softmax_cross_entropy_with_logits_sg/Sub_2"
  attr {
    key: "N"
    value {
      i: 1
    }
  }
  attr {
    key: "T"
    value {
      type: DT_INT32
    }
  }
  attr {
    key: "axis"
    value {
      i: 0
    }
  }
}
node {
  name: "cross_entropy/softmax_cross_entropy_with_logits_sg/Slice_2"
  op: "Slice"
  input: "cross_entropy/softmax_cross_entropy_with_logits_sg/Shape"
  input: "cross_entropy/softmax_cross_entropy_with_logits_sg/Slice_2/begin"
  input: "cross_entropy/softmax_cross_entropy_with_logits_sg/Slice_2/size"
  attr {
    key: "Index"
    value {
      type: DT_INT32
    }
  }
  attr {
    key: "T"
    value {
      type: DT_INT32
    }
  }
}
node {
  name: "cross_entropy/softmax_cross_entropy_with_logits_sg/Reshape_2"
  op: "Reshape"
  input: "cross_entropy/softmax_cross_entropy_with_logits_sg"
  input: "cross_entropy/softmax_cross_entropy_with_logits_sg/Slice_2"
  attr {
    key: "T"
    value {
      type: DT_FLOAT
    }
  }
  attr {
    key: "Tshape"
    value {
      type: DT_INT32
    }
  }
}
node {
  name: "cross_entropy/Const"
  op: "Const"
  attr {
    key: "dtype"
    value {
      type: DT_INT32
    }
  }
  attr {
    key: "value"
    value {
      tensor {
        dtype: DT_INT32
        tensor_shape {
          dim {
            size: 1
          }
        }
        int_val: 0
      }
    }
  }
}
node {
  name: "cross_entropy/Mean"
  op: "Mean"
  input: "cross_entropy/softmax_cross_entropy_with_logits_sg/Reshape_2"
  input: "cross_entropy/Const"
  attr {
    key: "T"
    value {
      type: DT_FLOAT
    }
  }
  attr {
    key: "Tidx"
    value {
      type: DT_INT32
    }
  }
  attr {
    key: "keep_dims"
    value {
      b: false
    }
  }
}
node {
  name: "cross_entropy_1/tags"
  op: "Const"
  attr {
    key: "dtype"
    value {
      type: DT_STRING
    }
  }
  attr {
    key: "value"
    value {
      tensor {
        dtype: DT_STRING
        tensor_shape {
        }
        string_val: "cross_entropy_1"
      }
    }
  }
}
node {
  name: "cross_entropy_1"
  op: "ScalarSummary"
  input: "cross_entropy_1/tags"
  input: "cross_entropy/Mean"
  attr {
    key: "T"
    value {
      type: DT_FLOAT
    }
  }
}
node {
  name: "train/learning_rate_input"
  op: "Placeholder"
  input: "^bn1/AssignMovingAvg"
  input: "^bn1/AssignMovingAvg_1"
  input: "^bn2/AssignMovingAvg"
  input: "^bn2/AssignMovingAvg_1"
  input: "^bn3/AssignMovingAvg"
  input: "^bn3/AssignMovingAvg_1"
  attr {
    key: "dtype"
    value {
      type: DT_FLOAT
    }
  }
  attr {
    key: "shape"
    value {
      shape {
      }
    }
  }
}
node {
  name: "global_step/Initializer/zeros"
  op: "Const"
  attr {
    key: "_class"
    value {
      list {
        s: "loc:@global_step"
      }
    }
  }
  attr {
    key: "dtype"
    value {
      type: DT_INT64
    }
  }
  attr {
    key: "value"
    value {
      tensor {
        dtype: DT_INT64
        tensor_shape {
        }
        int64_val: 0
      }
    }
  }
}
node {
  name: "global_step"
  op: "VariableV2"
  attr {
    key: "_class"
    value {
      list {
        s: "loc:@global_step"
      }
    }
  }
  attr {
    key: "container"
    value {
      s: ""
    }
  }
  attr {
    key: "dtype"
    value {
      type: DT_INT64
    }
  }
  attr {
    key: "shape"
    value {
      shape {
      }
    }
  }
  attr {
    key: "shared_name"
    value {
      s: ""
    }
  }
}
node {
  name: "global_step/Assign"
  op: "Assign"
  input: "global_step"
  input: "global_step/Initializer/zeros"
  attr {
    key: "T"
    value {
      type: DT_INT64
    }
  }
  attr {
    key: "_class"
    value {
      list {
        s: "loc:@global_step"
      }
    }
  }
  attr {
    key: "use_locking"
    value {
      b: true
    }
  }
  attr {
    key: "validate_shape"
    value {
      b: true
    }
  }
}
node {
  name: "global_step/read"
  op: "Identity"
  input: "global_step"
  attr {
    key: "T"
    value {
      type: DT_INT64
    }
  }
  attr {
    key: "_class"
    value {
      list {
        s: "loc:@global_step"
      }
    }
  }
}
node {
  name: "train/update_barrier"
  op: "NoOp"
  input: "^bn1/AssignMovingAvg"
  input: "^bn1/AssignMovingAvg_1"
  input: "^bn2/AssignMovingAvg"
  input: "^bn2/AssignMovingAvg_1"
  input: "^bn3/AssignMovingAvg"
  input: "^bn3/AssignMovingAvg_1"
}
node {
  name: "train/control_dependency"
  op: "Identity"
  input: "cross_entropy/Mean"
  input: "^bn1/AssignMovingAvg"
  input: "^bn1/AssignMovingAvg_1"
  input: "^bn2/AssignMovingAvg"
  input: "^bn2/AssignMovingAvg_1"
  input: "^bn3/AssignMovingAvg"
  input: "^bn3/AssignMovingAvg_1"
  input: "^train/update_barrier"
  attr {
    key: "T"
    value {
      type: DT_FLOAT
    }
  }
  attr {
    key: "_class"
    value {
      list {
        s: "loc:@cross_entropy/Mean"
      }
    }
  }
}
node {
  name: "train/gradients/Shape"
  op: "Const"
  input: "^bn1/AssignMovingAvg"
  input: "^bn1/AssignMovingAvg_1"
  input: "^bn2/AssignMovingAvg"
  input: "^bn2/AssignMovingAvg_1"
  input: "^bn3/AssignMovingAvg"
  input: "^bn3/AssignMovingAvg_1"
  attr {
    key: "dtype"
    value {
      type: DT_INT32
    }
  }
  attr {
    key: "value"
    value {
      tensor {
        dtype: DT_INT32
        tensor_shape {
          dim {
          }
        }
      }
    }
  }
}
node {
  name: "train/gradients/grad_ys_0"
  op: "Const"
  input: "^bn1/AssignMovingAvg"
  input: "^bn1/AssignMovingAvg_1"
  input: "^bn2/AssignMovingAvg"
  input: "^bn2/AssignMovingAvg_1"
  input: "^bn3/AssignMovingAvg"
  input: "^bn3/AssignMovingAvg_1"
  attr {
    key: "dtype"
    value {
      type: DT_FLOAT
    }
  }
  attr {
    key: "value"
    value {
      tensor {
        dtype: DT_FLOAT
        tensor_shape {
        }
        float_val: 1.0
      }
    }
  }
}
node {
  name: "train/gradients/Fill"
  op: "Fill"
  input: "train/gradients/Shape"
  input: "train/gradients/grad_ys_0"
  attr {
    key: "T"
    value {
      type: DT_FLOAT
    }
  }
  attr {
    key: "index_type"
    value {
      type: DT_INT32
    }
  }
}
node {
  name: "train/gradients/cross_entropy/Mean_grad/Reshape/shape"
  op: "Const"
  input: "^bn1/AssignMovingAvg"
  input: "^bn1/AssignMovingAvg_1"
  input: "^bn2/AssignMovingAvg"
  input: "^bn2/AssignMovingAvg_1"
  input: "^bn3/AssignMovingAvg"
  input: "^bn3/AssignMovingAvg_1"
  attr {
    key: "dtype"
    value {
      type: DT_INT32
    }
  }
  attr {
    key: "value"
    value {
      tensor {
        dtype: DT_INT32
        tensor_shape {
          dim {
            size: 1
          }
        }
        int_val: 1
      }
    }
  }
}
node {
  name: "train/gradients/cross_entropy/Mean_grad/Reshape"
  op: "Reshape"
  input: "train/gradients/Fill"
  input: "train/gradients/cross_entropy/Mean_grad/Reshape/shape"
  attr {
    key: "T"
    value {
      type: DT_FLOAT
    }
  }
  attr {
    key: "Tshape"
    value {
      type: DT_INT32
    }
  }
}
node {
  name: "train/gradients/cross_entropy/Mean_grad/Shape"
  op: "Shape"
  input: "cross_entropy/softmax_cross_entropy_with_logits_sg/Reshape_2"
  input: "^bn1/AssignMovingAvg"
  input: "^bn1/AssignMovingAvg_1"
  input: "^bn2/AssignMovingAvg"
  input: "^bn2/AssignMovingAvg_1"
  input: "^bn3/AssignMovingAvg"
  input: "^bn3/AssignMovingAvg_1"
  attr {
    key: "T"
    value {
      type: DT_FLOAT
    }
  }
  attr {
    key: "out_type"
    value {
      type: DT_INT32
    }
  }
}
node {
  name: "train/gradients/cross_entropy/Mean_grad/Tile"
  op: "Tile"
  input: "train/gradients/cross_entropy/Mean_grad/Reshape"
  input: "train/gradients/cross_entropy/Mean_grad/Shape"
  attr {
    key: "T"
    value {
      type: DT_FLOAT
    }
  }
  attr {
    key: "Tmultiples"
    value {
      type: DT_INT32
    }
  }
}
node {
  name: "train/gradients/cross_entropy/Mean_grad/Shape_1"
  op: "Shape"
  input: "cross_entropy/softmax_cross_entropy_with_logits_sg/Reshape_2"
  input: "^bn1/AssignMovingAvg"
  input: "^bn1/AssignMovingAvg_1"
  input: "^bn2/AssignMovingAvg"
  input: "^bn2/AssignMovingAvg_1"
  input: "^bn3/AssignMovingAvg"
  input: "^bn3/AssignMovingAvg_1"
  attr {
    key: "T"
    value {
      type: DT_FLOAT
    }
  }
  attr {
    key: "out_type"
    value {
      type: DT_INT32
    }
  }
}
node {
  name: "train/gradients/cross_entropy/Mean_grad/Shape_2"
  op: "Const"
  input: "^bn1/AssignMovingAvg"
  input: "^bn1/AssignMovingAvg_1"
  input: "^bn2/AssignMovingAvg"
  input: "^bn2/AssignMovingAvg_1"
  input: "^bn3/AssignMovingAvg"
  input: "^bn3/AssignMovingAvg_1"
  attr {
    key: "dtype"
    value {
      type: DT_INT32
    }
  }
  attr {
    key: "value"
    value {
      tensor {
        dtype: DT_INT32
        tensor_shape {
          dim {
          }
        }
      }
    }
  }
}
node {
  name: "train/gradients/cross_entropy/Mean_grad/Const"
  op: "Const"
  input: "^bn1/AssignMovingAvg"
  input: "^bn1/AssignMovingAvg_1"
  input: "^bn2/AssignMovingAvg"
  input: "^bn2/AssignMovingAvg_1"
  input: "^bn3/AssignMovingAvg"
  input: "^bn3/AssignMovingAvg_1"
  attr {
    key: "dtype"
    value {
      type: DT_INT32
    }
  }
  attr {
    key: "value"
    value {
      tensor {
        dtype: DT_INT32
        tensor_shape {
          dim {
            size: 1
          }
        }
        int_val: 0
      }
    }
  }
}
node {
  name: "train/gradients/cross_entropy/Mean_grad/Prod"
  op: "Prod"
  input: "train/gradients/cross_entropy/Mean_grad/Shape_1"
  input: "train/gradients/cross_entropy/Mean_grad/Const"
  attr {
    key: "T"
    value {
      type: DT_INT32
    }
  }
  attr {
    key: "Tidx"
    value {
      type: DT_INT32
    }
  }
  attr {
    key: "keep_dims"
    value {
      b: false
    }
  }
}
node {
  name: "train/gradients/cross_entropy/Mean_grad/Const_1"
  op: "Const"
  input: "^bn1/AssignMovingAvg"
  input: "^bn1/AssignMovingAvg_1"
  input: "^bn2/AssignMovingAvg"
  input: "^bn2/AssignMovingAvg_1"
  input: "^bn3/AssignMovingAvg"
  input: "^bn3/AssignMovingAvg_1"
  attr {
    key: "dtype"
    value {
      type: DT_INT32
    }
  }
  attr {
    key: "value"
    value {
      tensor {
        dtype: DT_INT32
        tensor_shape {
          dim {
            size: 1
          }
        }
        int_val: 0
      }
    }
  }
}
node {
  name: "train/gradients/cross_entropy/Mean_grad/Prod_1"
  op: "Prod"
  input: "train/gradients/cross_entropy/Mean_grad/Shape_2"
  input: "train/gradients/cross_entropy/Mean_grad/Const_1"
  attr {
    key: "T"
    value {
      type: DT_INT32
    }
  }
  attr {
    key: "Tidx"
    value {
      type: DT_INT32
    }
  }
  attr {
    key: "keep_dims"
    value {
      b: false
    }
  }
}
node {
  name: "train/gradients/cross_entropy/Mean_grad/Maximum/y"
  op: "Const"
  input: "^bn1/AssignMovingAvg"
  input: "^bn1/AssignMovingAvg_1"
  input: "^bn2/AssignMovingAvg"
  input: "^bn2/AssignMovingAvg_1"
  input: "^bn3/AssignMovingAvg"
  input: "^bn3/AssignMovingAvg_1"
  attr {
    key: "dtype"
    value {
      type: DT_INT32
    }
  }
  attr {
    key: "value"
    value {
      tensor {
        dtype: DT_INT32
        tensor_shape {
        }
        int_val: 1
      }
    }
  }
}
node {
  name: "train/gradients/cross_entropy/Mean_grad/Maximum"
  op: "Maximum"
  input: "train/gradients/cross_entropy/Mean_grad/Prod_1"
  input: "train/gradients/cross_entropy/Mean_grad/Maximum/y"
  attr {
    key: "T"
    value {
      type: DT_INT32
    }
  }
}
node {
  name: "train/gradients/cross_entropy/Mean_grad/floordiv"
  op: "FloorDiv"
  input: "train/gradients/cross_entropy/Mean_grad/Prod"
  input: "train/gradients/cross_entropy/Mean_grad/Maximum"
  attr {
    key: "T"
    value {
      type: DT_INT32
    }
  }
}
node {
  name: "train/gradients/cross_entropy/Mean_grad/Cast"
  op: "Cast"
  input: "train/gradients/cross_entropy/Mean_grad/floordiv"
  attr {
    key: "DstT"
    value {
      type: DT_FLOAT
    }
  }
  attr {
    key: "SrcT"
    value {
      type: DT_INT32
    }
  }
}
node {
  name: "train/gradients/cross_entropy/Mean_grad/truediv"
  op: "RealDiv"
  input: "train/gradients/cross_entropy/Mean_grad/Tile"
  input: "train/gradients/cross_entropy/Mean_grad/Cast"
  attr {
    key: "T"
    value {
      type: DT_FLOAT
    }
  }
}
node {
  name: "train/gradients/cross_entropy/softmax_cross_entropy_with_logits_sg/Reshape_2_grad/Shape"
  op: "Shape"
  input: "cross_entropy/softmax_cross_entropy_with_logits_sg"
  input: "^bn1/AssignMovingAvg"
  input: "^bn1/AssignMovingAvg_1"
  input: "^bn2/AssignMovingAvg"
  input: "^bn2/AssignMovingAvg_1"
  input: "^bn3/AssignMovingAvg"
  input: "^bn3/AssignMovingAvg_1"
  attr {
    key: "T"
    value {
      type: DT_FLOAT
    }
  }
  attr {
    key: "out_type"
    value {
      type: DT_INT32
    }
  }
}
node {
  name: "train/gradients/cross_entropy/softmax_cross_entropy_with_logits_sg/Reshape_2_grad/Reshape"
  op: "Reshape"
  input: "train/gradients/cross_entropy/Mean_grad/truediv"
  input: "train/gradients/cross_entropy/softmax_cross_entropy_with_logits_sg/Reshape_2_grad/Shape"
  attr {
    key: "T"
    value {
      type: DT_FLOAT
    }
  }
  attr {
    key: "Tshape"
    value {
      type: DT_INT32
    }
  }
}
node {
  name: "train/gradients/zeros_like"
  op: "ZerosLike"
  input: "cross_entropy/softmax_cross_entropy_with_logits_sg:1"
  input: "^bn1/AssignMovingAvg"
  input: "^bn1/AssignMovingAvg_1"
  input: "^bn2/AssignMovingAvg"
  input: "^bn2/AssignMovingAvg_1"
  input: "^bn3/AssignMovingAvg"
  input: "^bn3/AssignMovingAvg_1"
  attr {
    key: "T"
    value {
      type: DT_FLOAT
    }
  }
}
node {
  name: "train/gradients/cross_entropy/softmax_cross_entropy_with_logits_sg_grad/ExpandDims/dim"
  op: "Const"
  input: "^bn1/AssignMovingAvg"
  input: "^bn1/AssignMovingAvg_1"
  input: "^bn2/AssignMovingAvg"
  input: "^bn2/AssignMovingAvg_1"
  input: "^bn3/AssignMovingAvg"
  input: "^bn3/AssignMovingAvg_1"
  attr {
    key: "dtype"
    value {
      type: DT_INT32
    }
  }
  attr {
    key: "value"
    value {
      tensor {
        dtype: DT_INT32
        tensor_shape {
        }
        int_val: -1
      }
    }
  }
}
node {
  name: "train/gradients/cross_entropy/softmax_cross_entropy_with_logits_sg_grad/ExpandDims"
  op: "ExpandDims"
  input: "train/gradients/cross_entropy/softmax_cross_entropy_with_logits_sg/Reshape_2_grad/Reshape"
  input: "train/gradients/cross_entropy/softmax_cross_entropy_with_logits_sg_grad/ExpandDims/dim"
  attr {
    key: "T"
    value {
      type: DT_FLOAT
    }
  }
  attr {
    key: "Tdim"
    value {
      type: DT_INT32
    }
  }
}
node {
  name: "train/gradients/cross_entropy/softmax_cross_entropy_with_logits_sg_grad/mul"
  op: "Mul"
  input: "train/gradients/cross_entropy/softmax_cross_entropy_with_logits_sg_grad/ExpandDims"
  input: "cross_entropy/softmax_cross_entropy_with_logits_sg:1"
  attr {
    key: "T"
    value {
      type: DT_FLOAT
    }
  }
}
node {
  name: "train/gradients/cross_entropy/softmax_cross_entropy_with_logits_sg_grad/LogSoftmax"
  op: "LogSoftmax"
  input: "cross_entropy/softmax_cross_entropy_with_logits_sg/Reshape"
  input: "^bn1/AssignMovingAvg"
  input: "^bn1/AssignMovingAvg_1"
  input: "^bn2/AssignMovingAvg"
  input: "^bn2/AssignMovingAvg_1"
  input: "^bn3/AssignMovingAvg"
  input: "^bn3/AssignMovingAvg_1"
  attr {
    key: "T"
    value {
      type: DT_FLOAT
    }
  }
}
node {
  name: "train/gradients/cross_entropy/softmax_cross_entropy_with_logits_sg_grad/Neg"
  op: "Neg"
  input: "train/gradients/cross_entropy/softmax_cross_entropy_with_logits_sg_grad/LogSoftmax"
  attr {
    key: "T"
    value {
      type: DT_FLOAT
    }
  }
}
node {
  name: "train/gradients/cross_entropy/softmax_cross_entropy_with_logits_sg_grad/ExpandDims_1/dim"
  op: "Const"
  input: "^bn1/AssignMovingAvg"
  input: "^bn1/AssignMovingAvg_1"
  input: "^bn2/AssignMovingAvg"
  input: "^bn2/AssignMovingAvg_1"
  input: "^bn3/AssignMovingAvg"
  input: "^bn3/AssignMovingAvg_1"
  attr {
    key: "dtype"
    value {
      type: DT_INT32
    }
  }
  attr {
    key: "value"
    value {
      tensor {
        dtype: DT_INT32
        tensor_shape {
        }
        int_val: -1
      }
    }
  }
}
node {
  name: "train/gradients/cross_entropy/softmax_cross_entropy_with_logits_sg_grad/ExpandDims_1"
  op: "ExpandDims"
  input: "train/gradients/cross_entropy/softmax_cross_entropy_with_logits_sg/Reshape_2_grad/Reshape"
  input: "train/gradients/cross_entropy/softmax_cross_entropy_with_logits_sg_grad/ExpandDims_1/dim"
  attr {
    key: "T"
    value {
      type: DT_FLOAT
    }
  }
  attr {
    key: "Tdim"
    value {
      type: DT_INT32
    }
  }
}
node {
  name: "train/gradients/cross_entropy/softmax_cross_entropy_with_logits_sg_grad/mul_1"
  op: "Mul"
  input: "train/gradients/cross_entropy/softmax_cross_entropy_with_logits_sg_grad/ExpandDims_1"
  input: "train/gradients/cross_entropy/softmax_cross_entropy_with_logits_sg_grad/Neg"
  attr {
    key: "T"
    value {
      type: DT_FLOAT
    }
  }
}
node {
  name: "train/gradients/cross_entropy/softmax_cross_entropy_with_logits_sg_grad/tuple/group_deps"
  op: "NoOp"
  input: "^bn1/AssignMovingAvg"
  input: "^bn1/AssignMovingAvg_1"
  input: "^bn2/AssignMovingAvg"
  input: "^bn2/AssignMovingAvg_1"
  input: "^bn3/AssignMovingAvg"
  input: "^bn3/AssignMovingAvg_1"
  input: "^train/gradients/cross_entropy/softmax_cross_entropy_with_logits_sg_grad/mul"
  input: "^train/gradients/cross_entropy/softmax_cross_entropy_with_logits_sg_grad/mul_1"
}
node {
  name: "train/gradients/cross_entropy/softmax_cross_entropy_with_logits_sg_grad/tuple/control_dependency"
  op: "Identity"
  input: "train/gradients/cross_entropy/softmax_cross_entropy_with_logits_sg_grad/mul"
  input: "^train/gradients/cross_entropy/softmax_cross_entropy_with_logits_sg_grad/tuple/group_deps"
  attr {
    key: "T"
    value {
      type: DT_FLOAT
    }
  }
  attr {
    key: "_class"
    value {
      list {
        s: "loc:@train/gradients/cross_entropy/softmax_cross_entropy_with_logits_sg_grad/mul"
      }
    }
  }
}
node {
  name: "train/gradients/cross_entropy/softmax_cross_entropy_with_logits_sg_grad/tuple/control_dependency_1"
  op: "Identity"
  input: "train/gradients/cross_entropy/softmax_cross_entropy_with_logits_sg_grad/mul_1"
  input: "^train/gradients/cross_entropy/softmax_cross_entropy_with_logits_sg_grad/tuple/group_deps"
  attr {
    key: "T"
    value {
      type: DT_FLOAT
    }
  }
  attr {
    key: "_class"
    value {
      list {
        s: "loc:@train/gradients/cross_entropy/softmax_cross_entropy_with_logits_sg_grad/mul_1"
      }
    }
  }
}
node {
  name: "train/gradients/cross_entropy/softmax_cross_entropy_with_logits_sg/Reshape_grad/Shape"
  op: "Shape"
  input: "add_5"
  input: "^bn1/AssignMovingAvg"
  input: "^bn1/AssignMovingAvg_1"
  input: "^bn2/AssignMovingAvg"
  input: "^bn2/AssignMovingAvg_1"
  input: "^bn3/AssignMovingAvg"
  input: "^bn3/AssignMovingAvg_1"
  attr {
    key: "T"
    value {
      type: DT_FLOAT
    }
  }
  attr {
    key: "out_type"
    value {
      type: DT_INT32
    }
  }
}
node {
  name: "train/gradients/cross_entropy/softmax_cross_entropy_with_logits_sg/Reshape_grad/Reshape"
  op: "Reshape"
  input: "train/gradients/cross_entropy/softmax_cross_entropy_with_logits_sg_grad/tuple/control_dependency"
  input: "train/gradients/cross_entropy/softmax_cross_entropy_with_logits_sg/Reshape_grad/Shape"
  attr {
    key: "T"
    value {
      type: DT_FLOAT
    }
  }
  attr {
    key: "Tshape"
    value {
      type: DT_INT32
    }
  }
}
node {
  name: "train/gradients/add_5_grad/Shape"
  op: "Shape"
  input: "MatMul_2"
  input: "^bn1/AssignMovingAvg"
  input: "^bn1/AssignMovingAvg_1"
  input: "^bn2/AssignMovingAvg"
  input: "^bn2/AssignMovingAvg_1"
  input: "^bn3/AssignMovingAvg"
  input: "^bn3/AssignMovingAvg_1"
  attr {
    key: "T"
    value {
      type: DT_FLOAT
    }
  }
  attr {
    key: "out_type"
    value {
      type: DT_INT32
    }
  }
}
node {
  name: "train/gradients/add_5_grad/Shape_1"
  op: "Const"
  input: "^bn1/AssignMovingAvg"
  input: "^bn1/AssignMovingAvg_1"
  input: "^bn2/AssignMovingAvg"
  input: "^bn2/AssignMovingAvg_1"
  input: "^bn3/AssignMovingAvg"
  input: "^bn3/AssignMovingAvg_1"
  attr {
    key: "dtype"
    value {
      type: DT_INT32
    }
  }
  attr {
    key: "value"
    value {
      tensor {
        dtype: DT_INT32
        tensor_shape {
          dim {
            size: 1
          }
        }
        int_val: 14
      }
    }
  }
}
node {
  name: "train/gradients/add_5_grad/BroadcastGradientArgs"
  op: "BroadcastGradientArgs"
  input: "train/gradients/add_5_grad/Shape"
  input: "train/gradients/add_5_grad/Shape_1"
  attr {
    key: "T"
    value {
      type: DT_INT32
    }
  }
}
node {
  name: "train/gradients/add_5_grad/Sum"
  op: "Sum"
  input: "train/gradients/cross_entropy/softmax_cross_entropy_with_logits_sg/Reshape_grad/Reshape"
  input: "train/gradients/add_5_grad/BroadcastGradientArgs"
  attr {
    key: "T"
    value {
      type: DT_FLOAT
    }
  }
  attr {
    key: "Tidx"
    value {
      type: DT_INT32
    }
  }
  attr {
    key: "keep_dims"
    value {
      b: false
    }
  }
}
node {
  name: "train/gradients/add_5_grad/Reshape"
  op: "Reshape"
  input: "train/gradients/add_5_grad/Sum"
  input: "train/gradients/add_5_grad/Shape"
  attr {
    key: "T"
    value {
      type: DT_FLOAT
    }
  }
  attr {
    key: "Tshape"
    value {
      type: DT_INT32
    }
  }
}
node {
  name: "train/gradients/add_5_grad/Sum_1"
  op: "Sum"
  input: "train/gradients/cross_entropy/softmax_cross_entropy_with_logits_sg/Reshape_grad/Reshape"
  input: "train/gradients/add_5_grad/BroadcastGradientArgs:1"
  attr {
    key: "T"
    value {
      type: DT_FLOAT
    }
  }
  attr {
    key: "Tidx"
    value {
      type: DT_INT32
    }
  }
  attr {
    key: "keep_dims"
    value {
      b: false
    }
  }
}
node {
  name: "train/gradients/add_5_grad/Reshape_1"
  op: "Reshape"
  input: "train/gradients/add_5_grad/Sum_1"
  input: "train/gradients/add_5_grad/Shape_1"
  attr {
    key: "T"
    value {
      type: DT_FLOAT
    }
  }
  attr {
    key: "Tshape"
    value {
      type: DT_INT32
    }
  }
}
node {
  name: "train/gradients/add_5_grad/tuple/group_deps"
  op: "NoOp"
  input: "^bn1/AssignMovingAvg"
  input: "^bn1/AssignMovingAvg_1"
  input: "^bn2/AssignMovingAvg"
  input: "^bn2/AssignMovingAvg_1"
  input: "^bn3/AssignMovingAvg"
  input: "^bn3/AssignMovingAvg_1"
  input: "^train/gradients/add_5_grad/Reshape"
  input: "^train/gradients/add_5_grad/Reshape_1"
}
node {
  name: "train/gradients/add_5_grad/tuple/control_dependency"
  op: "Identity"
  input: "train/gradients/add_5_grad/Reshape"
  input: "^train/gradients/add_5_grad/tuple/group_deps"
  attr {
    key: "T"
    value {
      type: DT_FLOAT
    }
  }
  attr {
    key: "_class"
    value {
      list {
        s: "loc:@train/gradients/add_5_grad/Reshape"
      }
    }
  }
}
node {
  name: "train/gradients/add_5_grad/tuple/control_dependency_1"
  op: "Identity"
  input: "train/gradients/add_5_grad/Reshape_1"
  input: "^train/gradients/add_5_grad/tuple/group_deps"
  attr {
    key: "T"
    value {
      type: DT_FLOAT
    }
  }
  attr {
    key: "_class"
    value {
      list {
        s: "loc:@train/gradients/add_5_grad/Reshape_1"
      }
    }
  }
}
node {
  name: "train/gradients/MatMul_2_grad/MatMul"
  op: "MatMul"
  input: "train/gradients/add_5_grad/tuple/control_dependency"
  input: "Variable_6/read"
  attr {
    key: "T"
    value {
      type: DT_FLOAT
    }
  }
  attr {
    key: "transpose_a"
    value {
      b: false
    }
  }
  attr {
    key: "transpose_b"
    value {
      b: true
    }
  }
}
node {
  name: "train/gradients/MatMul_2_grad/MatMul_1"
  op: "MatMul"
  input: "dropout_2/mul"
  input: "train/gradients/add_5_grad/tuple/control_dependency"
  attr {
    key: "T"
    value {
      type: DT_FLOAT
    }
  }
  attr {
    key: "transpose_a"
    value {
      b: true
    }
  }
  attr {
    key: "transpose_b"
    value {
      b: false
    }
  }
}
node {
  name: "train/gradients/MatMul_2_grad/tuple/group_deps"
  op: "NoOp"
  input: "^bn1/AssignMovingAvg"
  input: "^bn1/AssignMovingAvg_1"
  input: "^bn2/AssignMovingAvg"
  input: "^bn2/AssignMovingAvg_1"
  input: "^bn3/AssignMovingAvg"
  input: "^bn3/AssignMovingAvg_1"
  input: "^train/gradients/MatMul_2_grad/MatMul"
  input: "^train/gradients/MatMul_2_grad/MatMul_1"
}
node {
  name: "train/gradients/MatMul_2_grad/tuple/control_dependency"
  op: "Identity"
  input: "train/gradients/MatMul_2_grad/MatMul"
  input: "^train/gradients/MatMul_2_grad/tuple/group_deps"
  attr {
    key: "T"
    value {
      type: DT_FLOAT
    }
  }
  attr {
    key: "_class"
    value {
      list {
        s: "loc:@train/gradients/MatMul_2_grad/MatMul"
      }
    }
  }
}
node {
  name: "train/gradients/MatMul_2_grad/tuple/control_dependency_1"
  op: "Identity"
  input: "train/gradients/MatMul_2_grad/MatMul_1"
  input: "^train/gradients/MatMul_2_grad/tuple/group_deps"
  attr {
    key: "T"
    value {
      type: DT_FLOAT
    }
  }
  attr {
    key: "_class"
    value {
      list {
        s: "loc:@train/gradients/MatMul_2_grad/MatMul_1"
      }
    }
  }
}
node {
  name: "train/gradients/dropout_2/mul_grad/Shape"
  op: "Shape"
  input: "dropout_2/div"
  input: "^bn1/AssignMovingAvg"
  input: "^bn1/AssignMovingAvg_1"
  input: "^bn2/AssignMovingAvg"
  input: "^bn2/AssignMovingAvg_1"
  input: "^bn3/AssignMovingAvg"
  input: "^bn3/AssignMovingAvg_1"
  attr {
    key: "T"
    value {
      type: DT_FLOAT
    }
  }
  attr {
    key: "out_type"
    value {
      type: DT_INT32
    }
  }
}
node {
  name: "train/gradients/dropout_2/mul_grad/Shape_1"
  op: "Shape"
  input: "dropout_2/Floor"
  input: "^bn1/AssignMovingAvg"
  input: "^bn1/AssignMovingAvg_1"
  input: "^bn2/AssignMovingAvg"
  input: "^bn2/AssignMovingAvg_1"
  input: "^bn3/AssignMovingAvg"
  input: "^bn3/AssignMovingAvg_1"
  attr {
    key: "T"
    value {
      type: DT_FLOAT
    }
  }
  attr {
    key: "out_type"
    value {
      type: DT_INT32
    }
  }
}
node {
  name: "train/gradients/dropout_2/mul_grad/BroadcastGradientArgs"
  op: "BroadcastGradientArgs"
  input: "train/gradients/dropout_2/mul_grad/Shape"
  input: "train/gradients/dropout_2/mul_grad/Shape_1"
  attr {
    key: "T"
    value {
      type: DT_INT32
    }
  }
}
node {
  name: "train/gradients/dropout_2/mul_grad/Mul"
  op: "Mul"
  input: "train/gradients/MatMul_2_grad/tuple/control_dependency"
  input: "dropout_2/Floor"
  attr {
    key: "T"
    value {
      type: DT_FLOAT
    }
  }
}
node {
  name: "train/gradients/dropout_2/mul_grad/Sum"
  op: "Sum"
  input: "train/gradients/dropout_2/mul_grad/Mul"
  input: "train/gradients/dropout_2/mul_grad/BroadcastGradientArgs"
  attr {
    key: "T"
    value {
      type: DT_FLOAT
    }
  }
  attr {
    key: "Tidx"
    value {
      type: DT_INT32
    }
  }
  attr {
    key: "keep_dims"
    value {
      b: false
    }
  }
}
node {
  name: "train/gradients/dropout_2/mul_grad/Reshape"
  op: "Reshape"
  input: "train/gradients/dropout_2/mul_grad/Sum"
  input: "train/gradients/dropout_2/mul_grad/Shape"
  attr {
    key: "T"
    value {
      type: DT_FLOAT
    }
  }
  attr {
    key: "Tshape"
    value {
      type: DT_INT32
    }
  }
}
node {
  name: "train/gradients/dropout_2/mul_grad/Mul_1"
  op: "Mul"
  input: "dropout_2/div"
  input: "train/gradients/MatMul_2_grad/tuple/control_dependency"
  attr {
    key: "T"
    value {
      type: DT_FLOAT
    }
  }
}
node {
  name: "train/gradients/dropout_2/mul_grad/Sum_1"
  op: "Sum"
  input: "train/gradients/dropout_2/mul_grad/Mul_1"
  input: "train/gradients/dropout_2/mul_grad/BroadcastGradientArgs:1"
  attr {
    key: "T"
    value {
      type: DT_FLOAT
    }
  }
  attr {
    key: "Tidx"
    value {
      type: DT_INT32
    }
  }
  attr {
    key: "keep_dims"
    value {
      b: false
    }
  }
}
node {
  name: "train/gradients/dropout_2/mul_grad/Reshape_1"
  op: "Reshape"
  input: "train/gradients/dropout_2/mul_grad/Sum_1"
  input: "train/gradients/dropout_2/mul_grad/Shape_1"
  attr {
    key: "T"
    value {
      type: DT_FLOAT
    }
  }
  attr {
    key: "Tshape"
    value {
      type: DT_INT32
    }
  }
}
node {
  name: "train/gradients/dropout_2/mul_grad/tuple/group_deps"
  op: "NoOp"
  input: "^bn1/AssignMovingAvg"
  input: "^bn1/AssignMovingAvg_1"
  input: "^bn2/AssignMovingAvg"
  input: "^bn2/AssignMovingAvg_1"
  input: "^bn3/AssignMovingAvg"
  input: "^bn3/AssignMovingAvg_1"
  input: "^train/gradients/dropout_2/mul_grad/Reshape"
  input: "^train/gradients/dropout_2/mul_grad/Reshape_1"
}
node {
  name: "train/gradients/dropout_2/mul_grad/tuple/control_dependency"
  op: "Identity"
  input: "train/gradients/dropout_2/mul_grad/Reshape"
  input: "^train/gradients/dropout_2/mul_grad/tuple/group_deps"
  attr {
    key: "T"
    value {
      type: DT_FLOAT
    }
  }
  attr {
    key: "_class"
    value {
      list {
        s: "loc:@train/gradients/dropout_2/mul_grad/Reshape"
      }
    }
  }
}
node {
  name: "train/gradients/dropout_2/mul_grad/tuple/control_dependency_1"
  op: "Identity"
  input: "train/gradients/dropout_2/mul_grad/Reshape_1"
  input: "^train/gradients/dropout_2/mul_grad/tuple/group_deps"
  attr {
    key: "T"
    value {
      type: DT_FLOAT
    }
  }
  attr {
    key: "_class"
    value {
      list {
        s: "loc:@train/gradients/dropout_2/mul_grad/Reshape_1"
      }
    }
  }
}
node {
  name: "train/gradients/dropout_2/div_grad/Shape"
  op: "Shape"
  input: "Relu_2"
  input: "^bn1/AssignMovingAvg"
  input: "^bn1/AssignMovingAvg_1"
  input: "^bn2/AssignMovingAvg"
  input: "^bn2/AssignMovingAvg_1"
  input: "^bn3/AssignMovingAvg"
  input: "^bn3/AssignMovingAvg_1"
  attr {
    key: "T"
    value {
      type: DT_FLOAT
    }
  }
  attr {
    key: "out_type"
    value {
      type: DT_INT32
    }
  }
}
node {
  name: "train/gradients/dropout_2/div_grad/Shape_1"
  op: "Shape"
  input: "dropout_prob"
  input: "^bn1/AssignMovingAvg"
  input: "^bn1/AssignMovingAvg_1"
  input: "^bn2/AssignMovingAvg"
  input: "^bn2/AssignMovingAvg_1"
  input: "^bn3/AssignMovingAvg"
  input: "^bn3/AssignMovingAvg_1"
  attr {
    key: "T"
    value {
      type: DT_FLOAT
    }
  }
  attr {
    key: "out_type"
    value {
      type: DT_INT32
    }
  }
}
node {
  name: "train/gradients/dropout_2/div_grad/BroadcastGradientArgs"
  op: "BroadcastGradientArgs"
  input: "train/gradients/dropout_2/div_grad/Shape"
  input: "train/gradients/dropout_2/div_grad/Shape_1"
  attr {
    key: "T"
    value {
      type: DT_INT32
    }
  }
}
node {
  name: "train/gradients/dropout_2/div_grad/RealDiv"
  op: "RealDiv"
  input: "train/gradients/dropout_2/mul_grad/tuple/control_dependency"
  input: "dropout_prob"
  attr {
    key: "T"
    value {
      type: DT_FLOAT
    }
  }
}
node {
  name: "train/gradients/dropout_2/div_grad/Sum"
  op: "Sum"
  input: "train/gradients/dropout_2/div_grad/RealDiv"
  input: "train/gradients/dropout_2/div_grad/BroadcastGradientArgs"
  attr {
    key: "T"
    value {
      type: DT_FLOAT
    }
  }
  attr {
    key: "Tidx"
    value {
      type: DT_INT32
    }
  }
  attr {
    key: "keep_dims"
    value {
      b: false
    }
  }
}
node {
  name: "train/gradients/dropout_2/div_grad/Reshape"
  op: "Reshape"
  input: "train/gradients/dropout_2/div_grad/Sum"
  input: "train/gradients/dropout_2/div_grad/Shape"
  attr {
    key: "T"
    value {
      type: DT_FLOAT
    }
  }
  attr {
    key: "Tshape"
    value {
      type: DT_INT32
    }
  }
}
node {
  name: "train/gradients/dropout_2/div_grad/Neg"
  op: "Neg"
  input: "Relu_2"
  input: "^bn1/AssignMovingAvg"
  input: "^bn1/AssignMovingAvg_1"
  input: "^bn2/AssignMovingAvg"
  input: "^bn2/AssignMovingAvg_1"
  input: "^bn3/AssignMovingAvg"
  input: "^bn3/AssignMovingAvg_1"
  attr {
    key: "T"
    value {
      type: DT_FLOAT
    }
  }
}
node {
  name: "train/gradients/dropout_2/div_grad/RealDiv_1"
  op: "RealDiv"
  input: "train/gradients/dropout_2/div_grad/Neg"
  input: "dropout_prob"
  attr {
    key: "T"
    value {
      type: DT_FLOAT
    }
  }
}
node {
  name: "train/gradients/dropout_2/div_grad/RealDiv_2"
  op: "RealDiv"
  input: "train/gradients/dropout_2/div_grad/RealDiv_1"
  input: "dropout_prob"
  attr {
    key: "T"
    value {
      type: DT_FLOAT
    }
  }
}
node {
  name: "train/gradients/dropout_2/div_grad/mul"
  op: "Mul"
  input: "train/gradients/dropout_2/mul_grad/tuple/control_dependency"
  input: "train/gradients/dropout_2/div_grad/RealDiv_2"
  attr {
    key: "T"
    value {
      type: DT_FLOAT
    }
  }
}
node {
  name: "train/gradients/dropout_2/div_grad/Sum_1"
  op: "Sum"
  input: "train/gradients/dropout_2/div_grad/mul"
  input: "train/gradients/dropout_2/div_grad/BroadcastGradientArgs:1"
  attr {
    key: "T"
    value {
      type: DT_FLOAT
    }
  }
  attr {
    key: "Tidx"
    value {
      type: DT_INT32
    }
  }
  attr {
    key: "keep_dims"
    value {
      b: false
    }
  }
}
node {
  name: "train/gradients/dropout_2/div_grad/Reshape_1"
  op: "Reshape"
  input: "train/gradients/dropout_2/div_grad/Sum_1"
  input: "train/gradients/dropout_2/div_grad/Shape_1"
  attr {
    key: "T"
    value {
      type: DT_FLOAT
    }
  }
  attr {
    key: "Tshape"
    value {
      type: DT_INT32
    }
  }
}
node {
  name: "train/gradients/dropout_2/div_grad/tuple/group_deps"
  op: "NoOp"
  input: "^bn1/AssignMovingAvg"
  input: "^bn1/AssignMovingAvg_1"
  input: "^bn2/AssignMovingAvg"
  input: "^bn2/AssignMovingAvg_1"
  input: "^bn3/AssignMovingAvg"
  input: "^bn3/AssignMovingAvg_1"
  input: "^train/gradients/dropout_2/div_grad/Reshape"
  input: "^train/gradients/dropout_2/div_grad/Reshape_1"
}
node {
  name: "train/gradients/dropout_2/div_grad/tuple/control_dependency"
  op: "Identity"
  input: "train/gradients/dropout_2/div_grad/Reshape"
  input: "^train/gradients/dropout_2/div_grad/tuple/group_deps"
  attr {
    key: "T"
    value {
      type: DT_FLOAT
    }
  }
  attr {
    key: "_class"
    value {
      list {
        s: "loc:@train/gradients/dropout_2/div_grad/Reshape"
      }
    }
  }
}
node {
  name: "train/gradients/dropout_2/div_grad/tuple/control_dependency_1"
  op: "Identity"
  input: "train/gradients/dropout_2/div_grad/Reshape_1"
  input: "^train/gradients/dropout_2/div_grad/tuple/group_deps"
  attr {
    key: "T"
    value {
      type: DT_FLOAT
    }
  }
  attr {
    key: "_class"
    value {
      list {
        s: "loc:@train/gradients/dropout_2/div_grad/Reshape_1"
      }
    }
  }
}
node {
  name: "train/gradients/Relu_2_grad/ReluGrad"
  op: "ReluGrad"
  input: "train/gradients/dropout_2/div_grad/tuple/control_dependency"
  input: "Relu_2"
  attr {
    key: "T"
    value {
      type: DT_FLOAT
    }
  }
}
node {
  name: "train/gradients/bn3/batchnorm/add_1_grad/Shape"
  op: "Shape"
  input: "bn3/batchnorm/mul_1"
  input: "^bn1/AssignMovingAvg"
  input: "^bn1/AssignMovingAvg_1"
  input: "^bn2/AssignMovingAvg"
  input: "^bn2/AssignMovingAvg_1"
  input: "^bn3/AssignMovingAvg"
  input: "^bn3/AssignMovingAvg_1"
  attr {
    key: "T"
    value {
      type: DT_FLOAT
    }
  }
  attr {
    key: "out_type"
    value {
      type: DT_INT32
    }
  }
}
node {
  name: "train/gradients/bn3/batchnorm/add_1_grad/Shape_1"
  op: "Const"
  input: "^bn1/AssignMovingAvg"
  input: "^bn1/AssignMovingAvg_1"
  input: "^bn2/AssignMovingAvg"
  input: "^bn2/AssignMovingAvg_1"
  input: "^bn3/AssignMovingAvg"
  input: "^bn3/AssignMovingAvg_1"
  attr {
    key: "dtype"
    value {
      type: DT_INT32
    }
  }
  attr {
    key: "value"
    value {
      tensor {
        dtype: DT_INT32
        tensor_shape {
          dim {
            size: 1
          }
        }
        int_val: 128
      }
    }
  }
}
node {
  name: "train/gradients/bn3/batchnorm/add_1_grad/BroadcastGradientArgs"
  op: "BroadcastGradientArgs"
  input: "train/gradients/bn3/batchnorm/add_1_grad/Shape"
  input: "train/gradients/bn3/batchnorm/add_1_grad/Shape_1"
  attr {
    key: "T"
    value {
      type: DT_INT32
    }
  }
}
node {
  name: "train/gradients/bn3/batchnorm/add_1_grad/Sum"
  op: "Sum"
  input: "train/gradients/Relu_2_grad/ReluGrad"
  input: "train/gradients/bn3/batchnorm/add_1_grad/BroadcastGradientArgs"
  attr {
    key: "T"
    value {
      type: DT_FLOAT
    }
  }
  attr {
    key: "Tidx"
    value {
      type: DT_INT32
    }
  }
  attr {
    key: "keep_dims"
    value {
      b: false
    }
  }
}
node {
  name: "train/gradients/bn3/batchnorm/add_1_grad/Reshape"
  op: "Reshape"
  input: "train/gradients/bn3/batchnorm/add_1_grad/Sum"
  input: "train/gradients/bn3/batchnorm/add_1_grad/Shape"
  attr {
    key: "T"
    value {
      type: DT_FLOAT
    }
  }
  attr {
    key: "Tshape"
    value {
      type: DT_INT32
    }
  }
}
node {
  name: "train/gradients/bn3/batchnorm/add_1_grad/Sum_1"
  op: "Sum"
  input: "train/gradients/Relu_2_grad/ReluGrad"
  input: "train/gradients/bn3/batchnorm/add_1_grad/BroadcastGradientArgs:1"
  attr {
    key: "T"
    value {
      type: DT_FLOAT
    }
  }
  attr {
    key: "Tidx"
    value {
      type: DT_INT32
    }
  }
  attr {
    key: "keep_dims"
    value {
      b: false
    }
  }
}
node {
  name: "train/gradients/bn3/batchnorm/add_1_grad/Reshape_1"
  op: "Reshape"
  input: "train/gradients/bn3/batchnorm/add_1_grad/Sum_1"
  input: "train/gradients/bn3/batchnorm/add_1_grad/Shape_1"
  attr {
    key: "T"
    value {
      type: DT_FLOAT
    }
  }
  attr {
    key: "Tshape"
    value {
      type: DT_INT32
    }
  }
}
node {
  name: "train/gradients/bn3/batchnorm/add_1_grad/tuple/group_deps"
  op: "NoOp"
  input: "^bn1/AssignMovingAvg"
  input: "^bn1/AssignMovingAvg_1"
  input: "^bn2/AssignMovingAvg"
  input: "^bn2/AssignMovingAvg_1"
  input: "^bn3/AssignMovingAvg"
  input: "^bn3/AssignMovingAvg_1"
  input: "^train/gradients/bn3/batchnorm/add_1_grad/Reshape"
  input: "^train/gradients/bn3/batchnorm/add_1_grad/Reshape_1"
}
node {
  name: "train/gradients/bn3/batchnorm/add_1_grad/tuple/control_dependency"
  op: "Identity"
  input: "train/gradients/bn3/batchnorm/add_1_grad/Reshape"
  input: "^train/gradients/bn3/batchnorm/add_1_grad/tuple/group_deps"
  attr {
    key: "T"
    value {
      type: DT_FLOAT
    }
  }
  attr {
    key: "_class"
    value {
      list {
        s: "loc:@train/gradients/bn3/batchnorm/add_1_grad/Reshape"
      }
    }
  }
}
node {
  name: "train/gradients/bn3/batchnorm/add_1_grad/tuple/control_dependency_1"
  op: "Identity"
  input: "train/gradients/bn3/batchnorm/add_1_grad/Reshape_1"
  input: "^train/gradients/bn3/batchnorm/add_1_grad/tuple/group_deps"
  attr {
    key: "T"
    value {
      type: DT_FLOAT
    }
  }
  attr {
    key: "_class"
    value {
      list {
        s: "loc:@train/gradients/bn3/batchnorm/add_1_grad/Reshape_1"
      }
    }
  }
}
node {
  name: "train/gradients/bn3/batchnorm/mul_1_grad/Shape"
  op: "Shape"
  input: "add_4"
  input: "^bn1/AssignMovingAvg"
  input: "^bn1/AssignMovingAvg_1"
  input: "^bn2/AssignMovingAvg"
  input: "^bn2/AssignMovingAvg_1"
  input: "^bn3/AssignMovingAvg"
  input: "^bn3/AssignMovingAvg_1"
  attr {
    key: "T"
    value {
      type: DT_FLOAT
    }
  }
  attr {
    key: "out_type"
    value {
      type: DT_INT32
    }
  }
}
node {
  name: "train/gradients/bn3/batchnorm/mul_1_grad/Shape_1"
  op: "Const"
  input: "^bn1/AssignMovingAvg"
  input: "^bn1/AssignMovingAvg_1"
  input: "^bn2/AssignMovingAvg"
  input: "^bn2/AssignMovingAvg_1"
  input: "^bn3/AssignMovingAvg"
  input: "^bn3/AssignMovingAvg_1"
  attr {
    key: "dtype"
    value {
      type: DT_INT32
    }
  }
  attr {
    key: "value"
    value {
      tensor {
        dtype: DT_INT32
        tensor_shape {
          dim {
            size: 1
          }
        }
        int_val: 128
      }
    }
  }
}
node {
  name: "train/gradients/bn3/batchnorm/mul_1_grad/BroadcastGradientArgs"
  op: "BroadcastGradientArgs"
  input: "train/gradients/bn3/batchnorm/mul_1_grad/Shape"
  input: "train/gradients/bn3/batchnorm/mul_1_grad/Shape_1"
  attr {
    key: "T"
    value {
      type: DT_INT32
    }
  }
}
node {
  name: "train/gradients/bn3/batchnorm/mul_1_grad/Mul"
  op: "Mul"
  input: "train/gradients/bn3/batchnorm/add_1_grad/tuple/control_dependency"
  input: "bn3/batchnorm/mul"
  attr {
    key: "T"
    value {
      type: DT_FLOAT
    }
  }
}
node {
  name: "train/gradients/bn3/batchnorm/mul_1_grad/Sum"
  op: "Sum"
  input: "train/gradients/bn3/batchnorm/mul_1_grad/Mul"
  input: "train/gradients/bn3/batchnorm/mul_1_grad/BroadcastGradientArgs"
  attr {
    key: "T"
    value {
      type: DT_FLOAT
    }
  }
  attr {
    key: "Tidx"
    value {
      type: DT_INT32
    }
  }
  attr {
    key: "keep_dims"
    value {
      b: false
    }
  }
}
node {
  name: "train/gradients/bn3/batchnorm/mul_1_grad/Reshape"
  op: "Reshape"
  input: "train/gradients/bn3/batchnorm/mul_1_grad/Sum"
  input: "train/gradients/bn3/batchnorm/mul_1_grad/Shape"
  attr {
    key: "T"
    value {
      type: DT_FLOAT
    }
  }
  attr {
    key: "Tshape"
    value {
      type: DT_INT32
    }
  }
}
node {
  name: "train/gradients/bn3/batchnorm/mul_1_grad/Mul_1"
  op: "Mul"
  input: "add_4"
  input: "train/gradients/bn3/batchnorm/add_1_grad/tuple/control_dependency"
  attr {
    key: "T"
    value {
      type: DT_FLOAT
    }
  }
}
node {
  name: "train/gradients/bn3/batchnorm/mul_1_grad/Sum_1"
  op: "Sum"
  input: "train/gradients/bn3/batchnorm/mul_1_grad/Mul_1"
  input: "train/gradients/bn3/batchnorm/mul_1_grad/BroadcastGradientArgs:1"
  attr {
    key: "T"
    value {
      type: DT_FLOAT
    }
  }
  attr {
    key: "Tidx"
    value {
      type: DT_INT32
    }
  }
  attr {
    key: "keep_dims"
    value {
      b: false
    }
  }
}
node {
  name: "train/gradients/bn3/batchnorm/mul_1_grad/Reshape_1"
  op: "Reshape"
  input: "train/gradients/bn3/batchnorm/mul_1_grad/Sum_1"
  input: "train/gradients/bn3/batchnorm/mul_1_grad/Shape_1"
  attr {
    key: "T"
    value {
      type: DT_FLOAT
    }
  }
  attr {
    key: "Tshape"
    value {
      type: DT_INT32
    }
  }
}
node {
  name: "train/gradients/bn3/batchnorm/mul_1_grad/tuple/group_deps"
  op: "NoOp"
  input: "^bn1/AssignMovingAvg"
  input: "^bn1/AssignMovingAvg_1"
  input: "^bn2/AssignMovingAvg"
  input: "^bn2/AssignMovingAvg_1"
  input: "^bn3/AssignMovingAvg"
  input: "^bn3/AssignMovingAvg_1"
  input: "^train/gradients/bn3/batchnorm/mul_1_grad/Reshape"
  input: "^train/gradients/bn3/batchnorm/mul_1_grad/Reshape_1"
}
node {
  name: "train/gradients/bn3/batchnorm/mul_1_grad/tuple/control_dependency"
  op: "Identity"
  input: "train/gradients/bn3/batchnorm/mul_1_grad/Reshape"
  input: "^train/gradients/bn3/batchnorm/mul_1_grad/tuple/group_deps"
  attr {
    key: "T"
    value {
      type: DT_FLOAT
    }
  }
  attr {
    key: "_class"
    value {
      list {
        s: "loc:@train/gradients/bn3/batchnorm/mul_1_grad/Reshape"
      }
    }
  }
}
node {
  name: "train/gradients/bn3/batchnorm/mul_1_grad/tuple/control_dependency_1"
  op: "Identity"
  input: "train/gradients/bn3/batchnorm/mul_1_grad/Reshape_1"
  input: "^train/gradients/bn3/batchnorm/mul_1_grad/tuple/group_deps"
  attr {
    key: "T"
    value {
      type: DT_FLOAT
    }
  }
  attr {
    key: "_class"
    value {
      list {
        s: "loc:@train/gradients/bn3/batchnorm/mul_1_grad/Reshape_1"
      }
    }
  }
}
node {
  name: "train/gradients/bn3/batchnorm/sub_grad/Neg"
  op: "Neg"
  input: "train/gradients/bn3/batchnorm/add_1_grad/tuple/control_dependency_1"
  attr {
    key: "T"
    value {
      type: DT_FLOAT
    }
  }
}
node {
  name: "train/gradients/bn3/batchnorm/sub_grad/tuple/group_deps"
  op: "NoOp"
  input: "^bn1/AssignMovingAvg"
  input: "^bn1/AssignMovingAvg_1"
  input: "^bn2/AssignMovingAvg"
  input: "^bn2/AssignMovingAvg_1"
  input: "^bn3/AssignMovingAvg"
  input: "^bn3/AssignMovingAvg_1"
  input: "^train/gradients/bn3/batchnorm/add_1_grad/tuple/control_dependency_1"
  input: "^train/gradients/bn3/batchnorm/sub_grad/Neg"
}
node {
  name: "train/gradients/bn3/batchnorm/sub_grad/tuple/control_dependency"
  op: "Identity"
  input: "train/gradients/bn3/batchnorm/add_1_grad/tuple/control_dependency_1"
  input: "^train/gradients/bn3/batchnorm/sub_grad/tuple/group_deps"
  attr {
    key: "T"
    value {
      type: DT_FLOAT
    }
  }
  attr {
    key: "_class"
    value {
      list {
        s: "loc:@train/gradients/bn3/batchnorm/add_1_grad/Reshape_1"
      }
    }
  }
}
node {
  name: "train/gradients/bn3/batchnorm/sub_grad/tuple/control_dependency_1"
  op: "Identity"
  input: "train/gradients/bn3/batchnorm/sub_grad/Neg"
  input: "^train/gradients/bn3/batchnorm/sub_grad/tuple/group_deps"
  attr {
    key: "T"
    value {
      type: DT_FLOAT
    }
  }
  attr {
    key: "_class"
    value {
      list {
        s: "loc:@train/gradients/bn3/batchnorm/sub_grad/Neg"
      }
    }
  }
}
node {
  name: "train/gradients/bn3/batchnorm/mul_2_grad/Mul"
  op: "Mul"
  input: "train/gradients/bn3/batchnorm/sub_grad/tuple/control_dependency_1"
  input: "bn3/batchnorm/mul"
  attr {
    key: "T"
    value {
      type: DT_FLOAT
    }
  }
}
node {
  name: "train/gradients/bn3/batchnorm/mul_2_grad/Mul_1"
  op: "Mul"
  input: "train/gradients/bn3/batchnorm/sub_grad/tuple/control_dependency_1"
  input: "bn3/moments/Squeeze"
  attr {
    key: "T"
    value {
      type: DT_FLOAT
    }
  }
}
node {
  name: "train/gradients/bn3/batchnorm/mul_2_grad/tuple/group_deps"
  op: "NoOp"
  input: "^bn1/AssignMovingAvg"
  input: "^bn1/AssignMovingAvg_1"
  input: "^bn2/AssignMovingAvg"
  input: "^bn2/AssignMovingAvg_1"
  input: "^bn3/AssignMovingAvg"
  input: "^bn3/AssignMovingAvg_1"
  input: "^train/gradients/bn3/batchnorm/mul_2_grad/Mul"
  input: "^train/gradients/bn3/batchnorm/mul_2_grad/Mul_1"
}
node {
  name: "train/gradients/bn3/batchnorm/mul_2_grad/tuple/control_dependency"
  op: "Identity"
  input: "train/gradients/bn3/batchnorm/mul_2_grad/Mul"
  input: "^train/gradients/bn3/batchnorm/mul_2_grad/tuple/group_deps"
  attr {
    key: "T"
    value {
      type: DT_FLOAT
    }
  }
  attr {
    key: "_class"
    value {
      list {
        s: "loc:@train/gradients/bn3/batchnorm/mul_2_grad/Mul"
      }
    }
  }
}
node {
  name: "train/gradients/bn3/batchnorm/mul_2_grad/tuple/control_dependency_1"
  op: "Identity"
  input: "train/gradients/bn3/batchnorm/mul_2_grad/Mul_1"
  input: "^train/gradients/bn3/batchnorm/mul_2_grad/tuple/group_deps"
  attr {
    key: "T"
    value {
      type: DT_FLOAT
    }
  }
  attr {
    key: "_class"
    value {
      list {
        s: "loc:@train/gradients/bn3/batchnorm/mul_2_grad/Mul_1"
      }
    }
  }
}
node {
  name: "train/gradients/bn3/moments/Squeeze_grad/Shape"
  op: "Const"
  input: "^bn1/AssignMovingAvg"
  input: "^bn1/AssignMovingAvg_1"
  input: "^bn2/AssignMovingAvg"
  input: "^bn2/AssignMovingAvg_1"
  input: "^bn3/AssignMovingAvg"
  input: "^bn3/AssignMovingAvg_1"
  attr {
    key: "dtype"
    value {
      type: DT_INT32
    }
  }
  attr {
    key: "value"
    value {
      tensor {
        dtype: DT_INT32
        tensor_shape {
          dim {
            size: 2
          }
        }
        tensor_content: "\001\000\000\000\200\000\000\000"
      }
    }
  }
}
node {
  name: "train/gradients/bn3/moments/Squeeze_grad/Reshape"
  op: "Reshape"
  input: "train/gradients/bn3/batchnorm/mul_2_grad/tuple/control_dependency"
  input: "train/gradients/bn3/moments/Squeeze_grad/Shape"
  attr {
    key: "T"
    value {
      type: DT_FLOAT
    }
  }
  attr {
    key: "Tshape"
    value {
      type: DT_INT32
    }
  }
}
node {
  name: "train/gradients/AddN"
  op: "AddN"
  input: "train/gradients/bn3/batchnorm/mul_1_grad/tuple/control_dependency_1"
  input: "train/gradients/bn3/batchnorm/mul_2_grad/tuple/control_dependency_1"
  attr {
    key: "N"
    value {
      i: 2
    }
  }
  attr {
    key: "T"
    value {
      type: DT_FLOAT
    }
  }
  attr {
    key: "_class"
    value {
      list {
        s: "loc:@train/gradients/bn3/batchnorm/mul_1_grad/Reshape_1"
      }
    }
  }
}
node {
  name: "train/gradients/bn3/batchnorm/mul_grad/Mul"
  op: "Mul"
  input: "train/gradients/AddN"
  input: "bn3/gamma/read"
  attr {
    key: "T"
    value {
      type: DT_FLOAT
    }
  }
}
node {
  name: "train/gradients/bn3/batchnorm/mul_grad/Mul_1"
  op: "Mul"
  input: "train/gradients/AddN"
  input: "bn3/batchnorm/Rsqrt"
  attr {
    key: "T"
    value {
      type: DT_FLOAT
    }
  }
}
node {
  name: "train/gradients/bn3/batchnorm/mul_grad/tuple/group_deps"
  op: "NoOp"
  input: "^bn1/AssignMovingAvg"
  input: "^bn1/AssignMovingAvg_1"
  input: "^bn2/AssignMovingAvg"
  input: "^bn2/AssignMovingAvg_1"
  input: "^bn3/AssignMovingAvg"
  input: "^bn3/AssignMovingAvg_1"
  input: "^train/gradients/bn3/batchnorm/mul_grad/Mul"
  input: "^train/gradients/bn3/batchnorm/mul_grad/Mul_1"
}
node {
  name: "train/gradients/bn3/batchnorm/mul_grad/tuple/control_dependency"
  op: "Identity"
  input: "train/gradients/bn3/batchnorm/mul_grad/Mul"
  input: "^train/gradients/bn3/batchnorm/mul_grad/tuple/group_deps"
  attr {
    key: "T"
    value {
      type: DT_FLOAT
    }
  }
  attr {
    key: "_class"
    value {
      list {
        s: "loc:@train/gradients/bn3/batchnorm/mul_grad/Mul"
      }
    }
  }
}
node {
  name: "train/gradients/bn3/batchnorm/mul_grad/tuple/control_dependency_1"
  op: "Identity"
  input: "train/gradients/bn3/batchnorm/mul_grad/Mul_1"
  input: "^train/gradients/bn3/batchnorm/mul_grad/tuple/group_deps"
  attr {
    key: "T"
    value {
      type: DT_FLOAT
    }
  }
  attr {
    key: "_class"
    value {
      list {
        s: "loc:@train/gradients/bn3/batchnorm/mul_grad/Mul_1"
      }
    }
  }
}
node {
  name: "train/gradients/bn3/batchnorm/Rsqrt_grad/RsqrtGrad"
  op: "RsqrtGrad"
  input: "bn3/batchnorm/Rsqrt"
  input: "train/gradients/bn3/batchnorm/mul_grad/tuple/control_dependency"
  attr {
    key: "T"
    value {
      type: DT_FLOAT
    }
  }
}
node {
  name: "train/gradients/bn3/batchnorm/add_grad/Shape"
  op: "Const"
  input: "^bn1/AssignMovingAvg"
  input: "^bn1/AssignMovingAvg_1"
  input: "^bn2/AssignMovingAvg"
  input: "^bn2/AssignMovingAvg_1"
  input: "^bn3/AssignMovingAvg"
  input: "^bn3/AssignMovingAvg_1"
  attr {
    key: "dtype"
    value {
      type: DT_INT32
    }
  }
  attr {
    key: "value"
    value {
      tensor {
        dtype: DT_INT32
        tensor_shape {
          dim {
            size: 1
          }
        }
        int_val: 128
      }
    }
  }
}
node {
  name: "train/gradients/bn3/batchnorm/add_grad/Shape_1"
  op: "Const"
  input: "^bn1/AssignMovingAvg"
  input: "^bn1/AssignMovingAvg_1"
  input: "^bn2/AssignMovingAvg"
  input: "^bn2/AssignMovingAvg_1"
  input: "^bn3/AssignMovingAvg"
  input: "^bn3/AssignMovingAvg_1"
  attr {
    key: "dtype"
    value {
      type: DT_INT32
    }
  }
  attr {
    key: "value"
    value {
      tensor {
        dtype: DT_INT32
        tensor_shape {
          dim {
          }
        }
      }
    }
  }
}
node {
  name: "train/gradients/bn3/batchnorm/add_grad/BroadcastGradientArgs"
  op: "BroadcastGradientArgs"
  input: "train/gradients/bn3/batchnorm/add_grad/Shape"
  input: "train/gradients/bn3/batchnorm/add_grad/Shape_1"
  attr {
    key: "T"
    value {
      type: DT_INT32
    }
  }
}
node {
  name: "train/gradients/bn3/batchnorm/add_grad/Sum"
  op: "Sum"
  input: "train/gradients/bn3/batchnorm/Rsqrt_grad/RsqrtGrad"
  input: "train/gradients/bn3/batchnorm/add_grad/BroadcastGradientArgs"
  attr {
    key: "T"
    value {
      type: DT_FLOAT
    }
  }
  attr {
    key: "Tidx"
    value {
      type: DT_INT32
    }
  }
  attr {
    key: "keep_dims"
    value {
      b: false
    }
  }
}
node {
  name: "train/gradients/bn3/batchnorm/add_grad/Reshape"
  op: "Reshape"
  input: "train/gradients/bn3/batchnorm/add_grad/Sum"
  input: "train/gradients/bn3/batchnorm/add_grad/Shape"
  attr {
    key: "T"
    value {
      type: DT_FLOAT
    }
  }
  attr {
    key: "Tshape"
    value {
      type: DT_INT32
    }
  }
}
node {
  name: "train/gradients/bn3/batchnorm/add_grad/Sum_1"
  op: "Sum"
  input: "train/gradients/bn3/batchnorm/Rsqrt_grad/RsqrtGrad"
  input: "train/gradients/bn3/batchnorm/add_grad/BroadcastGradientArgs:1"
  attr {
    key: "T"
    value {
      type: DT_FLOAT
    }
  }
  attr {
    key: "Tidx"
    value {
      type: DT_INT32
    }
  }
  attr {
    key: "keep_dims"
    value {
      b: false
    }
  }
}
node {
  name: "train/gradients/bn3/batchnorm/add_grad/Reshape_1"
  op: "Reshape"
  input: "train/gradients/bn3/batchnorm/add_grad/Sum_1"
  input: "train/gradients/bn3/batchnorm/add_grad/Shape_1"
  attr {
    key: "T"
    value {
      type: DT_FLOAT
    }
  }
  attr {
    key: "Tshape"
    value {
      type: DT_INT32
    }
  }
}
node {
  name: "train/gradients/bn3/batchnorm/add_grad/tuple/group_deps"
  op: "NoOp"
  input: "^bn1/AssignMovingAvg"
  input: "^bn1/AssignMovingAvg_1"
  input: "^bn2/AssignMovingAvg"
  input: "^bn2/AssignMovingAvg_1"
  input: "^bn3/AssignMovingAvg"
  input: "^bn3/AssignMovingAvg_1"
  input: "^train/gradients/bn3/batchnorm/add_grad/Reshape"
  input: "^train/gradients/bn3/batchnorm/add_grad/Reshape_1"
}
node {
  name: "train/gradients/bn3/batchnorm/add_grad/tuple/control_dependency"
  op: "Identity"
  input: "train/gradients/bn3/batchnorm/add_grad/Reshape"
  input: "^train/gradients/bn3/batchnorm/add_grad/tuple/group_deps"
  attr {
    key: "T"
    value {
      type: DT_FLOAT
    }
  }
  attr {
    key: "_class"
    value {
      list {
        s: "loc:@train/gradients/bn3/batchnorm/add_grad/Reshape"
      }
    }
  }
}
node {
  name: "train/gradients/bn3/batchnorm/add_grad/tuple/control_dependency_1"
  op: "Identity"
  input: "train/gradients/bn3/batchnorm/add_grad/Reshape_1"
  input: "^train/gradients/bn3/batchnorm/add_grad/tuple/group_deps"
  attr {
    key: "T"
    value {
      type: DT_FLOAT
    }
  }
  attr {
    key: "_class"
    value {
      list {
        s: "loc:@train/gradients/bn3/batchnorm/add_grad/Reshape_1"
      }
    }
  }
}
node {
  name: "train/gradients/bn3/moments/Squeeze_1_grad/Shape"
  op: "Const"
  input: "^bn1/AssignMovingAvg"
  input: "^bn1/AssignMovingAvg_1"
  input: "^bn2/AssignMovingAvg"
  input: "^bn2/AssignMovingAvg_1"
  input: "^bn3/AssignMovingAvg"
  input: "^bn3/AssignMovingAvg_1"
  attr {
    key: "dtype"
    value {
      type: DT_INT32
    }
  }
  attr {
    key: "value"
    value {
      tensor {
        dtype: DT_INT32
        tensor_shape {
          dim {
            size: 2
          }
        }
        tensor_content: "\001\000\000\000\200\000\000\000"
      }
    }
  }
}
node {
  name: "train/gradients/bn3/moments/Squeeze_1_grad/Reshape"
  op: "Reshape"
  input: "train/gradients/bn3/batchnorm/add_grad/tuple/control_dependency"
  input: "train/gradients/bn3/moments/Squeeze_1_grad/Shape"
  attr {
    key: "T"
    value {
      type: DT_FLOAT
    }
  }
  attr {
    key: "Tshape"
    value {
      type: DT_INT32
    }
  }
}
node {
  name: "train/gradients/bn3/moments/variance_grad/Shape"
  op: "Shape"
  input: "bn3/moments/SquaredDifference"
  input: "^bn1/AssignMovingAvg"
  input: "^bn1/AssignMovingAvg_1"
  input: "^bn2/AssignMovingAvg"
  input: "^bn2/AssignMovingAvg_1"
  input: "^bn3/AssignMovingAvg"
  input: "^bn3/AssignMovingAvg_1"
  attr {
    key: "T"
    value {
      type: DT_FLOAT
    }
  }
  attr {
    key: "out_type"
    value {
      type: DT_INT32
    }
  }
}
node {
  name: "train/gradients/bn3/moments/variance_grad/Size"
  op: "Const"
  input: "^bn1/AssignMovingAvg"
  input: "^bn1/AssignMovingAvg_1"
  input: "^bn2/AssignMovingAvg"
  input: "^bn2/AssignMovingAvg_1"
  input: "^bn3/AssignMovingAvg"
  input: "^bn3/AssignMovingAvg_1"
  attr {
    key: "_class"
    value {
      list {
        s: "loc:@train/gradients/bn3/moments/variance_grad/Shape"
      }
    }
  }
  attr {
    key: "dtype"
    value {
      type: DT_INT32
    }
  }
  attr {
    key: "value"
    value {
      tensor {
        dtype: DT_INT32
        tensor_shape {
        }
        int_val: 2
      }
    }
  }
}
node {
  name: "train/gradients/bn3/moments/variance_grad/add"
  op: "Add"
  input: "bn3/moments/variance/reduction_indices"
  input: "train/gradients/bn3/moments/variance_grad/Size"
  attr {
    key: "T"
    value {
      type: DT_INT32
    }
  }
  attr {
    key: "_class"
    value {
      list {
        s: "loc:@train/gradients/bn3/moments/variance_grad/Shape"
      }
    }
  }
}
node {
  name: "train/gradients/bn3/moments/variance_grad/mod"
  op: "FloorMod"
  input: "train/gradients/bn3/moments/variance_grad/add"
  input: "train/gradients/bn3/moments/variance_grad/Size"
  attr {
    key: "T"
    value {
      type: DT_INT32
    }
  }
  attr {
    key: "_class"
    value {
      list {
        s: "loc:@train/gradients/bn3/moments/variance_grad/Shape"
      }
    }
  }
}
node {
  name: "train/gradients/bn3/moments/variance_grad/Shape_1"
  op: "Const"
  input: "^bn1/AssignMovingAvg"
  input: "^bn1/AssignMovingAvg_1"
  input: "^bn2/AssignMovingAvg"
  input: "^bn2/AssignMovingAvg_1"
  input: "^bn3/AssignMovingAvg"
  input: "^bn3/AssignMovingAvg_1"
  attr {
    key: "_class"
    value {
      list {
        s: "loc:@train/gradients/bn3/moments/variance_grad/Shape"
      }
    }
  }
  attr {
    key: "dtype"
    value {
      type: DT_INT32
    }
  }
  attr {
    key: "value"
    value {
      tensor {
        dtype: DT_INT32
        tensor_shape {
          dim {
            size: 1
          }
        }
        int_val: 1
      }
    }
  }
}
node {
  name: "train/gradients/bn3/moments/variance_grad/range/start"
  op: "Const"
  input: "^bn1/AssignMovingAvg"
  input: "^bn1/AssignMovingAvg_1"
  input: "^bn2/AssignMovingAvg"
  input: "^bn2/AssignMovingAvg_1"
  input: "^bn3/AssignMovingAvg"
  input: "^bn3/AssignMovingAvg_1"
  attr {
    key: "_class"
    value {
      list {
        s: "loc:@train/gradients/bn3/moments/variance_grad/Shape"
      }
    }
  }
  attr {
    key: "dtype"
    value {
      type: DT_INT32
    }
  }
  attr {
    key: "value"
    value {
      tensor {
        dtype: DT_INT32
        tensor_shape {
        }
        int_val: 0
      }
    }
  }
}
node {
  name: "train/gradients/bn3/moments/variance_grad/range/delta"
  op: "Const"
  input: "^bn1/AssignMovingAvg"
  input: "^bn1/AssignMovingAvg_1"
  input: "^bn2/AssignMovingAvg"
  input: "^bn2/AssignMovingAvg_1"
  input: "^bn3/AssignMovingAvg"
  input: "^bn3/AssignMovingAvg_1"
  attr {
    key: "_class"
    value {
      list {
        s: "loc:@train/gradients/bn3/moments/variance_grad/Shape"
      }
    }
  }
  attr {
    key: "dtype"
    value {
      type: DT_INT32
    }
  }
  attr {
    key: "value"
    value {
      tensor {
        dtype: DT_INT32
        tensor_shape {
        }
        int_val: 1
      }
    }
  }
}
node {
  name: "train/gradients/bn3/moments/variance_grad/range"
  op: "Range"
  input: "train/gradients/bn3/moments/variance_grad/range/start"
  input: "train/gradients/bn3/moments/variance_grad/Size"
  input: "train/gradients/bn3/moments/variance_grad/range/delta"
  attr {
    key: "Tidx"
    value {
      type: DT_INT32
    }
  }
  attr {
    key: "_class"
    value {
      list {
        s: "loc:@train/gradients/bn3/moments/variance_grad/Shape"
      }
    }
  }
}
node {
  name: "train/gradients/bn3/moments/variance_grad/Fill/value"
  op: "Const"
  input: "^bn1/AssignMovingAvg"
  input: "^bn1/AssignMovingAvg_1"
  input: "^bn2/AssignMovingAvg"
  input: "^bn2/AssignMovingAvg_1"
  input: "^bn3/AssignMovingAvg"
  input: "^bn3/AssignMovingAvg_1"
  attr {
    key: "_class"
    value {
      list {
        s: "loc:@train/gradients/bn3/moments/variance_grad/Shape"
      }
    }
  }
  attr {
    key: "dtype"
    value {
      type: DT_INT32
    }
  }
  attr {
    key: "value"
    value {
      tensor {
        dtype: DT_INT32
        tensor_shape {
        }
        int_val: 1
      }
    }
  }
}
node {
  name: "train/gradients/bn3/moments/variance_grad/Fill"
  op: "Fill"
  input: "train/gradients/bn3/moments/variance_grad/Shape_1"
  input: "train/gradients/bn3/moments/variance_grad/Fill/value"
  attr {
    key: "T"
    value {
      type: DT_INT32
    }
  }
  attr {
    key: "_class"
    value {
      list {
        s: "loc:@train/gradients/bn3/moments/variance_grad/Shape"
      }
    }
  }
  attr {
    key: "index_type"
    value {
      type: DT_INT32
    }
  }
}
node {
  name: "train/gradients/bn3/moments/variance_grad/DynamicStitch"
  op: "DynamicStitch"
  input: "train/gradients/bn3/moments/variance_grad/range"
  input: "train/gradients/bn3/moments/variance_grad/mod"
  input: "train/gradients/bn3/moments/variance_grad/Shape"
  input: "train/gradients/bn3/moments/variance_grad/Fill"
  attr {
    key: "N"
    value {
      i: 2
    }
  }
  attr {
    key: "T"
    value {
      type: DT_INT32
    }
  }
  attr {
    key: "_class"
    value {
      list {
        s: "loc:@train/gradients/bn3/moments/variance_grad/Shape"
      }
    }
  }
}
node {
  name: "train/gradients/bn3/moments/variance_grad/Maximum/y"
  op: "Const"
  input: "^bn1/AssignMovingAvg"
  input: "^bn1/AssignMovingAvg_1"
  input: "^bn2/AssignMovingAvg"
  input: "^bn2/AssignMovingAvg_1"
  input: "^bn3/AssignMovingAvg"
  input: "^bn3/AssignMovingAvg_1"
  attr {
    key: "_class"
    value {
      list {
        s: "loc:@train/gradients/bn3/moments/variance_grad/Shape"
      }
    }
  }
  attr {
    key: "dtype"
    value {
      type: DT_INT32
    }
  }
  attr {
    key: "value"
    value {
      tensor {
        dtype: DT_INT32
        tensor_shape {
        }
        int_val: 1
      }
    }
  }
}
node {
  name: "train/gradients/bn3/moments/variance_grad/Maximum"
  op: "Maximum"
  input: "train/gradients/bn3/moments/variance_grad/DynamicStitch"
  input: "train/gradients/bn3/moments/variance_grad/Maximum/y"
  attr {
    key: "T"
    value {
      type: DT_INT32
    }
  }
  attr {
    key: "_class"
    value {
      list {
        s: "loc:@train/gradients/bn3/moments/variance_grad/Shape"
      }
    }
  }
}
node {
  name: "train/gradients/bn3/moments/variance_grad/floordiv"
  op: "FloorDiv"
  input: "train/gradients/bn3/moments/variance_grad/Shape"
  input: "train/gradients/bn3/moments/variance_grad/Maximum"
  attr {
    key: "T"
    value {
      type: DT_INT32
    }
  }
  attr {
    key: "_class"
    value {
      list {
        s: "loc:@train/gradients/bn3/moments/variance_grad/Shape"
      }
    }
  }
}
node {
  name: "train/gradients/bn3/moments/variance_grad/Reshape"
  op: "Reshape"
  input: "train/gradients/bn3/moments/Squeeze_1_grad/Reshape"
  input: "train/gradients/bn3/moments/variance_grad/DynamicStitch"
  attr {
    key: "T"
    value {
      type: DT_FLOAT
    }
  }
  attr {
    key: "Tshape"
    value {
      type: DT_INT32
    }
  }
}
node {
  name: "train/gradients/bn3/moments/variance_grad/Tile"
  op: "Tile"
  input: "train/gradients/bn3/moments/variance_grad/Reshape"
  input: "train/gradients/bn3/moments/variance_grad/floordiv"
  attr {
    key: "T"
    value {
      type: DT_FLOAT
    }
  }
  attr {
    key: "Tmultiples"
    value {
      type: DT_INT32
    }
  }
}
node {
  name: "train/gradients/bn3/moments/variance_grad/Shape_2"
  op: "Shape"
  input: "bn3/moments/SquaredDifference"
  input: "^bn1/AssignMovingAvg"
  input: "^bn1/AssignMovingAvg_1"
  input: "^bn2/AssignMovingAvg"
  input: "^bn2/AssignMovingAvg_1"
…
    }
  }
  attr {
    key: "T"
    value {
      type: DT_BOOL
    }
  }
}
node {
  name: "confusion_matrix/control_dependency_3"
  op: "Identity"
  input: "confusion_matrix/control_dependency_1"
  input: "^confusion_matrix/assert_less_1/Assert/AssertGuard/Merge"
  attr {
    key: "T"
    value {
      type: DT_INT64
    }
  }
  attr {
    key: "_class"
    value {
      list {
        s: "loc:@ArgMax"
      }
    }
  }
}
node {
  name: "confusion_matrix/stack"
  op: "Const"
  attr {
    key: "dtype"
    value {
      type: DT_INT32
    }
  }
  attr {
    key: "value"
    value {
      tensor {
        dtype: DT_INT32
        tensor_shape {
          dim {
            size: 2
          }
        }
        tensor_content: "\016\000\000\000\016\000\000\000"
      }
    }
  }
}
node {
  name: "confusion_matrix/stack_1"
  op: "Pack"
  input: "confusion_matrix/control_dependency_2"
  input: "confusion_matrix/control_dependency_3"
  attr {
    key: "N"
    value {
      i: 2
    }
  }
  attr {
    key: "T"
    value {
      type: DT_INT64
    }
  }
  attr {
    key: "axis"
    value {
      i: 1
    }
  }
}
node {
  name: "confusion_matrix/ones_like/Shape"
  op: "Shape"
  input: "confusion_matrix/control_dependency_3"
  attr {
    key: "T"
    value {
      type: DT_INT64
    }
  }
  attr {
    key: "out_type"
    value {
      type: DT_INT32
    }
  }
}
node {
  name: "confusion_matrix/ones_like/Const"
  op: "Const"
  attr {
    key: "dtype"
    value {
      type: DT_INT32
    }
  }
  attr {
    key: "value"
    value {
      tensor {
        dtype: DT_INT32
        tensor_shape {
        }
        int_val: 1
      }
    }
  }
}
node {
  name: "confusion_matrix/ones_like"
  op: "Fill"
  input: "confusion_matrix/ones_like/Shape"
  input: "confusion_matrix/ones_like/Const"
  attr {
    key: "T"
    value {
      type: DT_INT32
    }
  }
  attr {
    key: "index_type"
    value {
      type: DT_INT32
    }
  }
}
node {
  name: "confusion_matrix/ToInt64"
  op: "Cast"
  input: "confusion_matrix/stack"
  attr {
    key: "DstT"
    value {
      type: DT_INT64
    }
  }
  attr {
    key: "SrcT"
    value {
      type: DT_INT32
    }
  }
}
node {
  name: "confusion_matrix/zeros/Const"
  op: "Const"
  attr {
    key: "dtype"
    value {
      type: DT_INT32
    }
  }
  attr {
    key: "value"
    value {
      tensor {
        dtype: DT_INT32
        tensor_shape {
        }
        int_val: 0
      }
    }
  }
}
node {
  name: "confusion_matrix/zeros"
  op: "Fill"
  input: "confusion_matrix/stack"
  input: "confusion_matrix/zeros/Const"
  attr {
    key: "T"
    value {
      type: DT_INT32
    }
  }
  attr {
    key: "index_type"
    value {
      type: DT_INT32
    }
  }
}
node {
  name: "confusion_matrix/SparseTensorDenseAdd"
  op: "SparseTensorDenseAdd"
  input: "confusion_matrix/stack_1"
  input: "confusion_matrix/ones_like"
  input: "confusion_matrix/ToInt64"
  input: "confusion_matrix/zeros"
  attr {
    key: "T"
    value {
      type: DT_INT32
    }
  }
  attr {
    key: "Tindices"
    value {
      type: DT_INT64
    }
  }
}
node {
  name: "Cast"
  op: "Cast"
  input: "Equal"
  attr {
    key: "DstT"
    value {
      type: DT_FLOAT
    }
  }
  attr {
    key: "SrcT"
    value {
      type: DT_BOOL
    }
  }
}
node {
  name: "Const"
  op: "Const"
  attr {
    key: "dtype"
    value {
      type: DT_INT32
    }
  }
  attr {
    key: "value"
    value {
      tensor {
        dtype: DT_INT32
        tensor_shape {
          dim {
            size: 1
          }
        }
        int_val: 0
      }
    }
  }
}
node {
  name: "Mean"
  op: "Mean"
  input: "Cast"
  input: "Const"
  attr {
    key: "T"
    value {
      type: DT_FLOAT
    }
  }
  attr {
    key: "Tidx"
    value {
      type: DT_INT32
    }
  }
  attr {
    key: "keep_dims"
    value {
      b: false
    }
  }
}
node {
  name: "accuracy/tags"
  op: "Const"
  attr {
    key: "dtype"
    value {
      type: DT_STRING
    }
  }
  attr {
    key: "value"
    value {
      tensor {
        dtype: DT_STRING
        tensor_shape {
        }
        string_val: "accuracy"
      }
    }
  }
}
node {
  name: "accuracy"
  op: "ScalarSummary"
  input: "accuracy/tags"
  input: "Mean"
  attr {
    key: "T"
    value {
      type: DT_FLOAT
    }
  }
}
node {
  name: "add_6/y"
  op: "Const"
  attr {
    key: "dtype"
    value {
      type: DT_INT64
    }
  }
  attr {
    key: "value"
    value {
      tensor {
        dtype: DT_INT64
        tensor_shape {
        }
        int64_val: 1
      }
    }
  }
}
node {
  name: "add_6"
  op: "Add"
  input: "global_step/read"
  input: "add_6/y"
  attr {
    key: "T"
    value {
      type: DT_INT64
    }
  }
}
node {
  name: "Assign"
  op: "Assign"
  input: "global_step"
  input: "add_6"
  attr {
    key: "T"
    value {
      type: DT_INT64
    }
  }
  attr {
    key: "_class"
    value {
      list {
        s: "loc:@global_step"
      }
    }
  }
  attr {
    key: "use_locking"
    value {
      b: true
    }
  }
  attr {
    key: "validate_shape"
    value {
      b: true
    }
  }
}
node {
  name: "save/Const"
  op: "Const"
  attr {
    key: "dtype"
    value {
      type: DT_STRING
    }
  }
  attr {
    key: "value"
    value {
      tensor {
        dtype: DT_STRING
        tensor_shape {
        }
        string_val: "model"
      }
    }
  }
}
node {
  name: "save/SaveV2/tensor_names"
  op: "Const"
  attr {
    key: "dtype"
    value {
      type: DT_STRING
    }
  }
  attr {
    key: "value"
    value {
      tensor {
        dtype: DT_STRING
        tensor_shape {
          dim {
            size: 57
          }
        }
        string_val: "Variable"
        string_val: "Variable/Adam"
        string_val: "Variable/Adam_1"
        string_val: "Variable_1"
        string_val: "Variable_1/Adam"
        string_val: "Variable_1/Adam_1"
        string_val: "Variable_2"
        string_val: "Variable_2/Adam"
        string_val: "Variable_2/Adam_1"
        string_val: "Variable_3"
        string_val: "Variable_3/Adam"
        string_val: "Variable_3/Adam_1"
        string_val: "Variable_4"
        string_val: "Variable_4/Adam"
        string_val: "Variable_4/Adam_1"
        string_val: "Variable_5"
        string_val: "Variable_5/Adam"
        string_val: "Variable_5/Adam_1"
        string_val: "Variable_6"
        string_val: "Variable_6/Adam"
        string_val: "Variable_6/Adam_1"
        string_val: "Variable_7"
        string_val: "Variable_7/Adam"
        string_val: "Variable_7/Adam_1"
        string_val: "W"
        string_val: "W/Adam"
        string_val: "W/Adam_1"
        string_val: "b"
        string_val: "b/Adam"
        string_val: "b/Adam_1"
        string_val: "bn1/beta"
        string_val: "bn1/beta/Adam"
        string_val: "bn1/beta/Adam_1"
        string_val: "bn1/gamma"
        string_val: "bn1/gamma/Adam"
        string_val: "bn1/gamma/Adam_1"
        string_val: "bn1/moving_mean"
        string_val: "bn1/moving_variance"
        string_val: "bn2/beta"
        string_val: "bn2/beta/Adam"
        string_val: "bn2/beta/Adam_1"
        string_val: "bn2/gamma"
        string_val: "bn2/gamma/Adam"
        string_val: "bn2/gamma/Adam_1"
        string_val: "bn2/moving_mean"
        string_val: "bn2/moving_variance"
        string_val: "bn3/beta"
        string_val: "bn3/beta/Adam"
        string_val: "bn3/beta/Adam_1"
        string_val: "bn3/gamma"
        string_val: "bn3/gamma/Adam"
        string_val: "bn3/gamma/Adam_1"
        string_val: "bn3/moving_mean"
        string_val: "bn3/moving_variance"
        string_val: "global_step"
        string_val: "train/beta1_power"
        string_val: "train/beta2_power"
      }
    }
  }
}
node {
  name: "save/SaveV2/shape_and_slices"
  op: "Const"
  attr {
    key: "dtype"
    value {
      type: DT_STRING
    }
  }
  attr {
    key: "value"
    value {
      tensor {
        dtype: DT_STRING
        tensor_shape {
          dim {
            size: 57
          }
        }
        string_val: ""
        string_val: ""
        string_val: ""
        string_val: ""
        string_val: ""
        string_val: ""
        string_val: ""
        string_val: ""
        string_val: ""
        string_val: ""
        string_val: ""
        string_val: ""
        string_val: ""
        string_val: ""
        string_val: ""
        string_val: ""
        string_val: ""
        string_val: ""
        string_val: ""
        string_val: ""
        string_val: ""
        string_val: ""
        string_val: ""
        string_val: ""
        string_val: ""
        string_val: ""
        string_val: ""
        string_val: ""
        string_val: ""
        string_val: ""
        string_val: ""
        string_val: ""
        string_val: ""
        string_val: ""
        string_val: ""
        string_val: ""
        string_val: ""
        string_val: ""
        string_val: ""
        string_val: ""
        string_val: ""
        string_val: ""
        string_val: ""
        string_val: ""
        string_val: ""
        string_val: ""
        string_val: ""
        string_val: ""
        string_val: ""
        string_val: ""
        string_val: ""
        string_val: ""
        string_val: ""
        string_val: ""
        string_val: ""
        string_val: ""
        string_val: ""
      }
    }
  }
}
node {
  name: "save/SaveV2"
  op: "SaveV2"
  input: "save/Const"
  input: "save/SaveV2/tensor_names"
  input: "save/SaveV2/shape_and_slices"
  input: "Variable"
  input: "Variable/Adam"
  input: "Variable/Adam_1"
  input: "Variable_1"
  input: "Variable_1/Adam"
  input: "Variable_1/Adam_1"
  input: "Variable_2"
  input: "Variable_2/Adam"
  input: "Variable_2/Adam_1"
  input: "Variable_3"
  input: "Variable_3/Adam"
  input: "Variable_3/Adam_1"
  input: "Variable_4"
  input: "Variable_4/Adam"
  input: "Variable_4/Adam_1"
  input: "Variable_5"
  input: "Variable_5/Adam"
  input: "Variable_5/Adam_1"
  input: "Variable_6"
  input: "Variable_6/Adam"
  input: "Variable_6/Adam_1"
  input: "Variable_7"
  input: "Variable_7/Adam"
  input: "Variable_7/Adam_1"
  input: "W"
  input: "W/Adam"
  input: "W/Adam_1"
  input: "b"
  input: "b/Adam"
  input: "b/Adam_1"
  input: "bn1/beta"
  input: "bn1/beta/Adam"
  input: "bn1/beta/Adam_1"
  input: "bn1/gamma"
  input: "bn1/gamma/Adam"
  input: "bn1/gamma/Adam_1"
  input: "bn1/moving_mean"
  input: "bn1/moving_variance"
  input: "bn2/beta"
  input: "bn2/beta/Adam"
  input: "bn2/beta/Adam_1"
  input: "bn2/gamma"
  input: "bn2/gamma/Adam"
  input: "bn2/gamma/Adam_1"
  input: "bn2/moving_mean"
  input: "bn2/moving_variance"
  input: "bn3/beta"
  input: "bn3/beta/Adam"
  input: "bn3/beta/Adam_1"
  input: "bn3/gamma"
  input: "bn3/gamma/Adam"
  input: "bn3/gamma/Adam_1"
  input: "bn3/moving_mean"
  input: "bn3/moving_variance"
  input: "global_step"
  input: "train/beta1_power"
  input: "train/beta2_power"
  attr {
    key: "dtypes"
    value {
      list {
        type: DT_FLOAT
        type: DT_FLOAT
        type: DT_FLOAT
        type: DT_FLOAT
        type: DT_FLOAT
        type: DT_FLOAT
        type: DT_FLOAT
        type: DT_FLOAT
        type: DT_FLOAT
        type: DT_FLOAT
        type: DT_FLOAT
        type: DT_FLOAT
        type: DT_FLOAT
        type: DT_FLOAT
        type: DT_FLOAT
        type: DT_FLOAT
        type: DT_FLOAT
        type: DT_FLOAT
        type: DT_FLOAT
        type: DT_FLOAT
        type: DT_FLOAT
        type: DT_FLOAT
        type: DT_FLOAT
        type: DT_FLOAT
        type: DT_FLOAT
        type: DT_FLOAT
        type: DT_FLOAT
        type: DT_FLOAT
        type: DT_FLOAT
        type: DT_FLOAT
        type: DT_FLOAT
        type: DT_FLOAT
        type: DT_FLOAT
        type: DT_FLOAT
        type: DT_FLOAT
        type: DT_FLOAT
        type: DT_FLOAT
        type: DT_FLOAT
        type: DT_FLOAT
        type: DT_FLOAT
        type: DT_FLOAT
        type: DT_FLOAT
        type: DT_FLOAT
        type: DT_FLOAT
        type: DT_FLOAT
        type: DT_FLOAT
        type: DT_FLOAT
        type: DT_FLOAT
        type: DT_FLOAT
        type: DT_FLOAT
        type: DT_FLOAT
        type: DT_FLOAT
        type: DT_FLOAT
        type: DT_FLOAT
        type: DT_INT64
        type: DT_FLOAT
        type: DT_FLOAT
      }
    }
  }
}
node {
  name: "save/control_dependency"
  op: "Identity"
  input: "save/Const"
  input: "^save/SaveV2"
  attr {
    key: "T"
    value {
      type: DT_STRING
    }
  }
  attr {
    key: "_class"
    value {
      list {
        s: "loc:@save/Const"
      }
    }
  }
}
node {
  name: "save/RestoreV2/tensor_names"
  op: "Const"
  device: "/device:CPU:0"
  attr {
    key: "dtype"
    value {
      type: DT_STRING
    }
  }
  attr {
    key: "value"
    value {
      tensor {
        dtype: DT_STRING
        tensor_shape {
          dim {
            size: 57
          }
        }
        string_val: "Variable"
        string_val: "Variable/Adam"
        string_val: "Variable/Adam_1"
        string_val: "Variable_1"
        string_val: "Variable_1/Adam"
        string_val: "Variable_1/Adam_1"
        string_val: "Variable_2"
        string_val: "Variable_2/Adam"
        string_val: "Variable_2/Adam_1"
        string_val: "Variable_3"
        string_val: "Variable_3/Adam"
        string_val: "Variable_3/Adam_1"
        string_val: "Variable_4"
        string_val: "Variable_4/Adam"
        string_val: "Variable_4/Adam_1"
        string_val: "Variable_5"
        string_val: "Variable_5/Adam"
        string_val: "Variable_5/Adam_1"
        string_val: "Variable_6"
        string_val: "Variable_6/Adam"
        string_val: "Variable_6/Adam_1"
        string_val: "Variable_7"
        string_val: "Variable_7/Adam"
        string_val: "Variable_7/Adam_1"
        string_val: "W"
        string_val: "W/Adam"
        string_val: "W/Adam_1"
        string_val: "b"
        string_val: "b/Adam"
        string_val: "b/Adam_1"
        string_val: "bn1/beta"
        string_val: "bn1/beta/Adam"
        string_val: "bn1/beta/Adam_1"
        string_val: "bn1/gamma"
        string_val: "bn1/gamma/Adam"
        string_val: "bn1/gamma/Adam_1"
        string_val: "bn1/moving_mean"
        string_val: "bn1/moving_variance"
        string_val: "bn2/beta"
        string_val: "bn2/beta/Adam"
        string_val: "bn2/beta/Adam_1"
        string_val: "bn2/gamma"
        string_val: "bn2/gamma/Adam"
        string_val: "bn2/gamma/Adam_1"
        string_val: "bn2/moving_mean"
        string_val: "bn2/moving_variance"
        string_val: "bn3/beta"
        string_val: "bn3/beta/Adam"
        string_val: "bn3/beta/Adam_1"
        string_val: "bn3/gamma"
        string_val: "bn3/gamma/Adam"
        string_val: "bn3/gamma/Adam_1"
        string_val: "bn3/moving_mean"
        string_val: "bn3/moving_variance"
        string_val: "global_step"
        string_val: "train/beta1_power"
        string_val: "train/beta2_power"
      }
    }
  }
}
node {
  name: "save/RestoreV2/shape_and_slices"
  op: "Const"
  device: "/device:CPU:0"
  attr {
    key: "dtype"
    value {
      type: DT_STRING
    }
  }
  attr {
    key: "value"
    value {
      tensor {
        dtype: DT_STRING
        tensor_shape {
          dim {
            size: 57
          }
        }
        string_val: ""
        string_val: ""
        string_val: ""
        string_val: ""
        string_val: ""
        string_val: ""
        string_val: ""
        string_val: ""
        string_val: ""
        string_val: ""
        string_val: ""
        string_val: ""
        string_val: ""
        string_val: ""
        string_val: ""
        string_val: ""
        string_val: ""
        string_val: ""
        string_val: ""
        string_val: ""
        string_val: ""
        string_val: ""
        string_val: ""
        string_val: ""
        string_val: ""
        string_val: ""
        string_val: ""
        string_val: ""
        string_val: ""
        string_val: ""
        string_val: ""
        string_val: ""
        string_val: ""
        string_val: ""
        string_val: ""
        string_val: ""
        string_val: ""
        string_val: ""
        string_val: ""
        string_val: ""
        string_val: ""
        string_val: ""
        string_val: ""
        string_val: ""
        string_val: ""
        string_val: ""
        string_val: ""
        string_val: ""
        string_val: ""
        string_val: ""
        string_val: ""
        string_val: ""
        string_val: ""
        string_val: ""
        string_val: ""
        string_val: ""
        string_val: ""
      }
    }
  }
}
node {
  name: "save/RestoreV2"
  op: "RestoreV2"
  input: "save/Const"
  input: "save/RestoreV2/tensor_names"
  input: "save/RestoreV2/shape_and_slices"
  device: "/device:CPU:0"
  attr {
    key: "dtypes"
    value {
      list {
        type: DT_FLOAT
        type: DT_FLOAT
        type: DT_FLOAT
        type: DT_FLOAT
        type: DT_FLOAT
        type: DT_FLOAT
        type: DT_FLOAT
        type: DT_FLOAT
        type: DT_FLOAT
        type: DT_FLOAT
        type: DT_FLOAT
        type: DT_FLOAT
        type: DT_FLOAT
        type: DT_FLOAT
        type: DT_FLOAT
        type: DT_FLOAT
        type: DT_FLOAT
        type: DT_FLOAT
        type: DT_FLOAT
        type: DT_FLOAT
        type: DT_FLOAT
        type: DT_FLOAT
        type: DT_FLOAT
        type: DT_FLOAT
        type: DT_FLOAT
        type: DT_FLOAT
        type: DT_FLOAT
        type: DT_FLOAT
        type: DT_FLOAT
        type: DT_FLOAT
        type: DT_FLOAT
        type: DT_FLOAT
        type: DT_FLOAT
        type: DT_FLOAT
        type: DT_FLOAT
        type: DT_FLOAT
        type: DT_FLOAT
        type: DT_FLOAT
        type: DT_FLOAT
        type: DT_FLOAT
        type: DT_FLOAT
        type: DT_FLOAT
        type: DT_FLOAT
        type: DT_FLOAT
        type: DT_FLOAT
        type: DT_FLOAT
        type: DT_FLOAT
        type: DT_FLOAT
        type: DT_FLOAT
        type: DT_FLOAT
        type: DT_FLOAT
        type: DT_FLOAT
        type: DT_FLOAT
        type: DT_FLOAT
        type: DT_INT64
        type: DT_FLOAT
        type: DT_FLOAT
      }
    }
  }
}
node {
  name: "save/Assign"
  op: "Assign"
  input: "Variable"
  input: "save/RestoreV2"
  attr {
    key: "T"
    value {
      type: DT_FLOAT
    }
  }
  attr {
    key: "_class"
    value {
      list {
        s: "loc:@Variable"
      }
    }
  }
  attr {
    key: "use_locking"
    value {
      b: true
    }
  }
  attr {
    key: "validate_shape"
    value {
      b: true
    }
  }
}
node {
  name: "save/Assign_1"
  op: "Assign"
  input: "Variable/Adam"
  input: "save/RestoreV2:1"
  attr {
    key: "T"
    value {
      type: DT_FLOAT
    }
  }
  attr {
    key: "_class"
    value {
      list {
        s: "loc:@Variable"
      }
    }
  }
  attr {
    key: "use_locking"
    value {
      b: true
    }
  }
  attr {
    key: "validate_shape"
    value {
      b: true
    }
  }
}
node {
  name: "save/Assign_2"
  op: "Assign"
  input: "Variable/Adam_1"
  input: "save/RestoreV2:2"
  attr {
    key: "T"
    value {
      type: DT_FLOAT
    }
  }
  attr {
    key: "_class"
    value {
      list {
        s: "loc:@Variable"
      }
    }
  }
  attr {
    key: "use_locking"
    value {
      b: true
    }
  }
  attr {
    key: "validate_shape"
    value {
      b: true
    }
  }
}
node {
  name: "save/Assign_3"
  op: "Assign"
  input: "Variable_1"
  input: "save/RestoreV2:3"
  attr {
    key: "T"
    value {
      type: DT_FLOAT
    }
  }
  attr {
    key: "_class"
    value {
      list {
        s: "loc:@Variable_1"
      }
    }
  }
  attr {
    key: "use_locking"
    value {
      b: true
    }
  }
  attr {
    key: "validate_shape"
    value {
      b: true
    }
  }
}
node {
  name: "save/Assign_4"
  op: "Assign"
  input: "Variable_1/Adam"
  input: "save/RestoreV2:4"
  attr {
    key: "T"
    value {
      type: DT_FLOAT
    }
  }
  attr {
    key: "_class"
    value {
      list {
        s: "loc:@Variable_1"
      }
    }
  }
  attr {
    key: "use_locking"
    value {
      b: true
    }
  }
  attr {
    key: "validate_shape"
    value {
      b: true
    }
  }
}
node {
  name: "save/Assign_5"
  op: "Assign"
  input: "Variable_1/Adam_1"
  input: "save/RestoreV2:5"
  attr {
    key: "T"
    value {
      type: DT_FLOAT
    }
  }
  attr {
    key: "_class"
    value {
      list {
        s: "loc:@Variable_1"
      }
    }
  }
  attr {
    key: "use_locking"
    value {
      b: true
    }
  }
  attr {
    key: "validate_shape"
    value {
      b: true
    }
  }
}
node {
  name: "save/Assign_6"
  op: "Assign"
  input: "Variable_2"
  input: "save/RestoreV2:6"
  attr {
    key: "T"
    value {
      type: DT_FLOAT
    }
  }
  attr {
    key: "_class"
    value {
      list {
        s: "loc:@Variable_2"
      }
    }
  }
  attr {
    key: "use_locking"
    value {
      b: true
    }
  }
  attr {
    key: "validate_shape"
    value {
      b: true
    }
  }
}
node {
  name: "save/Assign_7"
  op: "Assign"
  input: "Variable_2/Adam"
  input: "save/RestoreV2:7"
  attr {
    key: "T"
    value {
      type: DT_FLOAT
    }
  }
  attr {
    key: "_class"
    value {
      list {
        s: "loc:@Variable_2"
      }
    }
  }
  attr {
    key: "use_locking"
    value {
      b: true
    }
  }
  attr {
    key: "validate_shape"
    value {
      b: true
    }
  }
}
node {
  name: "save/Assign_8"
  op: "Assign"
  input: "Variable_2/Adam_1"
  input: "save/RestoreV2:8"
  attr {
    key: "T"
    value {
      type: DT_FLOAT
    }
  }
  attr {
    key: "_class"
    value {
      list {
        s: "loc:@Variable_2"
      }
    }
  }
  attr {
    key: "use_locking"
    value {
      b: true
    }
  }
  attr {
    key: "validate_shape"
    value {
      b: true
    }
  }
}
node {
  name: "save/Assign_9"
  op: "Assign"
  input: "Variable_3"
  input: "save/RestoreV2:9"
  attr {
    key: "T"
    value {
      type: DT_FLOAT
    }
  }
  attr {
    key: "_class"
    value {
      list {
        s: "loc:@Variable_3"
      }
    }
  }
  attr {
    key: "use_locking"
    value {
      b: true
    }
  }
  attr {
    key: "validate_shape"
    value {
      b: true
    }
  }
}
node {
  name: "save/Assign_10"
  op: "Assign"
  input: "Variable_3/Adam"
  input: "save/RestoreV2:10"
  attr {
    key: "T"
    value {
      type: DT_FLOAT
    }
  }
  attr {
    key: "_class"
    value {
      list {
        s: "loc:@Variable_3"
      }
    }
  }
  attr {
    key: "use_locking"
    value {
      b: true
    }
  }
  attr {
    key: "validate_shape"
    value {
      b: true
    }
  }
}
node {
  name: "save/Assign_11"
  op: "Assign"
  input: "Variable_3/Adam_1"
  input: "save/RestoreV2:11"
  attr {
    key: "T"
    value {
      type: DT_FLOAT
    }
  }
  attr {
    key: "_class"
    value {
      list {
        s: "loc:@Variable_3"
      }
    }
  }
  attr {
    key: "use_locking"
    value {
      b: true
    }
  }
  attr {
    key: "validate_shape"
    value {
      b: true
    }
  }
}
node {
  name: "save/Assign_12"
  op: "Assign"
  input: "Variable_4"
  input: "save/RestoreV2:12"
  attr {
    key: "T"
    value {
      type: DT_FLOAT
    }
  }
  attr {
    key: "_class"
    value {
      list {
        s: "loc:@Variable_4"
      }
    }
  }
  attr {
    key: "use_locking"
    value {
      b: true
    }
  }
  attr {
    key: "validate_shape"
    value {
      b: true
    }
  }
}
node {
  name: "save/Assign_13"
  op: "Assign"
  input: "Variable_4/Adam"
  input: "save/RestoreV2:13"
  attr {
    key: "T"
    value {
      type: DT_FLOAT
    }
  }
  attr {
    key: "_class"
    value {
      list {
        s: "loc:@Variable_4"
      }
    }
  }
  attr {
    key: "use_locking"
    value {
      b: true
    }
  }
  attr {
    key: "validate_shape"
    value {
      b: true
    }
  }
}
node {
  name: "save/Assign_14"
  op: "Assign"
  input: "Variable_4/Adam_1"
  input: "save/RestoreV2:14"
  attr {
    key: "T"
    value {
      type: DT_FLOAT
    }
  }
  attr {
    key: "_class"
    value {
      list {
        s: "loc:@Variable_4"
      }
    }
  }
  attr {
    key: "use_locking"
    value {
      b: true
    }
  }
  attr {
    key: "validate_shape"
    value {
      b: true
    }
  }
}
node {
  name: "save/Assign_15"
  op: "Assign"
  input: "Variable_5"
  input: "save/RestoreV2:15"
  attr {
    key: "T"
    value {
      type: DT_FLOAT
    }
  }
  attr {
    key: "_class"
    value {
      list {
        s: "loc:@Variable_5"
      }
    }
  }
  attr {
    key: "use_locking"
    value {
      b: true
    }
  }
  attr {
    key: "validate_shape"
    value {
      b: true
    }
  }
}
node {
  name: "save/Assign_16"
  op: "Assign"
  input: "Variable_5/Adam"
  input: "save/RestoreV2:16"
  attr {
    key: "T"
    value {
      type: DT_FLOAT
    }
  }
  attr {
    key: "_class"
    value {
      list {
        s: "loc:@Variable_5"
      }
    }
  }
  attr {
    key: "use_locking"
    value {
      b: true
    }
  }
  attr {
    key: "validate_shape"
    value {
      b: true
    }
  }
}
node {
  name: "save/Assign_17"
  op: "Assign"
  input: "Variable_5/Adam_1"
  input: "save/RestoreV2:17"
  attr {
    key: "T"
    value {
      type: DT_FLOAT
    }
  }
  attr {
    key: "_class"
    value {
      list {
        s: "loc:@Variable_5"
      }
    }
  }
  attr {
    key: "use_locking"
    value {
      b: true
    }
  }
  attr {
    key: "validate_shape"
    value {
      b: true
    }
  }
}
node {
  name: "save/Assign_18"
  op: "Assign"
  input: "Variable_6"
  input: "save/RestoreV2:18"
  attr {
    key: "T"
    value {
      type: DT_FLOAT
    }
  }
  attr {
    key: "_class"
    value {
      list {
        s: "loc:@Variable_6"
      }
    }
  }
  attr {
    key: "use_locking"
    value {
      b: true
    }
  }
  attr {
    key: "validate_shape"
    value {
      b: true
    }
  }
}
node {
  name: "save/Assign_19"
  op: "Assign"
  input: "Variable_6/Adam"
  input: "save/RestoreV2:19"
  attr {
    key: "T"
    value {
      type: DT_FLOAT
    }
  }
  attr {
    key: "_class"
    value {
      list {
        s: "loc:@Variable_6"
      }
    }
  }
  attr {
    key: "use_locking"
    value {
      b: true
    }
  }
  attr {
    key: "validate_shape"
    value {
      b: true
    }
  }
}
node {
  name: "save/Assign_20"
  op: "Assign"
  input: "Variable_6/Adam_1"
  input: "save/RestoreV2:20"
  attr {
    key: "T"
    value {
      type: DT_FLOAT
    }
  }
  attr {
    key: "_class"
    value {
      list {
        s: "loc:@Variable_6"
      }
    }
  }
  attr {
    key: "use_locking"
    value {
      b: true
    }
  }
  attr {
    key: "validate_shape"
    value {
      b: true
    }
  }
}
node {
  name: "save/Assign_21"
  op: "Assign"
  input: "Variable_7"
  input: "save/RestoreV2:21"
  attr {
    key: "T"
    value {
      type: DT_FLOAT
    }
  }
  attr {
    key: "_class"
    value {
      list {
        s: "loc:@Variable_7"
      }
    }
  }
  attr {
    key: "use_locking"
    value {
      b: true
    }
  }
  attr {
    key: "validate_shape"
    value {
      b: true
    }
  }
}
node {
  name: "save/Assign_22"
  op: "Assign"
  input: "Variable_7/Adam"
  input: "save/RestoreV2:22"
  attr {
    key: "T"
    value {
      type: DT_FLOAT
    }
  }
  attr {
    key: "_class"
    value {
      list {
        s: "loc:@Variable_7"
      }
    }
  }
  attr {
    key: "use_locking"
    value {
      b: true
    }
  }
  attr {
    key: "validate_shape"
    value {
      b: true
    }
  }
}
node {
  name: "save/Assign_23"
  op: "Assign"
  input: "Variable_7/Adam_1"
  input: "save/RestoreV2:23"
  attr {
    key: "T"
    value {
      type: DT_FLOAT
    }
  }
  attr {
    key: "_class"
    value {
      list {
        s: "loc:@Variable_7"
      }
    }
  }
  attr {
    key: "use_locking"
    value {
      b: true
    }
  }
  attr {
    key: "validate_shape"
    value {
      b: true
    }
  }
}
node {
  name: "save/Assign_24"
  op: "Assign"
  input: "W"
  input: "save/RestoreV2:24"
  attr {
    key: "T"
    value {
      type: DT_FLOAT
    }
  }
  attr {
    key: "_class"
    value {
      list {
        s: "loc:@W"
      }
    }
  }
  attr {
    key: "use_locking"
    value {
      b: true
    }
  }
  attr {
    key: "validate_shape"
    value {
      b: true
    }
  }
}
node {
  name: "save/Assign_25"
  op: "Assign"
  input: "W/Adam"
  input: "save/RestoreV2:25"
  attr {
    key: "T"
    value {
      type: DT_FLOAT
    }
  }
  attr {
    key: "_class"
    value {
      list {
        s: "loc:@W"
      }
    }
  }
  attr {
    key: "use_locking"
    value {
      b: true
    }
  }
  attr {
    key: "validate_shape"
    value {
      b: true
    }
  }
}
node {
  name: "save/Assign_26"
  op: "Assign"
  input: "W/Adam_1"
  input: "save/RestoreV2:26"
  attr {
    key: "T"
    value {
      type: DT_FLOAT
    }
  }
  attr {
    key: "_class"
    value {
      list {
        s: "loc:@W"
      }
    }
  }
  attr {
    key: "use_locking"
    value {
      b: true
    }
  }
  attr {
    key: "validate_shape"
    value {
      b: true
    }
  }
}
node {
  name: "save/Assign_27"
  op: "Assign"
  input: "b"
  input: "save/RestoreV2:27"
  attr {
    key: "T"
    value {
      type: DT_FLOAT
    }
  }
  attr {
    key: "_class"
    value {
      list {
        s: "loc:@b"
      }
    }
  }
  attr {
    key: "use_locking"
    value {
      b: true
    }
  }
  attr {
    key: "validate_shape"
    value {
      b: true
    }
  }
}
node {
  name: "save/Assign_28"
  op: "Assign"
  input: "b/Adam"
  input: "save/RestoreV2:28"
  attr {
    key: "T"
    value {
      type: DT_FLOAT
    }
  }
  attr {
    key: "_class"
    value {
      list {
        s: "loc:@b"
      }
    }
  }
  attr {
    key: "use_locking"
    value {
      b: true
    }
  }
  attr {
    key: "validate_shape"
    value {
      b: true
    }
  }
}
node {
  name: "save/Assign_29"
  op: "Assign"
  input: "b/Adam_1"
  input: "save/RestoreV2:29"
  attr {
    key: "T"
    value {
      type: DT_FLOAT
    }
  }
  attr {
    key: "_class"
    value {
      list {
        s: "loc:@b"
      }
    }
  }
  attr {
    key: "use_locking"
    value {
      b: true
    }
  }
  attr {
    key: "validate_shape"
    value {
      b: true
    }
  }
}
node {
  name: "save/Assign_30"
  op: "Assign"
  input: "bn1/beta"
  input: "save/RestoreV2:30"
  attr {
    key: "T"
    value {
      type: DT_FLOAT
    }
  }
  attr {
    key: "_class"
    value {
      list {
        s: "loc:@bn1/beta"
      }
    }
  }
  attr {
    key: "use_locking"
    value {
      b: true
    }
  }
  attr {
    key: "validate_shape"
    value {
      b: true
    }
  }
}
node {
  name: "save/Assign_31"
  op: "Assign"
  input: "bn1/beta/Adam"
  input: "save/RestoreV2:31"
  attr {
    key: "T"
    value {
      type: DT_FLOAT
    }
  }
  attr {
    key: "_class"
    value {
      list {
        s: "loc:@bn1/beta"
      }
    }
  }
  attr {
    key: "use_locking"
    value {
      b: true
    }
  }
  attr {
    key: "validate_shape"
    value {
      b: true
    }
  }
}
node {
  name: "save/Assign_32"
  op: "Assign"
  input: "bn1/beta/Adam_1"
  input: "save/RestoreV2:32"
  attr {
    key: "T"
    value {
      type: DT_FLOAT
    }
  }
  attr {
    key: "_class"
    value {
      list {
        s: "loc:@bn1/beta"
      }
    }
  }
  attr {
    key: "use_locking"
    value {
      b: true
    }
  }
  attr {
    key: "validate_shape"
    value {
      b: true
    }
  }
}
node {
  name: "save/Assign_33"
  op: "Assign"
  input: "bn1/gamma"
  input: "save/RestoreV2:33"
  attr {
    key: "T"
    value {
      type: DT_FLOAT
    }
  }
  attr {
    key: "_class"
    value {
      list {
        s: "loc:@bn1/gamma"
      }
    }
  }
  attr {
    key: "use_locking"
    value {
      b: true
    }
  }
  attr {
    key: "validate_shape"
    value {
      b: true
    }
  }
}
node {
  name: "save/Assign_34"
  op: "Assign"
  input: "bn1/gamma/Adam"
  input: "save/RestoreV2:34"
  attr {
    key: "T"
    value {
      type: DT_FLOAT
    }
  }
  attr {
    key: "_class"
    value {
      list {
        s: "loc:@bn1/gamma"
      }
    }
  }
  attr {
    key: "use_locking"
    value {
      b: true
    }
  }
  attr {
    key: "validate_shape"
    value {
      b: true
    }
  }
}
node {
  name: "save/Assign_35"
  op: "Assign"
  input: "bn1/gamma/Adam_1"
  input: "save/RestoreV2:35"
  attr {
    key: "T"
    value {
      type: DT_FLOAT
    }
  }
  attr {
    key: "_class"
    value {
      list {
        s: "loc:@bn1/gamma"
      }
    }
  }
  attr {
    key: "use_locking"
    value {
      b: true
    }
  }
  attr {
    key: "validate_shape"
    value {
      b: true
    }
  }
}
node {
  name: "save/Assign_36"
  op: "Assign"
  input: "bn1/moving_mean"
  input: "save/RestoreV2:36"
  attr {
    key: "T"
    value {
      type: DT_FLOAT
    }
  }
  attr {
    key: "_class"
    value {
      list {
        s: "loc:@bn1/moving_mean"
      }
    }
  }
  attr {
    key: "use_locking"
    value {
      b: true
    }
  }
  attr {
    key: "validate_shape"
    value {
      b: true
    }
  }
}
node {
  name: "save/Assign_37"
  op: "Assign"
  input: "bn1/moving_variance"
  input: "save/RestoreV2:37"
  attr {
    key: "T"
    value {
      type: DT_FLOAT
    }
  }
  attr {
    key: "_class"
    value {
      list {
        s: "loc:@bn1/moving_variance"
      }
    }
  }
  attr {
    key: "use_locking"
    value {
      b: true
    }
  }
  attr {
    key: "validate_shape"
    value {
      b: true
    }
  }
}
node {
  name: "save/Assign_38"
  op: "Assign"
  input: "bn2/beta"
  input: "save/RestoreV2:38"
  attr {
    key: "T"
    value {
      type: DT_FLOAT
    }
  }
  attr {
    key: "_class"
    value {
      list {
        s: "loc:@bn2/beta"
      }
    }
  }
  attr {
    key: "use_locking"
    value {
      b: true
    }
  }
  attr {
    key: "validate_shape"
    value {
      b: true
    }
  }
}
node {
  name: "save/Assign_39"
  op: "Assign"
  input: "bn2/beta/Adam"
  input: "save/RestoreV2:39"
  attr {
    key: "T"
    value {
      type: DT_FLOAT
    }
  }
  attr {
    key: "_class"
    value {
      list {
        s: "loc:@bn2/beta"
      }
    }
  }
  attr {
    key: "use_locking"
    value {
      b: true
    }
  }
  attr {
    key: "validate_shape"
    value {
      b: true
    }
  }
}
node {
  name: "save/Assign_40"
  op: "Assign"
  input: "bn2/beta/Adam_1"
  input: "save/RestoreV2:40"
  attr {
    key: "T"
    value {
      type: DT_FLOAT
    }
  }
  attr {
    key: "_class"
    value {
      list {
        s: "loc:@bn2/beta"
      }
    }
  }
  attr {
    key: "use_locking"
    value {
      b: true
    }
  }
  attr {
    key: "validate_shape"
    value {
      b: true
    }
  }
}
node {
  name: "save/Assign_41"
  op: "Assign"
  input: "bn2/gamma"
  input: "save/RestoreV2:41"
  attr {
    key: "T"
    value {
      type: DT_FLOAT
    }
  }
  attr {
    key: "_class"
    value {
      list {
        s: "loc:@bn2/gamma"
      }
    }
  }
  attr {
    key: "use_locking"
    value {
      b: true
    }
  }
  attr {
    key: "validate_shape"
    value {
      b: true
    }
  }
}
node {
  name: "save/Assign_42"
  op: "Assign"
  input: "bn2/gamma/Adam"
  input: "save/RestoreV2:42"
  attr {
    key: "T"
    value {
      type: DT_FLOAT
    }
  }
  attr {
    key: "_class"
    value {
      list {
        s: "loc:@bn2/gamma"
      }
    }
  }
  attr {
    key: "use_locking"
    value {
      b: true
    }
  }
  attr {
    key: "validate_shape"
    value {
      b: true
    }
  }
}
node {
  name: "save/Assign_43"
  op: "Assign"
  input: "bn2/gamma/Adam_1"
  input: "save/RestoreV2:43"
  attr {
    key: "T"
    value {
      type: DT_FLOAT
    }
  }
  attr {
    key: "_class"
    value {
      list {
        s: "loc:@bn2/gamma"
      }
    }
  }
  attr {
    key: "use_locking"
    value {
      b: true
    }
  }
  attr {
    key: "validate_shape"
    value {
      b: true
    }
  }
}
node {
  name: "save/Assign_44"
  op: "Assign"
  input: "bn2/moving_mean"
  input: "save/RestoreV2:44"
  attr {
    key: "T"
    value {
      type: DT_FLOAT
    }
  }
  attr {
    key: "_class"
    value {
      list {
        s: "loc:@bn2/moving_mean"
      }
    }
  }
  attr {
    key: "use_locking"
    value {
      b: true
    }
  }
  attr {
    key: "validate_shape"
    value {
      b: true
    }
  }
}
node {
  name: "save/Assign_45"
  op: "Assign"
  input: "bn2/moving_variance"
  input: "save/RestoreV2:45"
  attr {
    key: "T"
    value {
      type: DT_FLOAT
    }
  }
  attr {
    key: "_class"
    value {
      list {
        s: "loc:@bn2/moving_variance"
      }
    }
  }
  attr {
    key: "use_locking"
    value {
      b: true
    }
  }
  attr {
    key: "validate_shape"
    value {
      b: true
    }
  }
}
node {
  name: "save/Assign_46"
  op: "Assign"
  input: "bn3/beta"
  input: "save/RestoreV2:46"
  attr {
    key: "T"
    value {
      type: DT_FLOAT
    }
  }
  attr {
    key: "_class"
    value {
      list {
        s: "loc:@bn3/beta"
      }
    }
  }
  attr {
    key: "use_locking"
    value {
      b: true
    }
  }
  attr {
    key: "validate_shape"
    value {
      b: true
    }
  }
}
node {
  name: "save/Assign_47"
  op: "Assign"
  input: "bn3/beta/Adam"
  input: "save/RestoreV2:47"
  attr {
    key: "T"
    value {
      type: DT_FLOAT
    }
  }
  attr {
    key: "_class"
    value {
      list {
        s: "loc:@bn3/beta"
      }
    }
  }
  attr {
    key: "use_locking"
    value {
      b: true
    }
  }
  attr {
    key: "validate_shape"
    value {
      b: true
    }
  }
}
node {
  name: "save/Assign_48"
  op: "Assign"
  input: "bn3/beta/Adam_1"
  input: "save/RestoreV2:48"
  attr {
    key: "T"
    value {
      type: DT_FLOAT
    }
  }
  attr {
    key: "_class"
    value {
      list {
        s: "loc:@bn3/beta"
      }
    }
  }
  attr {
    key: "use_locking"
    value {
      b: true
    }
  }
  attr {
    key: "validate_shape"
    value {
      b: true
    }
  }
}
node {
  name: "save/Assign_49"
  op: "Assign"
  input: "bn3/gamma"
  input: "save/RestoreV2:49"
  attr {
    key: "T"
    value {
      type: DT_FLOAT
    }
  }
  attr {
    key: "_class"
    value {
      list {
        s: "loc:@bn3/gamma"
      }
    }
  }
  attr {
    key: "use_locking"
    value {
      b: true
    }
  }
  attr {
    key: "validate_shape"
    value {
      b: true
    }
  }
}
node {
  name: "save/Assign_50"
  op: "Assign"
  input: "bn3/gamma/Adam"
  input: "save/RestoreV2:50"
  attr {
    key: "T"
    value {
      type: DT_FLOAT
    }
  }
  attr {
    key: "_class"
    value {
      list {
        s: "loc:@bn3/gamma"
      }
    }
  }
  attr {
    key: "use_locking"
    value {
      b: true
    }
  }
  attr {
    key: "validate_shape"
    value {
      b: true
    }
  }
}
node {
  name: "save/Assign_51"
  op: "Assign"
  input: "bn3/gamma/Adam_1"
  input: "save/RestoreV2:51"
  attr {
    key: "T"
    value {
      type: DT_FLOAT
    }
  }
  attr {
    key: "_class"
    value {
      list {
        s: "loc:@bn3/gamma"
      }
    }
  }
  attr {
    key: "use_locking"
    value {
      b: true
    }
  }
  attr {
    key: "validate_shape"
    value {
      b: true
    }
  }
}
node {
  name: "save/Assign_52"
  op: "Assign"
  input: "bn3/moving_mean"
  input: "save/RestoreV2:52"
  attr {
    key: "T"
    value {
      type: DT_FLOAT
    }
  }
  attr {
    key: "_class"
    value {
      list {
        s: "loc:@bn3/moving_mean"
      }
    }
  }
  attr {
    key: "use_locking"
    value {
      b: true
    }
  }
  attr {
    key: "validate_shape"
    value {
      b: true
    }
  }
}
node {
  name: "save/Assign_53"
  op: "Assign"
  input: "bn3/moving_variance"
  input: "save/RestoreV2:53"
  attr {
    key: "T"
    value {
      type: DT_FLOAT
    }
  }
  attr {
    key: "_class"
    value {
      list {
        s: "loc:@bn3/moving_variance"
      }
    }
  }
  attr {
    key: "use_locking"
    value {
      b: true
    }
  }
  attr {
    key: "validate_shape"
    value {
      b: true
    }
  }
}
node {
  name: "save/Assign_54"
  op: "Assign"
  input: "global_step"
  input: "save/RestoreV2:54"
  attr {
    key: "T"
    value {
      type: DT_INT64
    }
  }
  attr {
    key: "_class"
    value {
      list {
        s: "loc:@global_step"
      }
    }
  }
  attr {
    key: "use_locking"
    value {
      b: true
    }
  }
  attr {
    key: "validate_shape"
    value {
      b: true
    }
  }
}
node {
  name: "save/Assign_55"
  op: "Assign"
  input: "train/beta1_power"
  input: "save/RestoreV2:55"
  attr {
    key: "T"
    value {
      type: DT_FLOAT
    }
  }
  attr {
    key: "_class"
    value {
      list {
        s: "loc:@Variable"
      }
    }
  }
  attr {
    key: "use_locking"
    value {
      b: true
    }
  }
  attr {
    key: "validate_shape"
    value {
      b: true
    }
  }
}
node {
  name: "save/Assign_56"
  op: "Assign"
  input: "train/beta2_power"
  input: "save/RestoreV2:56"
  attr {
    key: "T"
    value {
      type: DT_FLOAT
    }
  }
  attr {
    key: "_class"
    value {
      list {
        s: "loc:@Variable"
      }
    }
  }
  attr {
    key: "use_locking"
    value {
      b: true
    }
  }
  attr {
    key: "validate_shape"
    value {
      b: true
    }
  }
}
node {
  name: "save/restore_all"
  op: "NoOp"
  input: "^save/Assign"
  input: "^save/Assign_1"
  input: "^save/Assign_10"
  input: "^save/Assign_11"
  input: "^save/Assign_12"
  input: "^save/Assign_13"
  input: "^save/Assign_14"
  input: "^save/Assign_15"
  input: "^save/Assign_16"
  input: "^save/Assign_17"
  input: "^save/Assign_18"
  input: "^save/Assign_19"
  input: "^save/Assign_2"
  input: "^save/Assign_20"
  input: "^save/Assign_21"
  input: "^save/Assign_22"
  input: "^save/Assign_23"
  input: "^save/Assign_24"
  input: "^save/Assign_25"
  input: "^save/Assign_26"
  input: "^save/Assign_27"
  input: "^save/Assign_28"
  input: "^save/Assign_29"
  input: "^save/Assign_3"
  input: "^save/Assign_30"
  input: "^save/Assign_31"
  input: "^save/Assign_32"
  input: "^save/Assign_33"
  input: "^save/Assign_34"
  input: "^save/Assign_35"
  input: "^save/Assign_36"
  input: "^save/Assign_37"
  input: "^save/Assign_38"
  input: "^save/Assign_39"
  input: "^save/Assign_4"
  input: "^save/Assign_40"
  input: "^save/Assign_41"
  input: "^save/Assign_42"
  input: "^save/Assign_43"
  input: "^save/Assign_44"
  input: "^save/Assign_45"
  input: "^save/Assign_46"
  input: "^save/Assign_47"
  input: "^save/Assign_48"
  input: "^save/Assign_49"
  input: "^save/Assign_5"
  input: "^save/Assign_50"
  input: "^save/Assign_51"
  input: "^save/Assign_52"
  input: "^save/Assign_53"
  input: "^save/Assign_54"
  input: "^save/Assign_55"
  input: "^save/Assign_56"
  input: "^save/Assign_6"
  input: "^save/Assign_7"
  input: "^save/Assign_8"
  input: "^save/Assign_9"
}
node {
  name: "Merge/MergeSummary"
  op: "MergeSummary"
  input: "cross_entropy_1"
  input: "accuracy"
  attr {
    key: "N"
    value {
      i: 2
    }
  }
}
node {
  name: "init"
  op: "NoOp"
  input: "^Variable/Adam/Assign"
  input: "^Variable/Adam_1/Assign"
  input: "^Variable/Assign"
  input: "^Variable_1/Adam/Assign"
  input: "^Variable_1/Adam_1/Assign"
  input: "^Variable_1/Assign"
  input: "^Variable_2/Adam/Assign"
  input: "^Variable_2/Adam_1/Assign"
  input: "^Variable_2/Assign"
  input: "^Variable_3/Adam/Assign"
  input: "^Variable_3/Adam_1/Assign"
  input: "^Variable_3/Assign"
  input: "^Variable_4/Adam/Assign"
  input: "^Variable_4/Adam_1/Assign"
  input: "^Variable_4/Assign"
  input: "^Variable_5/Adam/Assign"
  input: "^Variable_5/Adam_1/Assign"
  input: "^Variable_5/Assign"
  input: "^Variable_6/Adam/Assign"
  input: "^Variable_6/Adam_1/Assign"
  input: "^Variable_6/Assign"
  input: "^Variable_7/Adam/Assign"
  input: "^Variable_7/Adam_1/Assign"
  input: "^Variable_7/Assign"
  input: "^W/Adam/Assign"
  input: "^W/Adam_1/Assign"
  input: "^W/Assign"
  input: "^b/Adam/Assign"
  input: "^b/Adam_1/Assign"
  input: "^b/Assign"
  input: "^bn1/beta/Adam/Assign"
  input: "^bn1/beta/Adam_1/Assign"
  input: "^bn1/beta/Assign"
  input: "^bn1/gamma/Adam/Assign"
  input: "^bn1/gamma/Adam_1/Assign"
  input: "^bn1/gamma/Assign"
  input: "^bn1/moving_mean/Assign"
  input: "^bn1/moving_variance/Assign"
  input: "^bn2/beta/Adam/Assign"
  input: "^bn2/beta/Adam_1/Assign"
  input: "^bn2/beta/Assign"
  input: "^bn2/gamma/Adam/Assign"
  input: "^bn2/gamma/Adam_1/Assign"
  input: "^bn2/gamma/Assign"
  input: "^bn2/moving_mean/Assign"
  input: "^bn2/moving_variance/Assign"
  input: "^bn3/beta/Adam/Assign"
  input: "^bn3/beta/Adam_1/Assign"
  input: "^bn3/beta/Assign"
  input: "^bn3/gamma/Adam/Assign"
  input: "^bn3/gamma/Adam_1/Assign"
  input: "^bn3/gamma/Assign"
  input: "^bn3/moving_mean/Assign"
  input: "^bn3/moving_variance/Assign"
  input: "^global_step/Assign"
  input: "^train/beta1_power/Assign"
  input: "^train/beta2_power/Assign"
}
node {
  name: "Shape"
  op: "Const"
  attr {
    key: "dtype"
    value {
      type: DT_INT32
    }
  }
  attr {
    key: "value"
    value {
      tensor {
        dtype: DT_INT32
        tensor_shape {
          dim {
            size: 4
          }
        }
        tensor_content: "\n\000\000\000\004\000\000\000\001\000\000\000\034\000\000\000"
      }
    }
  }
}
node {
  name: "Shape_1"
  op: "Const"
  attr {
    key: "dtype"
    value {
      type: DT_INT32
    }
  }
  attr {
    key: "value"
    value {
      tensor {
        dtype: DT_INT32
        tensor_shape {
          dim {
            size: 1
          }
        }
        int_val: 28
      }
    }
  }
}
node {
  name: "Shape_2"
  op: "Const"
  attr {
    key: "dtype"
    value {
      type: DT_INT32
    }
  }
  attr {
    key: "value"
    value {
      tensor {
        dtype: DT_INT32
        tensor_shape {
          dim {
            size: 1
          }
        }
        int_val: 28
      }
    }
  }
}
node {
  name: "Shape_3"
  op: "Const"
  attr {
    key: "dtype"
    value {
      type: DT_INT32
    }
  }
  attr {
    key: "value"
    value {
      tensor {
        dtype: DT_INT32
        tensor_shape {
          dim {
            size: 1
          }
        }
        int_val: 28
      }
    }
  }
}
node {
  name: "Shape_4"
  op: "Const"
  attr {
    key: "dtype"
    value {
      type: DT_INT32
    }
  }
  attr {
    key: "value"
    value {
      tensor {
        dtype: DT_INT32
        tensor_shape {
          dim {
            size: 4
          }
        }
        tensor_content: "\n\000\000\000\004\000\000\000\034\000\000\000\036\000\000\000"
      }
    }
  }
}
node {
  name: "Shape_5"
  op: "Const"
  attr {
    key: "dtype"
    value {
      type: DT_INT32
    }
  }
  attr {
    key: "value"
    value {
      tensor {
        dtype: DT_INT32
        tensor_shape {
          dim {
            size: 1
          }
        }
        int_val: 30
      }
    }
  }
}
node {
  name: "Shape_6"
  op: "Const"
  attr {
    key: "dtype"
    value {
      type: DT_INT32
    }
  }
  attr {
    key: "value"
    value {
      tensor {
        dtype: DT_INT32
        tensor_shape {
          dim {
            size: 1
          }
        }
        int_val: 30
      }
    }
  }
}
node {
  name: "Shape_7"
  op: "Const"
  attr {
    key: "dtype"
    value {
      type: DT_INT32
    }
  }
  attr {
    key: "value"
    value {
      tensor {
        dtype: DT_INT32
        tensor_shape {
          dim {
            size: 1
          }
        }
        int_val: 30
      }
    }
  }
}
node {
  name: "Shape_8"
  op: "Const"
  attr {
    key: "dtype"
    value {
      type: DT_INT32
    }
  }
  attr {
    key: "value"
    value {
      tensor {
        dtype: DT_INT32
        tensor_shape {
          dim {
            size: 2
          }
        }
        tensor_content: " \r\000\000\020\000\000\000"
      }
    }
  }
}
node {
  name: "Shape_9"
  op: "Const"
  attr {
    key: "dtype"
    value {
      type: DT_INT32
    }
  }
  attr {
    key: "value"
    value {
      tensor {
        dtype: DT_INT32
        tensor_shape {
          dim {
            size: 1
          }
        }
        int_val: 16
      }
    }
  }
}
node {
  name: "Shape_10"
  op: "Const"
  attr {
    key: "dtype"
    value {
      type: DT_INT32
    }
  }
  attr {
    key: "value"
    value {
      tensor {
        dtype: DT_INT32
        tensor_shape {
          dim {
            size: 2
          }
        }
        tensor_content: "\020\000\000\000\200\000\000\000"
      }
    }
  }
}
node {
  name: "Shape_11"
  op: "Const"
  attr {
    key: "dtype"
    value {
      type: DT_INT32
    }
  }
  attr {
    key: "value"
    value {
      tensor {
        dtype: DT_INT32
        tensor_shape {
          dim {
            size: 1
          }
        }
        int_val: 128
      }
    }
  }
}
node {
  name: "Shape_12"
  op: "Const"
  attr {
    key: "dtype"
    value {
      type: DT_INT32
    }
  }
  attr {
    key: "value"
    value {
      tensor {
        dtype: DT_INT32
        tensor_shape {
          dim {
            size: 1
          }
        }
        int_val: 128
      }
    }
  }
}
node {
  name: "Shape_13"
  op: "Const"
  attr {
    key: "dtype"
    value {
      type: DT_INT32
    }
  }
  attr {
    key: "value"
    value {
      tensor {
        dtype: DT_INT32
        tensor_shape {
          dim {
            size: 1
          }
        }
        int_val: 128
      }
    }
  }
}
node {
  name: "Shape_14"
  op: "Const"
  attr {
    key: "dtype"
    value {
      type: DT_INT32
    }
  }
  attr {
    key: "value"
    value {
      tensor {
        dtype: DT_INT32
        tensor_shape {
          dim {
            size: 2
          }
        }
        tensor_content: "\200\000\000\000\016\000\000\000"
      }
    }
  }
}
node {
  name: "Shape_15"
  op: "Const"
  attr {
    key: "dtype"
    value {
      type: DT_INT32
    }
  }
  attr {
    key: "value"
    value {
      tensor {
        dtype: DT_INT32
        tensor_shape {
          dim {
            size: 1
          }
        }
        int_val: 14
      }
    }
  }
}
versions {
  producer: 26
}
