node {
  name: "ReadFile/filename"
  op: "Const"
  attr {
    key: "dtype"
    value {
      type: DT_STRING
    }
  }
  attr {
    key: "value"
    value {
      tensor {
        dtype: DT_STRING
        tensor_shape {
        }
        string_val: "../data/down/5f5eef60_nohash_0.wav"
      }
    }
  }
}
node {
  name: "ReadFile"
  op: "ReadFile"
  input: "ReadFile/filename"
}
node {
  name: "DecodeWav"
  op: "DecodeWav"
  input: "ReadFile"
  attr {
    key: "desired_channels"
    value {
      i: 1
    }
  }
  attr {
    key: "desired_samples"
    value {
      i: -1
    }
  }
}
node {
  name: "Mul/y"
  op: "Const"
  attr {
    key: "dtype"
    value {
      type: DT_FLOAT
    }
  }
  attr {
    key: "value"
    value {
      tensor {
        dtype: DT_FLOAT
        tensor_shape {
        }
        float_val: 0.0
      }
    }
  }
}
node {
  name: "Mul"
  op: "Mul"
  input: "DecodeWav"
  input: "Mul/y"
  attr {
    key: "T"
    value {
      type: DT_FLOAT
    }
  }
}
node {
  name: "Reshape/shape"
  op: "Const"
  attr {
    key: "dtype"
    value {
      type: DT_INT32
    }
  }
  attr {
    key: "value"
    value {
      tensor {
        dtype: DT_INT32
        tensor_shape {
          dim {
            size: 2
          }
        }
        tensor_content: "\377\377\377\377\001\000\000\000"
      }
    }
  }
}
node {
  name: "Reshape"
  op: "Reshape"
  input: "Mul"
  input: "Reshape/shape"
  attr {
    key: "T"
    value {
      type: DT_FLOAT
    }
  }
  attr {
    key: "Tshape"
    value {
      type: DT_INT32
    }
  }
}
node {
  name: "EncodeWav/sample_rate"
  op: "Const"
  attr {
    key: "dtype"
    value {
      type: DT_INT32
    }
  }
  attr {
    key: "value"
    value {
      tensor {
        dtype: DT_INT32
        tensor_shape {
        }
        int_val: 16000
      }
    }
  }
}
node {
  name: "EncodeWav"
  op: "EncodeWav"
  input: "Reshape"
  input: "EncodeWav/sample_rate"
}
node {
  name: "WriteFile/filename"
  op: "Const"
  attr {
    key: "dtype"
    value {
      type: DT_STRING
    }
  }
  attr {
    key: "value"
    value {
      tensor {
        dtype: DT_STRING
        tensor_shape {
        }
        string_val: "/home/lebhoryi/RT-Thread/WakeUp-Xiaorui/test_data/_silence_/0.wav"
      }
    }
  }
}
node {
  name: "WriteFile"
  op: "WriteFile"
  input: "WriteFile/filename"
  input: "EncodeWav"
}
node {
  name: "Placeholder"
  op: "Placeholder"
  attr {
    key: "dtype"
    value {
      type: DT_STRING
    }
  }
  attr {
    key: "shape"
    value {
      shape {
      }
    }
  }
}
node {
  name: "ReadFile_1"
  op: "ReadFile"
  input: "Placeholder"
}
node {
  name: "DecodeWav_1"
  op: "DecodeWav"
  input: "ReadFile_1"
  attr {
    key: "desired_channels"
    value {
      i: 1
    }
  }
  attr {
    key: "desired_samples"
    value {
      i: 16000
    }
  }
}
node {
  name: "Placeholder_1"
  op: "Placeholder"
  attr {
    key: "dtype"
    value {
      type: DT_FLOAT
    }
  }
  attr {
    key: "shape"
    value {
      shape {
      }
    }
  }
}
node {
  name: "Mul_1"
  op: "Mul"
  input: "DecodeWav_1"
  input: "Placeholder_1"
  attr {
    key: "T"
    value {
      type: DT_FLOAT
    }
  }
}
node {
  name: "Placeholder_2"
  op: "Placeholder"
  attr {
    key: "dtype"
    value {
      type: DT_INT32
    }
  }
  attr {
    key: "shape"
    value {
      shape {
        dim {
          size: 2
        }
        dim {
          size: 2
        }
      }
    }
  }
}
node {
  name: "Placeholder_3"
  op: "Placeholder"
  attr {
    key: "dtype"
    value {
      type: DT_INT32
    }
  }
  attr {
    key: "shape"
    value {
      shape {
        dim {
          size: 2
        }
      }
    }
  }
}
node {
  name: "Pad"
  op: "Pad"
  input: "Mul_1"
  input: "Placeholder_2"
  attr {
    key: "T"
    value {
      type: DT_FLOAT
    }
  }
  attr {
    key: "Tpaddings"
    value {
      type: DT_INT32
    }
  }
}
node {
  name: "Slice/size"
  op: "Const"
  attr {
    key: "dtype"
    value {
      type: DT_INT32
    }
  }
  attr {
    key: "value"
    value {
      tensor {
        dtype: DT_INT32
        tensor_shape {
          dim {
            size: 2
          }
        }
        tensor_content: "\200>\000\000\377\377\377\377"
      }
    }
  }
}
node {
  name: "Slice"
  op: "Slice"
  input: "Pad"
  input: "Placeholder_3"
  input: "Slice/size"
  attr {
    key: "Index"
    value {
      type: DT_INT32
    }
  }
  attr {
    key: "T"
    value {
      type: DT_FLOAT
    }
  }
}
node {
  name: "Placeholder_4"
  op: "Placeholder"
  attr {
    key: "dtype"
    value {
      type: DT_FLOAT
    }
  }
  attr {
    key: "shape"
    value {
      shape {
        dim {
          size: 16000
        }
        dim {
          size: 1
        }
      }
    }
  }
}
node {
  name: "Placeholder_5"
  op: "Placeholder"
  attr {
    key: "dtype"
    value {
      type: DT_FLOAT
    }
  }
  attr {
    key: "shape"
    value {
      shape {
      }
    }
  }
}
node {
  name: "Mul_2"
  op: "Mul"
  input: "Placeholder_4"
  input: "Placeholder_5"
  attr {
    key: "T"
    value {
      type: DT_FLOAT
    }
  }
}
node {
  name: "Add"
  op: "Add"
  input: "Mul_2"
  input: "Slice"
  attr {
    key: "T"
    value {
      type: DT_FLOAT
    }
  }
}
node {
  name: "clip_by_value/Minimum/y"
  op: "Const"
  attr {
    key: "dtype"
    value {
      type: DT_FLOAT
    }
  }
  attr {
    key: "value"
    value {
      tensor {
        dtype: DT_FLOAT
        tensor_shape {
        }
        float_val: 1.0
      }
    }
  }
}
node {
  name: "clip_by_value/Minimum"
  op: "Minimum"
  input: "Add"
  input: "clip_by_value/Minimum/y"
  attr {
    key: "T"
    value {
      type: DT_FLOAT
    }
  }
}
node {
  name: "clip_by_value/y"
  op: "Const"
  attr {
    key: "dtype"
    value {
      type: DT_FLOAT
    }
  }
  attr {
    key: "value"
    value {
      tensor {
        dtype: DT_FLOAT
        tensor_shape {
        }
        float_val: -1.0
      }
    }
  }
}
node {
  name: "clip_by_value"
  op: "Maximum"
  input: "clip_by_value/Minimum"
  input: "clip_by_value/y"
  attr {
    key: "T"
    value {
      type: DT_FLOAT
    }
  }
}
node {
  name: "AudioSpectrogram"
  op: "AudioSpectrogram"
  input: "clip_by_value"
  attr {
    key: "magnitude_squared"
    value {
      b: true
    }
  }
  attr {
    key: "stride"
    value {
      i: 320
    }
  }
  attr {
    key: "window_size"
    value {
      i: 640
    }
  }
}
node {
  name: "Mfcc"
  op: "Mfcc"
  input: "AudioSpectrogram"
  input: "DecodeWav_1:1"
  attr {
    key: "dct_coefficient_count"
    value {
      i: 40
    }
  }
  attr {
    key: "filterbank_channel_count"
    value {
      i: 40
    }
  }
  attr {
    key: "lower_frequency_limit"
    value {
      f: 20.0
    }
  }
  attr {
    key: "upper_frequency_limit"
    value {
      f: 4000.0
    }
  }
}
node {
  name: "fingerprint_input"
  op: "Placeholder"
  attr {
    key: "dtype"
    value {
      type: DT_FLOAT
    }
  }
  attr {
    key: "shape"
    value {
      shape {
        dim {
          size: -1
        }
        dim {
          size: 1960
        }
      }
    }
  }
}
node {
  name: "dropout_prob"
  op: "Placeholder"
  attr {
    key: "dtype"
    value {
      type: DT_FLOAT
    }
  }
  attr {
    key: "shape"
    value {
      shape {
        unknown_rank: true
      }
    }
  }
}
node {
  name: "Reshape_1/shape"
  op: "Const"
  attr {
    key: "dtype"
    value {
      type: DT_INT32
    }
  }
  attr {
    key: "value"
    value {
      tensor {
        dtype: DT_INT32
        tensor_shape {
          dim {
            size: 4
          }
        }
        tensor_content: "\377\377\377\3771\000\000\000(\000\000\000\001\000\000\000"
      }
    }
  }
}
node {
  name: "Reshape_1"
  op: "Reshape"
  input: "fingerprint_input"
  input: "Reshape_1/shape"
  attr {
    key: "T"
    value {
      type: DT_FLOAT
    }
  }
  attr {
    key: "Tshape"
    value {
      type: DT_INT32
    }
  }
}
node {
  name: "DS-CNN/conv_1/weights/Initializer/random_uniform/shape"
  op: "Const"
  attr {
    key: "_class"
    value {
      list {
        s: "loc:@DS-CNN/conv_1/weights"
      }
    }
  }
  attr {
    key: "dtype"
    value {
      type: DT_INT32
    }
  }
  attr {
    key: "value"
    value {
      tensor {
        dtype: DT_INT32
        tensor_shape {
          dim {
            size: 4
          }
        }
        tensor_content: "\n\000\000\000\004\000\000\000\001\000\000\000@\000\000\000"
      }
    }
  }
}
node {
  name: "DS-CNN/conv_1/weights/Initializer/random_uniform/min"
  op: "Const"
  attr {
    key: "_class"
    value {
      list {
        s: "loc:@DS-CNN/conv_1/weights"
      }
    }
  }
  attr {
    key: "dtype"
    value {
      type: DT_FLOAT
    }
  }
  attr {
    key: "value"
    value {
      tensor {
        dtype: DT_FLOAT
        tensor_shape {
        }
        float_val: -0.04803844541311264
      }
    }
  }
}
node {
  name: "DS-CNN/conv_1/weights/Initializer/random_uniform/max"
  op: "Const"
  attr {
    key: "_class"
    value {
      list {
        s: "loc:@DS-CNN/conv_1/weights"
      }
    }
  }
  attr {
    key: "dtype"
    value {
      type: DT_FLOAT
    }
  }
  attr {
    key: "value"
    value {
      tensor {
        dtype: DT_FLOAT
        tensor_shape {
        }
        float_val: 0.04803844541311264
      }
    }
  }
}
node {
  name: "DS-CNN/conv_1/weights/Initializer/random_uniform/RandomUniform"
  op: "RandomUniform"
  input: "DS-CNN/conv_1/weights/Initializer/random_uniform/shape"
  attr {
    key: "T"
    value {
      type: DT_INT32
    }
  }
  attr {
    key: "_class"
    value {
      list {
        s: "loc:@DS-CNN/conv_1/weights"
      }
    }
  }
  attr {
    key: "dtype"
    value {
      type: DT_FLOAT
    }
  }
  attr {
    key: "seed"
    value {
      i: 0
    }
  }
  attr {
    key: "seed2"
    value {
      i: 0
    }
  }
}
node {
  name: "DS-CNN/conv_1/weights/Initializer/random_uniform/sub"
  op: "Sub"
  input: "DS-CNN/conv_1/weights/Initializer/random_uniform/max"
  input: "DS-CNN/conv_1/weights/Initializer/random_uniform/min"
  attr {
    key: "T"
    value {
      type: DT_FLOAT
    }
  }
  attr {
    key: "_class"
    value {
      list {
        s: "loc:@DS-CNN/conv_1/weights"
      }
    }
  }
}
node {
  name: "DS-CNN/conv_1/weights/Initializer/random_uniform/mul"
  op: "Mul"
  input: "DS-CNN/conv_1/weights/Initializer/random_uniform/RandomUniform"
  input: "DS-CNN/conv_1/weights/Initializer/random_uniform/sub"
  attr {
    key: "T"
    value {
      type: DT_FLOAT
    }
  }
  attr {
    key: "_class"
    value {
      list {
        s: "loc:@DS-CNN/conv_1/weights"
      }
    }
  }
}
node {
  name: "DS-CNN/conv_1/weights/Initializer/random_uniform"
  op: "Add"
  input: "DS-CNN/conv_1/weights/Initializer/random_uniform/mul"
  input: "DS-CNN/conv_1/weights/Initializer/random_uniform/min"
  attr {
    key: "T"
    value {
      type: DT_FLOAT
    }
  }
  attr {
    key: "_class"
    value {
      list {
        s: "loc:@DS-CNN/conv_1/weights"
      }
    }
  }
}
node {
  name: "DS-CNN/conv_1/weights"
  op: "VariableV2"
  attr {
    key: "_class"
    value {
      list {
        s: "loc:@DS-CNN/conv_1/weights"
      }
    }
  }
  attr {
    key: "container"
    value {
      s: ""
    }
  }
  attr {
    key: "dtype"
    value {
      type: DT_FLOAT
    }
  }
  attr {
    key: "shape"
    value {
      shape {
        dim {
          size: 10
        }
        dim {
          size: 4
        }
        dim {
          size: 1
        }
        dim {
          size: 64
        }
      }
    }
  }
  attr {
    key: "shared_name"
    value {
      s: ""
    }
  }
}
node {
  name: "DS-CNN/conv_1/weights/Assign"
  op: "Assign"
  input: "DS-CNN/conv_1/weights"
  input: "DS-CNN/conv_1/weights/Initializer/random_uniform"
  attr {
    key: "T"
    value {
      type: DT_FLOAT
    }
  }
  attr {
    key: "_class"
    value {
      list {
        s: "loc:@DS-CNN/conv_1/weights"
      }
    }
  }
  attr {
    key: "use_locking"
    value {
      b: true
    }
  }
  attr {
    key: "validate_shape"
    value {
      b: true
    }
  }
}
node {
  name: "DS-CNN/conv_1/weights/read"
  op: "Identity"
  input: "DS-CNN/conv_1/weights"
  attr {
    key: "T"
    value {
      type: DT_FLOAT
    }
  }
  attr {
    key: "_class"
    value {
      list {
        s: "loc:@DS-CNN/conv_1/weights"
      }
    }
  }
}
node {
  name: "DS-CNN/conv_1/biases/Initializer/zeros"
  op: "Const"
  attr {
    key: "_class"
    value {
      list {
        s: "loc:@DS-CNN/conv_1/biases"
      }
    }
  }
  attr {
    key: "dtype"
    value {
      type: DT_FLOAT
    }
  }
  attr {
    key: "value"
    value {
      tensor {
        dtype: DT_FLOAT
        tensor_shape {
          dim {
            size: 64
          }
        }
        float_val: 0.0
      }
    }
  }
}
node {
  name: "DS-CNN/conv_1/biases"
  op: "VariableV2"
  attr {
    key: "_class"
    value {
      list {
        s: "loc:@DS-CNN/conv_1/biases"
      }
    }
  }
  attr {
    key: "container"
    value {
      s: ""
    }
  }
  attr {
    key: "dtype"
    value {
      type: DT_FLOAT
    }
  }
  attr {
    key: "shape"
    value {
      shape {
        dim {
          size: 64
        }
      }
    }
  }
  attr {
    key: "shared_name"
    value {
      s: ""
    }
  }
}
node {
  name: "DS-CNN/conv_1/biases/Assign"
  op: "Assign"
  input: "DS-CNN/conv_1/biases"
  input: "DS-CNN/conv_1/biases/Initializer/zeros"
  attr {
    key: "T"
    value {
      type: DT_FLOAT
    }
  }
  attr {
    key: "_class"
    value {
      list {
        s: "loc:@DS-CNN/conv_1/biases"
      }
    }
  }
  attr {
    key: "use_locking"
    value {
      b: true
    }
  }
  attr {
    key: "validate_shape"
    value {
      b: true
    }
  }
}
node {
  name: "DS-CNN/conv_1/biases/read"
  op: "Identity"
  input: "DS-CNN/conv_1/biases"
  attr {
    key: "T"
    value {
      type: DT_FLOAT
    }
  }
  attr {
    key: "_class"
    value {
      list {
        s: "loc:@DS-CNN/conv_1/biases"
      }
    }
  }
}
node {
  name: "DS-CNN/conv_1/dilation_rate"
  op: "Const"
  attr {
    key: "dtype"
    value {
      type: DT_INT32
    }
  }
  attr {
    key: "value"
    value {
      tensor {
        dtype: DT_INT32
        tensor_shape {
          dim {
            size: 2
          }
        }
        tensor_content: "\001\000\000\000\001\000\000\000"
      }
    }
  }
}
node {
  name: "DS-CNN/conv_1/Conv2D"
  op: "Conv2D"
  input: "Reshape_1"
  input: "DS-CNN/conv_1/weights/read"
  attr {
    key: "T"
    value {
      type: DT_FLOAT
    }
  }
  attr {
    key: "data_format"
    value {
      s: "NHWC"
    }
  }
  attr {
    key: "dilations"
    value {
      list {
        i: 1
        i: 1
        i: 1
        i: 1
      }
    }
  }
  attr {
    key: "explicit_paddings"
    value {
      list {
      }
    }
  }
  attr {
    key: "padding"
    value {
      s: "VALID"
    }
  }
  attr {
    key: "strides"
    value {
      list {
        i: 1
        i: 2
        i: 2
        i: 1
      }
    }
  }
  attr {
    key: "use_cudnn_on_gpu"
    value {
      b: true
    }
  }
}
node {
  name: "DS-CNN/conv_1/BiasAdd"
  op: "BiasAdd"
  input: "DS-CNN/conv_1/Conv2D"
  input: "DS-CNN/conv_1/biases/read"
  attr {
    key: "T"
    value {
      type: DT_FLOAT
    }
  }
  attr {
    key: "data_format"
    value {
      s: "NHWC"
    }
  }
}
node {
  name: "DS-CNN/conv_1/batch_norm/beta/Initializer/zeros"
  op: "Const"
  attr {
    key: "_class"
    value {
      list {
        s: "loc:@DS-CNN/conv_1/batch_norm/beta"
      }
    }
  }
  attr {
    key: "dtype"
    value {
      type: DT_FLOAT
    }
  }
  attr {
    key: "value"
    value {
      tensor {
        dtype: DT_FLOAT
        tensor_shape {
          dim {
            size: 64
          }
        }
        float_val: 0.0
      }
    }
  }
}
node {
  name: "DS-CNN/conv_1/batch_norm/beta"
  op: "VariableV2"
  attr {
    key: "_class"
    value {
      list {
        s: "loc:@DS-CNN/conv_1/batch_norm/beta"
      }
    }
  }
  attr {
    key: "container"
    value {
      s: ""
    }
  }
  attr {
    key: "dtype"
    value {
      type: DT_FLOAT
    }
  }
  attr {
    key: "shape"
    value {
      shape {
        dim {
          size: 64
        }
      }
    }
  }
  attr {
    key: "shared_name"
    value {
      s: ""
    }
  }
}
node {
  name: "DS-CNN/conv_1/batch_norm/beta/Assign"
  op: "Assign"
  input: "DS-CNN/conv_1/batch_norm/beta"
  input: "DS-CNN/conv_1/batch_norm/beta/Initializer/zeros"
  attr {
    key: "T"
    value {
      type: DT_FLOAT
    }
  }
  attr {
    key: "_class"
    value {
      list {
        s: "loc:@DS-CNN/conv_1/batch_norm/beta"
      }
    }
  }
  attr {
    key: "use_locking"
    value {
      b: true
    }
  }
  attr {
    key: "validate_shape"
    value {
      b: true
    }
  }
}
node {
  name: "DS-CNN/conv_1/batch_norm/beta/read"
  op: "Identity"
  input: "DS-CNN/conv_1/batch_norm/beta"
  attr {
    key: "T"
    value {
      type: DT_FLOAT
    }
  }
  attr {
    key: "_class"
    value {
      list {
        s: "loc:@DS-CNN/conv_1/batch_norm/beta"
      }
    }
  }
}
node {
  name: "DS-CNN/conv_1/batch_norm/Const"
  op: "Const"
  attr {
    key: "dtype"
    value {
      type: DT_FLOAT
    }
  }
  attr {
    key: "value"
    value {
      tensor {
        dtype: DT_FLOAT
        tensor_shape {
          dim {
            size: 64
          }
        }
        float_val: 1.0
      }
    }
  }
}
node {
  name: "DS-CNN/conv_1/batch_norm/moving_mean/Initializer/zeros"
  op: "Const"
  attr {
    key: "_class"
    value {
      list {
        s: "loc:@DS-CNN/conv_1/batch_norm/moving_mean"
      }
    }
  }
  attr {
    key: "dtype"
    value {
      type: DT_FLOAT
    }
  }
  attr {
    key: "value"
    value {
      tensor {
        dtype: DT_FLOAT
        tensor_shape {
          dim {
            size: 64
          }
        }
        float_val: 0.0
      }
    }
  }
}
node {
  name: "DS-CNN/conv_1/batch_norm/moving_mean"
  op: "VariableV2"
  attr {
    key: "_class"
    value {
      list {
        s: "loc:@DS-CNN/conv_1/batch_norm/moving_mean"
      }
    }
  }
  attr {
    key: "container"
    value {
      s: ""
    }
  }
  attr {
    key: "dtype"
    value {
      type: DT_FLOAT
    }
  }
  attr {
    key: "shape"
    value {
      shape {
        dim {
          size: 64
        }
      }
    }
  }
  attr {
    key: "shared_name"
    value {
      s: ""
    }
  }
}
node {
  name: "DS-CNN/conv_1/batch_norm/moving_mean/Assign"
  op: "Assign"
  input: "DS-CNN/conv_1/batch_norm/moving_mean"
  input: "DS-CNN/conv_1/batch_norm/moving_mean/Initializer/zeros"
  attr {
    key: "T"
    value {
      type: DT_FLOAT
    }
  }
  attr {
    key: "_class"
    value {
      list {
        s: "loc:@DS-CNN/conv_1/batch_norm/moving_mean"
      }
    }
  }
  attr {
    key: "use_locking"
    value {
      b: true
    }
  }
  attr {
    key: "validate_shape"
    value {
      b: true
    }
  }
}
node {
  name: "DS-CNN/conv_1/batch_norm/moving_mean/read"
  op: "Identity"
  input: "DS-CNN/conv_1/batch_norm/moving_mean"
  attr {
    key: "T"
    value {
      type: DT_FLOAT
    }
  }
  attr {
    key: "_class"
    value {
      list {
        s: "loc:@DS-CNN/conv_1/batch_norm/moving_mean"
      }
    }
  }
}
node {
  name: "DS-CNN/conv_1/batch_norm/moving_variance/Initializer/ones"
  op: "Const"
  attr {
    key: "_class"
    value {
      list {
        s: "loc:@DS-CNN/conv_1/batch_norm/moving_variance"
      }
    }
  }
  attr {
    key: "dtype"
    value {
      type: DT_FLOAT
    }
  }
  attr {
    key: "value"
    value {
      tensor {
        dtype: DT_FLOAT
        tensor_shape {
          dim {
            size: 64
          }
        }
        float_val: 1.0
      }
    }
  }
}
node {
  name: "DS-CNN/conv_1/batch_norm/moving_variance"
  op: "VariableV2"
  attr {
    key: "_class"
    value {
      list {
        s: "loc:@DS-CNN/conv_1/batch_norm/moving_variance"
      }
    }
  }
  attr {
    key: "container"
    value {
      s: ""
    }
  }
  attr {
    key: "dtype"
    value {
      type: DT_FLOAT
    }
  }
  attr {
    key: "shape"
    value {
      shape {
        dim {
          size: 64
        }
      }
    }
  }
  attr {
    key: "shared_name"
    value {
      s: ""
    }
  }
}
node {
  name: "DS-CNN/conv_1/batch_norm/moving_variance/Assign"
  op: "Assign"
  input: "DS-CNN/conv_1/batch_norm/moving_variance"
  input: "DS-CNN/conv_1/batch_norm/moving_variance/Initializer/ones"
  attr {
    key: "T"
    value {
      type: DT_FLOAT
    }
  }
  attr {
    key: "_class"
    value {
      list {
        s: "loc:@DS-CNN/conv_1/batch_norm/moving_variance"
      }
    }
  }
  attr {
    key: "use_locking"
    value {
      b: true
    }
  }
  attr {
    key: "validate_shape"
    value {
      b: true
    }
  }
}
node {
  name: "DS-CNN/conv_1/batch_norm/moving_variance/read"
  op: "Identity"
  input: "DS-CNN/conv_1/batch_norm/moving_variance"
  attr {
    key: "T"
    value {
      type: DT_FLOAT
    }
  }
  attr {
    key: "_class"
    value {
      list {
        s: "loc:@DS-CNN/conv_1/batch_norm/moving_variance"
      }
    }
  }
}
node {
  name: "DS-CNN/conv_1/batch_norm/Const_1"
  op: "Const"
  attr {
    key: "dtype"
    value {
      type: DT_FLOAT
    }
  }
  attr {
    key: "value"
    value {
      tensor {
        dtype: DT_FLOAT
        tensor_shape {
          dim {
          }
        }
      }
    }
  }
}
node {
  name: "DS-CNN/conv_1/batch_norm/Const_2"
  op: "Const"
  attr {
    key: "dtype"
    value {
      type: DT_FLOAT
    }
  }
  attr {
    key: "value"
    value {
      tensor {
        dtype: DT_FLOAT
        tensor_shape {
          dim {
          }
        }
      }
    }
  }
}
node {
  name: "DS-CNN/conv_1/batch_norm/FusedBatchNorm"
  op: "FusedBatchNorm"
  input: "DS-CNN/conv_1/BiasAdd"
  input: "DS-CNN/conv_1/batch_norm/Const"
  input: "DS-CNN/conv_1/batch_norm/beta/read"
  input: "DS-CNN/conv_1/batch_norm/Const_1"
  input: "DS-CNN/conv_1/batch_norm/Const_2"
  attr {
    key: "T"
    value {
      type: DT_FLOAT
    }
  }
  attr {
    key: "data_format"
    value {
      s: "NHWC"
    }
  }
  attr {
    key: "epsilon"
    value {
      f: 0.0010000000474974513
    }
  }
  attr {
    key: "is_training"
    value {
      b: true
    }
  }
}
node {
  name: "DS-CNN/conv_1/batch_norm/AssignMovingAvg/decay"
  op: "Const"
  attr {
    key: "dtype"
    value {
      type: DT_FLOAT
    }
  }
  attr {
    key: "value"
    value {
      tensor {
        dtype: DT_FLOAT
        tensor_shape {
        }
        float_val: 0.03999999910593033
      }
    }
  }
}
node {
  name: "DS-CNN/conv_1/batch_norm/AssignMovingAvg/sub"
  op: "Sub"
  input: "DS-CNN/conv_1/batch_norm/moving_mean/read"
  input: "DS-CNN/conv_1/batch_norm/FusedBatchNorm:1"
  attr {
    key: "T"
    value {
      type: DT_FLOAT
    }
  }
}
node {
  name: "DS-CNN/conv_1/batch_norm/AssignMovingAvg/mul"
  op: "Mul"
  input: "DS-CNN/conv_1/batch_norm/AssignMovingAvg/sub"
  input: "DS-CNN/conv_1/batch_norm/AssignMovingAvg/decay"
  attr {
    key: "T"
    value {
      type: DT_FLOAT
    }
  }
}
node {
  name: "DS-CNN/conv_1/batch_norm/AssignMovingAvg"
  op: "AssignSub"
  input: "DS-CNN/conv_1/batch_norm/moving_mean"
  input: "DS-CNN/conv_1/batch_norm/AssignMovingAvg/mul"
  attr {
    key: "T"
    value {
      type: DT_FLOAT
    }
  }
  attr {
    key: "_class"
    value {
      list {
        s: "loc:@DS-CNN/conv_1/batch_norm/moving_mean"
      }
    }
  }
  attr {
    key: "use_locking"
    value {
      b: false
    }
  }
}
node {
  name: "DS-CNN/conv_1/batch_norm/AssignMovingAvg_1/decay"
  op: "Const"
  attr {
    key: "dtype"
    value {
      type: DT_FLOAT
    }
  }
  attr {
    key: "value"
    value {
      tensor {
        dtype: DT_FLOAT
        tensor_shape {
        }
        float_val: 0.03999999910593033
      }
    }
  }
}
node {
  name: "DS-CNN/conv_1/batch_norm/AssignMovingAvg_1/sub"
  op: "Sub"
  input: "DS-CNN/conv_1/batch_norm/moving_variance/read"
  input: "DS-CNN/conv_1/batch_norm/FusedBatchNorm:2"
  attr {
    key: "T"
    value {
      type: DT_FLOAT
    }
  }
}
node {
  name: "DS-CNN/conv_1/batch_norm/AssignMovingAvg_1/mul"
  op: "Mul"
  input: "DS-CNN/conv_1/batch_norm/AssignMovingAvg_1/sub"
  input: "DS-CNN/conv_1/batch_norm/AssignMovingAvg_1/decay"
  attr {
    key: "T"
    value {
      type: DT_FLOAT
    }
  }
}
node {
  name: "DS-CNN/conv_1/batch_norm/AssignMovingAvg_1"
  op: "AssignSub"
  input: "DS-CNN/conv_1/batch_norm/moving_variance"
  input: "DS-CNN/conv_1/batch_norm/AssignMovingAvg_1/mul"
  attr {
    key: "T"
    value {
      type: DT_FLOAT
    }
  }
  attr {
    key: "_class"
    value {
      list {
        s: "loc:@DS-CNN/conv_1/batch_norm/moving_variance"
      }
    }
  }
  attr {
    key: "use_locking"
    value {
      b: false
    }
  }
}
node {
  name: "DS-CNN/conv_1/batch_norm/Identity"
  op: "Identity"
  input: "DS-CNN/conv_1/batch_norm/FusedBatchNorm"
  input: "^DS-CNN/conv_1/batch_norm/AssignMovingAvg"
  input: "^DS-CNN/conv_1/batch_norm/AssignMovingAvg_1"
  attr {
    key: "T"
    value {
      type: DT_FLOAT
    }
  }
}
node {
  name: "DS-CNN/conv_1/batch_norm/Relu"
  op: "Relu"
  input: "DS-CNN/conv_1/batch_norm/Identity"
  attr {
    key: "T"
    value {
      type: DT_FLOAT
    }
  }
}
node {
  name: "DS-CNN/conv_ds_1/dw_conv/depthwise_weights/Initializer/random_uniform/shape"
  op: "Const"
  attr {
    key: "_class"
    value {
      list {
        s: "loc:@DS-CNN/conv_ds_1/dw_conv/depthwise_weights"
      }
    }
  }
  attr {
    key: "dtype"
    value {
      type: DT_INT32
    }
  }
  attr {
    key: "value"
    value {
      tensor {
        dtype: DT_INT32
        tensor_shape {
          dim {
            size: 4
          }
        }
        tensor_content: "\003\000\000\000\003\000\000\000@\000\000\000\001\000\000\000"
      }
    }
  }
}
node {
  name: "DS-CNN/conv_ds_1/dw_conv/depthwise_weights/Initializer/random_uniform/min"
  op: "Const"
  attr {
    key: "_class"
    value {
      list {
        s: "loc:@DS-CNN/conv_ds_1/dw_conv/depthwise_weights"
      }
    }
  }
  attr {
    key: "dtype"
    value {
      type: DT_FLOAT
    }
  }
  attr {
    key: "value"
    value {
      tensor {
        dtype: DT_FLOAT
        tensor_shape {
        }
        float_val: -0.10127393901348114
      }
    }
  }
}
node {
  name: "DS-CNN/conv_ds_1/dw_conv/depthwise_weights/Initializer/random_uniform/max"
  op: "Const"
  attr {
    key: "_class"
    value {
      list {
        s: "loc:@DS-CNN/conv_ds_1/dw_conv/depthwise_weights"
      }
    }
  }
  attr {
    key: "dtype"
    value {
      type: DT_FLOAT
    }
  }
  attr {
    key: "value"
    value {
      tensor {
        dtype: DT_FLOAT
        tensor_shape {
        }
        float_val: 0.10127393901348114
      }
    }
  }
}
node {
  name: "DS-CNN/conv_ds_1/dw_conv/depthwise_weights/Initializer/random_uniform/RandomUniform"
  op: "RandomUniform"
  input: "DS-CNN/conv_ds_1/dw_conv/depthwise_weights/Initializer/random_uniform/shape"
  attr {
    key: "T"
    value {
      type: DT_INT32
    }
  }
  attr {
    key: "_class"
    value {
      list {
        s: "loc:@DS-CNN/conv_ds_1/dw_conv/depthwise_weights"
      }
    }
  }
  attr {
    key: "dtype"
    value {
      type: DT_FLOAT
    }
  }
  attr {
    key: "seed"
    value {
      i: 0
    }
  }
  attr {
    key: "seed2"
    value {
      i: 0
    }
  }
}
node {
  name: "DS-CNN/conv_ds_1/dw_conv/depthwise_weights/Initializer/random_uniform/sub"
  op: "Sub"
  input: "DS-CNN/conv_ds_1/dw_conv/depthwise_weights/Initializer/random_uniform/max"
  input: "DS-CNN/conv_ds_1/dw_conv/depthwise_weights/Initializer/random_uniform/min"
  attr {
    key: "T"
    value {
      type: DT_FLOAT
    }
  }
  attr {
    key: "_class"
    value {
      list {
        s: "loc:@DS-CNN/conv_ds_1/dw_conv/depthwise_weights"
      }
    }
  }
}
node {
  name: "DS-CNN/conv_ds_1/dw_conv/depthwise_weights/Initializer/random_uniform/mul"
  op: "Mul"
  input: "DS-CNN/conv_ds_1/dw_conv/depthwise_weights/Initializer/random_uniform/RandomUniform"
  input: "DS-CNN/conv_ds_1/dw_conv/depthwise_weights/Initializer/random_uniform/sub"
  attr {
    key: "T"
    value {
      type: DT_FLOAT
    }
  }
  attr {
    key: "_class"
    value {
      list {
        s: "loc:@DS-CNN/conv_ds_1/dw_conv/depthwise_weights"
      }
    }
  }
}
node {
  name: "DS-CNN/conv_ds_1/dw_conv/depthwise_weights/Initializer/random_uniform"
  op: "Add"
  input: "DS-CNN/conv_ds_1/dw_conv/depthwise_weights/Initializer/random_uniform/mul"
  input: "DS-CNN/conv_ds_1/dw_conv/depthwise_weights/Initializer/random_uniform/min"
  attr {
    key: "T"
    value {
      type: DT_FLOAT
    }
  }
  attr {
    key: "_class"
    value {
      list {
        s: "loc:@DS-CNN/conv_ds_1/dw_conv/depthwise_weights"
      }
    }
  }
}
node {
  name: "DS-CNN/conv_ds_1/dw_conv/depthwise_weights"
  op: "VariableV2"
  attr {
    key: "_class"
    value {
      list {
        s: "loc:@DS-CNN/conv_ds_1/dw_conv/depthwise_weights"
      }
    }
  }
  attr {
    key: "container"
    value {
      s: ""
    }
  }
  attr {
    key: "dtype"
    value {
      type: DT_FLOAT
    }
  }
  attr {
    key: "shape"
    value {
      shape {
        dim {
          size: 3
        }
        dim {
          size: 3
        }
        dim {
          size: 64
        }
        dim {
          size: 1
        }
      }
    }
  }
  attr {
    key: "shared_name"
    value {
      s: ""
    }
  }
}
node {
  name: "DS-CNN/conv_ds_1/dw_conv/depthwise_weights/Assign"
  op: "Assign"
  input: "DS-CNN/conv_ds_1/dw_conv/depthwise_weights"
  input: "DS-CNN/conv_ds_1/dw_conv/depthwise_weights/Initializer/random_uniform"
  attr {
    key: "T"
    value {
      type: DT_FLOAT
    }
  }
  attr {
    key: "_class"
    value {
      list {
        s: "loc:@DS-CNN/conv_ds_1/dw_conv/depthwise_weights"
      }
    }
  }
  attr {
    key: "use_locking"
    value {
      b: true
    }
  }
  attr {
    key: "validate_shape"
    value {
      b: true
    }
  }
}
node {
  name: "DS-CNN/conv_ds_1/dw_conv/depthwise_weights/read"
  op: "Identity"
  input: "DS-CNN/conv_ds_1/dw_conv/depthwise_weights"
  attr {
    key: "T"
    value {
      type: DT_FLOAT
    }
  }
  attr {
    key: "_class"
    value {
      list {
        s: "loc:@DS-CNN/conv_ds_1/dw_conv/depthwise_weights"
      }
    }
  }
}
node {
  name: "DS-CNN/conv_ds_1/dw_conv/depthwise/Shape"
  op: "Const"
  attr {
    key: "dtype"
    value {
      type: DT_INT32
    }
  }
  attr {
    key: "value"
    value {
      tensor {
        dtype: DT_INT32
        tensor_shape {
          dim {
            size: 4
          }
        }
        tensor_content: "\003\000\000\000\003\000\000\000@\000\000\000\001\000\000\000"
      }
    }
  }
}
node {
  name: "DS-CNN/conv_ds_1/dw_conv/depthwise/dilation_rate"
  op: "Const"
  attr {
    key: "dtype"
    value {
      type: DT_INT32
    }
  }
  attr {
    key: "value"
    value {
      tensor {
        dtype: DT_INT32
        tensor_shape {
          dim {
            size: 2
          }
        }
        tensor_content: "\001\000\000\000\001\000\000\000"
      }
    }
  }
}
node {
  name: "DS-CNN/conv_ds_1/dw_conv/depthwise"
  op: "DepthwiseConv2dNative"
  input: "DS-CNN/conv_1/batch_norm/Relu"
  input: "DS-CNN/conv_ds_1/dw_conv/depthwise_weights/read"
  attr {
    key: "T"
    value {
      type: DT_FLOAT
    }
  }
  attr {
    key: "data_format"
    value {
      s: "NHWC"
    }
  }
  attr {
    key: "dilations"
    value {
      list {
        i: 1
        i: 1
        i: 1
        i: 1
      }
    }
  }
  attr {
    key: "padding"
    value {
      s: "VALID"
    }
  }
  attr {
    key: "strides"
    value {
      list {
        i: 1
        i: 1
        i: 1
        i: 1
      }
    }
  }
}
node {
  name: "DS-CNN/conv_ds_1/dw_conv/biases/Initializer/zeros"
  op: "Const"
  attr {
    key: "_class"
    value {
      list {
        s: "loc:@DS-CNN/conv_ds_1/dw_conv/biases"
      }
    }
  }
  attr {
    key: "dtype"
    value {
      type: DT_FLOAT
    }
  }
  attr {
    key: "value"
    value {
      tensor {
        dtype: DT_FLOAT
        tensor_shape {
          dim {
            size: 64
          }
        }
        float_val: 0.0
      }
    }
  }
}
node {
  name: "DS-CNN/conv_ds_1/dw_conv/biases"
  op: "VariableV2"
  attr {
    key: "_class"
    value {
      list {
        s: "loc:@DS-CNN/conv_ds_1/dw_conv/biases"
      }
    }
  }
  attr {
    key: "container"
    value {
      s: ""
    }
  }
  attr {
    key: "dtype"
    value {
      type: DT_FLOAT
    }
  }
  attr {
    key: "shape"
    value {
      shape {
        dim {
          size: 64
        }
      }
    }
  }
  attr {
    key: "shared_name"
    value {
      s: ""
    }
  }
}
node {
  name: "DS-CNN/conv_ds_1/dw_conv/biases/Assign"
  op: "Assign"
  input: "DS-CNN/conv_ds_1/dw_conv/biases"
  input: "DS-CNN/conv_ds_1/dw_conv/biases/Initializer/zeros"
  attr {
    key: "T"
    value {
      type: DT_FLOAT
    }
  }
  attr {
    key: "_class"
    value {
      list {
        s: "loc:@DS-CNN/conv_ds_1/dw_conv/biases"
      }
    }
  }
  attr {
    key: "use_locking"
    value {
      b: true
    }
  }
  attr {
    key: "validate_shape"
    value {
      b: true
    }
  }
}
node {
  name: "DS-CNN/conv_ds_1/dw_conv/biases/read"
  op: "Identity"
  input: "DS-CNN/conv_ds_1/dw_conv/biases"
  attr {
    key: "T"
    value {
      type: DT_FLOAT
    }
  }
  attr {
    key: "_class"
    value {
      list {
        s: "loc:@DS-CNN/conv_ds_1/dw_conv/biases"
      }
    }
  }
}
node {
  name: "DS-CNN/conv_ds_1/dw_conv/BiasAdd"
  op: "BiasAdd"
  input: "DS-CNN/conv_ds_1/dw_conv/depthwise"
  input: "DS-CNN/conv_ds_1/dw_conv/biases/read"
  attr {
    key: "T"
    value {
      type: DT_FLOAT
    }
  }
  attr {
    key: "data_format"
    value {
      s: "NHWC"
    }
  }
}
node {
  name: "DS-CNN/conv_ds_1/dw_conv/batch_norm/beta/Initializer/zeros"
  op: "Const"
  attr {
    key: "_class"
    value {
      list {
        s: "loc:@DS-CNN/conv_ds_1/dw_conv/batch_norm/beta"
      }
    }
  }
  attr {
    key: "dtype"
    value {
      type: DT_FLOAT
    }
  }
  attr {
    key: "value"
    value {
      tensor {
        dtype: DT_FLOAT
        tensor_shape {
          dim {
            size: 64
          }
        }
        float_val: 0.0
      }
    }
  }
}
node {
  name: "DS-CNN/conv_ds_1/dw_conv/batch_norm/beta"
  op: "VariableV2"
  attr {
    key: "_class"
    value {
      list {
        s: "loc:@DS-CNN/conv_ds_1/dw_conv/batch_norm/beta"
      }
    }
  }
  attr {
    key: "container"
    value {
      s: ""
    }
  }
  attr {
    key: "dtype"
    value {
      type: DT_FLOAT
    }
  }
  attr {
    key: "shape"
    value {
      shape {
        dim {
          size: 64
        }
      }
    }
  }
  attr {
    key: "shared_name"
    value {
      s: ""
    }
  }
}
node {
  name: "DS-CNN/conv_ds_1/dw_conv/batch_norm/beta/Assign"
  op: "Assign"
  input: "DS-CNN/conv_ds_1/dw_conv/batch_norm/beta"
  input: "DS-CNN/conv_ds_1/dw_conv/batch_norm/beta/Initializer/zeros"
  attr {
    key: "T"
    value {
      type: DT_FLOAT
    }
  }
  attr {
    key: "_class"
    value {
      list {
        s: "loc:@DS-CNN/conv_ds_1/dw_conv/batch_norm/beta"
      }
    }
  }
  attr {
    key: "use_locking"
    value {
      b: true
    }
  }
  attr {
    key: "validate_shape"
    value {
      b: true
    }
  }
}
node {
  name: "DS-CNN/conv_ds_1/dw_conv/batch_norm/beta/read"
  op: "Identity"
  input: "DS-CNN/conv_ds_1/dw_conv/batch_norm/beta"
  attr {
    key: "T"
    value {
      type: DT_FLOAT
    }
  }
  attr {
    key: "_class"
    value {
      list {
        s: "loc:@DS-CNN/conv_ds_1/dw_conv/batch_norm/beta"
      }
    }
  }
}
node {
  name: "DS-CNN/conv_ds_1/dw_conv/batch_norm/Const"
  op: "Const"
  attr {
    key: "dtype"
    value {
      type: DT_FLOAT
    }
  }
  attr {
    key: "value"
    value {
      tensor {
        dtype: DT_FLOAT
        tensor_shape {
          dim {
            size: 64
          }
        }
        float_val: 1.0
      }
    }
  }
}
node {
  name: "DS-CNN/conv_ds_1/dw_conv/batch_norm/moving_mean/Initializer/zeros"
  op: "Const"
  attr {
    key: "_class"
    value {
      list {
        s: "loc:@DS-CNN/conv_ds_1/dw_conv/batch_norm/moving_mean"
      }
    }
  }
  attr {
    key: "dtype"
    value {
      type: DT_FLOAT
    }
  }
  attr {
    key: "value"
    value {
      tensor {
        dtype: DT_FLOAT
        tensor_shape {
          dim {
            size: 64
          }
        }
        float_val: 0.0
      }
    }
  }
}
node {
  name: "DS-CNN/conv_ds_1/dw_conv/batch_norm/moving_mean"
  op: "VariableV2"
  attr {
    key: "_class"
    value {
      list {
        s: "loc:@DS-CNN/conv_ds_1/dw_conv/batch_norm/moving_mean"
      }
    }
  }
  attr {
    key: "container"
    value {
      s: ""
    }
  }
  attr {
    key: "dtype"
    value {
      type: DT_FLOAT
    }
  }
  attr {
    key: "shape"
    value {
      shape {
        dim {
          size: 64
        }
      }
    }
  }
  attr {
    key: "shared_name"
    value {
      s: ""
    }
  }
}
node {
  name: "DS-CNN/conv_ds_1/dw_conv/batch_norm/moving_mean/Assign"
  op: "Assign"
  input: "DS-CNN/conv_ds_1/dw_conv/batch_norm/moving_mean"
  input: "DS-CNN/conv_ds_1/dw_conv/batch_norm/moving_mean/Initializer/zeros"
  attr {
    key: "T"
    value {
      type: DT_FLOAT
    }
  }
  attr {
    key: "_class"
    value {
      list {
        s: "loc:@DS-CNN/conv_ds_1/dw_conv/batch_norm/moving_mean"
      }
    }
  }
  attr {
    key: "use_locking"
    value {
      b: true
    }
  }
  attr {
    key: "validate_shape"
    value {
      b: true
    }
  }
}
node {
  name: "DS-CNN/conv_ds_1/dw_conv/batch_norm/moving_mean/read"
  op: "Identity"
  input: "DS-CNN/conv_ds_1/dw_conv/batch_norm/moving_mean"
  attr {
    key: "T"
    value {
      type: DT_FLOAT
    }
  }
  attr {
    key: "_class"
    value {
      list {
        s: "loc:@DS-CNN/conv_ds_1/dw_conv/batch_norm/moving_mean"
      }
    }
  }
}
node {
  name: "DS-CNN/conv_ds_1/dw_conv/batch_norm/moving_variance/Initializer/ones"
  op: "Const"
  attr {
    key: "_class"
    value {
      list {
        s: "loc:@DS-CNN/conv_ds_1/dw_conv/batch_norm/moving_variance"
      }
    }
  }
  attr {
    key: "dtype"
    value {
      type: DT_FLOAT
    }
  }
  attr {
    key: "value"
    value {
      tensor {
        dtype: DT_FLOAT
        tensor_shape {
          dim {
            size: 64
          }
        }
        float_val: 1.0
      }
    }
  }
}
node {
  name: "DS-CNN/conv_ds_1/dw_conv/batch_norm/moving_variance"
  op: "VariableV2"
  attr {
    key: "_class"
    value {
      list {
        s: "loc:@DS-CNN/conv_ds_1/dw_conv/batch_norm/moving_variance"
      }
    }
  }
  attr {
    key: "container"
    value {
      s: ""
    }
  }
  attr {
    key: "dtype"
    value {
      type: DT_FLOAT
    }
  }
  attr {
    key: "shape"
    value {
      shape {
        dim {
          size: 64
        }
      }
    }
  }
  attr {
    key: "shared_name"
    value {
      s: ""
    }
  }
}
node {
  name: "DS-CNN/conv_ds_1/dw_conv/batch_norm/moving_variance/Assign"
  op: "Assign"
  input: "DS-CNN/conv_ds_1/dw_conv/batch_norm/moving_variance"
  input: "DS-CNN/conv_ds_1/dw_conv/batch_norm/moving_variance/Initializer/ones"
  attr {
    key: "T"
    value {
      type: DT_FLOAT
    }
  }
  attr {
    key: "_class"
    value {
      list {
        s: "loc:@DS-CNN/conv_ds_1/dw_conv/batch_norm/moving_variance"
      }
    }
  }
  attr {
    key: "use_locking"
    value {
      b: true
    }
  }
  attr {
    key: "validate_shape"
    value {
      b: true
    }
  }
}
node {
  name: "DS-CNN/conv_ds_1/dw_conv/batch_norm/moving_variance/read"
  op: "Identity"
  input: "DS-CNN/conv_ds_1/dw_conv/batch_norm/moving_variance"
  attr {
    key: "T"
    value {
      type: DT_FLOAT
    }
  }
  attr {
    key: "_class"
    value {
      list {
        s: "loc:@DS-CNN/conv_ds_1/dw_conv/batch_norm/moving_variance"
      }
    }
  }
}
node {
  name: "DS-CNN/conv_ds_1/dw_conv/batch_norm/Const_1"
  op: "Const"
  attr {
    key: "dtype"
    value {
      type: DT_FLOAT
    }
  }
  attr {
    key: "value"
    value {
      tensor {
        dtype: DT_FLOAT
        tensor_shape {
          dim {
          }
        }
      }
    }
  }
}
node {
  name: "DS-CNN/conv_ds_1/dw_conv/batch_norm/Const_2"
  op: "Const"
  attr {
    key: "dtype"
    value {
      type: DT_FLOAT
    }
  }
  attr {
    key: "value"
    value {
      tensor {
        dtype: DT_FLOAT
        tensor_shape {
          dim {
          }
        }
      }
    }
  }
}
node {
  name: "DS-CNN/conv_ds_1/dw_conv/batch_norm/FusedBatchNorm"
  op: "FusedBatchNorm"
  input: "DS-CNN/conv_ds_1/dw_conv/BiasAdd"
  input: "DS-CNN/conv_ds_1/dw_conv/batch_norm/Const"
  input: "DS-CNN/conv_ds_1/dw_conv/batch_norm/beta/read"
  input: "DS-CNN/conv_ds_1/dw_conv/batch_norm/Const_1"
  input: "DS-CNN/conv_ds_1/dw_conv/batch_norm/Const_2"
  attr {
    key: "T"
    value {
      type: DT_FLOAT
    }
  }
  attr {
    key: "data_format"
    value {
      s: "NHWC"
    }
  }
  attr {
    key: "epsilon"
    value {
      f: 0.0010000000474974513
    }
  }
  attr {
    key: "is_training"
    value {
      b: true
    }
  }
}
node {
  name: "DS-CNN/conv_ds_1/dw_conv/batch_norm/AssignMovingAvg/decay"
  op: "Const"
  attr {
    key: "dtype"
    value {
      type: DT_FLOAT
    }
  }
  attr {
    key: "value"
    value {
      tensor {
        dtype: DT_FLOAT
        tensor_shape {
        }
        float_val: 0.03999999910593033
      }
    }
  }
}
node {
  name: "DS-CNN/conv_ds_1/dw_conv/batch_norm/AssignMovingAvg/sub"
  op: "Sub"
  input: "DS-CNN/conv_ds_1/dw_conv/batch_norm/moving_mean/read"
  input: "DS-CNN/conv_ds_1/dw_conv/batch_norm/FusedBatchNorm:1"
  attr {
    key: "T"
    value {
      type: DT_FLOAT
    }
  }
}
node {
  name: "DS-CNN/conv_ds_1/dw_conv/batch_norm/AssignMovingAvg/mul"
  op: "Mul"
  input: "DS-CNN/conv_ds_1/dw_conv/batch_norm/AssignMovingAvg/sub"
  input: "DS-CNN/conv_ds_1/dw_conv/batch_norm/AssignMovingAvg/decay"
  attr {
    key: "T"
    value {
      type: DT_FLOAT
    }
  }
}
node {
  name: "DS-CNN/conv_ds_1/dw_conv/batch_norm/AssignMovingAvg"
  op: "AssignSub"
  input: "DS-CNN/conv_ds_1/dw_conv/batch_norm/moving_mean"
  input: "DS-CNN/conv_ds_1/dw_conv/batch_norm/AssignMovingAvg/mul"
  attr {
    key: "T"
    value {
      type: DT_FLOAT
    }
  }
  attr {
    key: "_class"
    value {
      list {
        s: "loc:@DS-CNN/conv_ds_1/dw_conv/batch_norm/moving_mean"
      }
    }
  }
  attr {
    key: "use_locking"
    value {
      b: false
    }
  }
}
node {
  name: "DS-CNN/conv_ds_1/dw_conv/batch_norm/AssignMovingAvg_1/decay"
  op: "Const"
  attr {
    key: "dtype"
    value {
      type: DT_FLOAT
    }
  }
  attr {
    key: "value"
    value {
      tensor {
        dtype: DT_FLOAT
        tensor_shape {
        }
        float_val: 0.03999999910593033
      }
    }
  }
}
node {
  name: "DS-CNN/conv_ds_1/dw_conv/batch_norm/AssignMovingAvg_1/sub"
  op: "Sub"
  input: "DS-CNN/conv_ds_1/dw_conv/batch_norm/moving_variance/read"
  input: "DS-CNN/conv_ds_1/dw_conv/batch_norm/FusedBatchNorm:2"
  attr {
    key: "T"
    value {
      type: DT_FLOAT
    }
  }
}
node {
  name: "DS-CNN/conv_ds_1/dw_conv/batch_norm/AssignMovingAvg_1/mul"
  op: "Mul"
  input: "DS-CNN/conv_ds_1/dw_conv/batch_norm/AssignMovingAvg_1/sub"
  input: "DS-CNN/conv_ds_1/dw_conv/batch_norm/AssignMovingAvg_1/decay"
  attr {
    key: "T"
    value {
      type: DT_FLOAT
    }
  }
}
node {
  name: "DS-CNN/conv_ds_1/dw_conv/batch_norm/AssignMovingAvg_1"
  op: "AssignSub"
  input: "DS-CNN/conv_ds_1/dw_conv/batch_norm/moving_variance"
  input: "DS-CNN/conv_ds_1/dw_conv/batch_norm/AssignMovingAvg_1/mul"
  attr {
    key: "T"
    value {
      type: DT_FLOAT
    }
  }
  attr {
    key: "_class"
    value {
      list {
        s: "loc:@DS-CNN/conv_ds_1/dw_conv/batch_norm/moving_variance"
      }
    }
  }
  attr {
    key: "use_locking"
    value {
      b: false
    }
  }
}
node {
  name: "DS-CNN/conv_ds_1/dw_conv/batch_norm/Identity"
  op: "Identity"
  input: "DS-CNN/conv_ds_1/dw_conv/batch_norm/FusedBatchNorm"
  input: "^DS-CNN/conv_ds_1/dw_conv/batch_norm/AssignMovingAvg"
  input: "^DS-CNN/conv_ds_1/dw_conv/batch_norm/AssignMovingAvg_1"
  attr {
    key: "T"
    value {
      type: DT_FLOAT
    }
  }
}
node {
  name: "DS-CNN/conv_ds_1/dw_conv/batch_norm/Relu"
  op: "Relu"
  input: "DS-CNN/conv_ds_1/dw_conv/batch_norm/Identity"
  attr {
    key: "T"
    value {
      type: DT_FLOAT
    }
  }
}
node {
  name: "DS-CNN/conv_ds_1/pw_conv/weights/Initializer/random_uniform/shape"
  op: "Const"
  attr {
    key: "_class"
    value {
      list {
        s: "loc:@DS-CNN/conv_ds_1/pw_conv/weights"
      }
    }
  }
  attr {
    key: "dtype"
    value {
      type: DT_INT32
    }
  }
  attr {
    key: "value"
    value {
      tensor {
        dtype: DT_INT32
        tensor_shape {
          dim {
            size: 4
          }
        }
        tensor_content: "\001\000\000\000\001\000\000\000@\000\000\000@\000\000\000"
      }
    }
  }
}
node {
  name: "DS-CNN/conv_ds_1/pw_conv/weights/Initializer/random_uniform/min"
  op: "Const"
  attr {
    key: "_class"
    value {
      list {
        s: "loc:@DS-CNN/conv_ds_1/pw_conv/weights"
      }
    }
  }
  attr {
    key: "dtype"
    value {
      type: DT_FLOAT
    }
  }
  attr {
    key: "value"
    value {
      tensor {
        dtype: DT_FLOAT
        tensor_shape {
        }
        float_val: -0.21650634706020355
      }
    }
  }
}
node {
  name: "DS-CNN/conv_ds_1/pw_conv/weights/Initializer/random_uniform/max"
  op: "Const"
  attr {
    key: "_class"
    value {
      list {
        s: "loc:@DS-CNN/conv_ds_1/pw_conv/weights"
      }
    }
  }
  attr {
    key: "dtype"
    value {
      type: DT_FLOAT
    }
  }
  attr {
    key: "value"
    value {
      tensor {
        dtype: DT_FLOAT
        tensor_shape {
        }
        float_val: 0.21650634706020355
      }
    }
  }
}
node {
  name: "DS-CNN/conv_ds_1/pw_conv/weights/Initializer/random_uniform/RandomUniform"
  op: "RandomUniform"
  input: "DS-CNN/conv_ds_1/pw_conv/weights/Initializer/random_uniform/shape"
  attr {
    key: "T"
    value {
      type: DT_INT32
    }
  }
  attr {
    key: "_class"
    value {
      list {
        s: "loc:@DS-CNN/conv_ds_1/pw_conv/weights"
      }
    }
  }
  attr {
    key: "dtype"
    value {
      type: DT_FLOAT
    }
  }
  attr {
    key: "seed"
    value {
      i: 0
    }
  }
  attr {
    key: "seed2"
    value {
      i: 0
    }
  }
}
node {
  name: "DS-CNN/conv_ds_1/pw_conv/weights/Initializer/random_uniform/sub"
  op: "Sub"
  input: "DS-CNN/conv_ds_1/pw_conv/weights/Initializer/random_uniform/max"
  input: "DS-CNN/conv_ds_1/pw_conv/weights/Initializer/random_uniform/min"
  attr {
    key: "T"
    value {
      type: DT_FLOAT
    }
  }
  attr {
    key: "_class"
    value {
      list {
        s: "loc:@DS-CNN/conv_ds_1/pw_conv/weights"
      }
    }
  }
}
node {
  name: "DS-CNN/conv_ds_1/pw_conv/weights/Initializer/random_uniform/mul"
  op: "Mul"
  input: "DS-CNN/conv_ds_1/pw_conv/weights/Initializer/random_uniform/RandomUniform"
  input: "DS-CNN/conv_ds_1/pw_conv/weights/Initializer/random_uniform/sub"
  attr {
    key: "T"
    value {
      type: DT_FLOAT
    }
  }
  attr {
    key: "_class"
    value {
      list {
        s: "loc:@DS-CNN/conv_ds_1/pw_conv/weights"
      }
    }
  }
}
node {
  name: "DS-CNN/conv_ds_1/pw_conv/weights/Initializer/random_uniform"
  op: "Add"
  input: "DS-CNN/conv_ds_1/pw_conv/weights/Initializer/random_uniform/mul"
  input: "DS-CNN/conv_ds_1/pw_conv/weights/Initializer/random_uniform/min"
  attr {
    key: "T"
    value {
      type: DT_FLOAT
    }
  }
  attr {
    key: "_class"
    value {
      list {
        s: "loc:@DS-CNN/conv_ds_1/pw_conv/weights"
      }
    }
  }
}
node {
  name: "DS-CNN/conv_ds_1/pw_conv/weights"
  op: "VariableV2"
  attr {
    key: "_class"
    value {
      list {
        s: "loc:@DS-CNN/conv_ds_1/pw_conv/weights"
      }
    }
  }
  attr {
    key: "container"
    value {
      s: ""
    }
  }
  attr {
    key: "dtype"
    value {
      type: DT_FLOAT
    }
  }
  attr {
    key: "shape"
    value {
      shape {
        dim {
          size: 1
        }
        dim {
          size: 1
        }
        dim {
          size: 64
        }
        dim {
          size: 64
        }
      }
    }
  }
  attr {
    key: "shared_name"
    value {
      s: ""
    }
  }
}
node {
  name: "DS-CNN/conv_ds_1/pw_conv/weights/Assign"
  op: "Assign"
  input: "DS-CNN/conv_ds_1/pw_conv/weights"
  input: "DS-CNN/conv_ds_1/pw_conv/weights/Initializer/random_uniform"
  attr {
    key: "T"
    value {
      type: DT_FLOAT
    }
  }
  attr {
    key: "_class"
    value {
      list {
        s: "loc:@DS-CNN/conv_ds_1/pw_conv/weights"
      }
    }
  }
  attr {
    key: "use_locking"
    value {
      b: true
    }
  }
  attr {
    key: "validate_shape"
    value {
      b: true
    }
  }
}
node {
  name: "DS-CNN/conv_ds_1/pw_conv/weights/read"
  op: "Identity"
  input: "DS-CNN/conv_ds_1/pw_conv/weights"
  attr {
    key: "T"
    value {
      type: DT_FLOAT
    }
  }
  attr {
    key: "_class"
    value {
      list {
        s: "loc:@DS-CNN/conv_ds_1/pw_conv/weights"
      }
    }
  }
}
node {
  name: "DS-CNN/conv_ds_1/pw_conv/biases/Initializer/zeros"
  op: "Const"
  attr {
    key: "_class"
    value {
      list {
        s: "loc:@DS-CNN/conv_ds_1/pw_conv/biases"
      }
    }
  }
  attr {
    key: "dtype"
    value {
      type: DT_FLOAT
    }
  }
  attr {
    key: "value"
    value {
      tensor {
        dtype: DT_FLOAT
        tensor_shape {
          dim {
            size: 64
          }
        }
        float_val: 0.0
      }
    }
  }
}
node {
  name: "DS-CNN/conv_ds_1/pw_conv/biases"
  op: "VariableV2"
  attr {
    key: "_class"
    value {
      list {
        s: "loc:@DS-CNN/conv_ds_1/pw_conv/biases"
      }
    }
  }
  attr {
    key: "container"
    value {
      s: ""
    }
  }
  attr {
    key: "dtype"
    value {
      type: DT_FLOAT
    }
  }
  attr {
    key: "shape"
    value {
      shape {
        dim {
          size: 64
        }
      }
    }
  }
  attr {
    key: "shared_name"
    value {
      s: ""
    }
  }
}
node {
  name: "DS-CNN/conv_ds_1/pw_conv/biases/Assign"
  op: "Assign"
  input: "DS-CNN/conv_ds_1/pw_conv/biases"
  input: "DS-CNN/conv_ds_1/pw_conv/biases/Initializer/zeros"
  attr {
    key: "T"
    value {
      type: DT_FLOAT
    }
  }
  attr {
    key: "_class"
    value {
      list {
        s: "loc:@DS-CNN/conv_ds_1/pw_conv/biases"
      }
    }
  }
  attr {
    key: "use_locking"
    value {
      b: true
    }
  }
  attr {
    key: "validate_shape"
    value {
      b: true
    }
  }
}
node {
  name: "DS-CNN/conv_ds_1/pw_conv/biases/read"
  op: "Identity"
  input: "DS-CNN/conv_ds_1/pw_conv/biases"
  attr {
    key: "T"
    value {
      type: DT_FLOAT
    }
  }
  attr {
    key: "_class"
    value {
      list {
        s: "loc:@DS-CNN/conv_ds_1/pw_conv/biases"
      }
    }
  }
}
node {
  name: "DS-CNN/conv_ds_1/pw_conv/dilation_rate"
  op: "Const"
  attr {
    key: "dtype"
    value {
      type: DT_INT32
    }
  }
  attr {
    key: "value"
    value {
      tensor {
        dtype: DT_INT32
        tensor_shape {
          dim {
            size: 2
          }
        }
        tensor_content: "\001\000\000\000\001\000\000\000"
      }
    }
  }
}
node {
  name: "DS-CNN/conv_ds_1/pw_conv/Conv2D"
  op: "Conv2D"
  input: "DS-CNN/conv_ds_1/dw_conv/batch_norm/Relu"
  input: "DS-CNN/conv_ds_1/pw_conv/weights/read"
  attr {
    key: "T"
    value {
      type: DT_FLOAT
    }
  }
  attr {
    key: "data_format"
    value {
      s: "NHWC"
    }
  }
  attr {
    key: "dilations"
    value {
      list {
        i: 1
        i: 1
        i: 1
        i: 1
      }
    }
  }
  attr {
    key: "explicit_paddings"
    value {
      list {
      }
    }
  }
  attr {
    key: "padding"
    value {
      s: "SAME"
    }
  }
  attr {
    key: "strides"
    value {
      list {
        i: 1
        i: 1
        i: 1
        i: 1
      }
    }
  }
  attr {
    key: "use_cudnn_on_gpu"
    value {
      b: true
    }
  }
}
node {
  name: "DS-CNN/conv_ds_1/pw_conv/BiasAdd"
  op: "BiasAdd"
  input: "DS-CNN/conv_ds_1/pw_conv/Conv2D"
  input: "DS-CNN/conv_ds_1/pw_conv/biases/read"
  attr {
    key: "T"
    value {
      type: DT_FLOAT
    }
  }
  attr {
    key: "data_format"
    value {
      s: "NHWC"
    }
  }
}
node {
  name: "DS-CNN/conv_ds_1/pw_conv/batch_norm/beta/Initializer/zeros"
  op: "Const"
  attr {
    key: "_class"
    value {
      list {
        s: "loc:@DS-CNN/conv_ds_1/pw_conv/batch_norm/beta"
      }
    }
  }
  attr {
    key: "dtype"
    value {
      type: DT_FLOAT
    }
  }
  attr {
    key: "value"
    value {
      tensor {
        dtype: DT_FLOAT
        tensor_shape {
          dim {
            size: 64
          }
        }
        float_val: 0.0
      }
    }
  }
}
node {
  name: "DS-CNN/conv_ds_1/pw_conv/batch_norm/beta"
  op: "VariableV2"
  attr {
    key: "_class"
    value {
      list {
        s: "loc:@DS-CNN/conv_ds_1/pw_conv/batch_norm/beta"
      }
    }
  }
  attr {
    key: "container"
    value {
      s: ""
    }
  }
  attr {
    key: "dtype"
    value {
      type: DT_FLOAT
    }
  }
  attr {
    key: "shape"
    value {
      shape {
        dim {
          size: 64
        }
      }
    }
  }
  attr {
    key: "shared_name"
    value {
      s: ""
    }
  }
}
node {
  name: "DS-CNN/conv_ds_1/pw_conv/batch_norm/beta/Assign"
  op: "Assign"
  input: "DS-CNN/conv_ds_1/pw_conv/batch_norm/beta"
  input: "DS-CNN/conv_ds_1/pw_conv/batch_norm/beta/Initializer/zeros"
  attr {
    key: "T"
    value {
      type: DT_FLOAT
    }
  }
  attr {
    key: "_class"
    value {
      list {
        s: "loc:@DS-CNN/conv_ds_1/pw_conv/batch_norm/beta"
      }
    }
  }
  attr {
    key: "use_locking"
    value {
      b: true
    }
  }
  attr {
    key: "validate_shape"
    value {
      b: true
    }
  }
}
node {
  name: "DS-CNN/conv_ds_1/pw_conv/batch_norm/beta/read"
  op: "Identity"
  input: "DS-CNN/conv_ds_1/pw_conv/batch_norm/beta"
  attr {
    key: "T"
    value {
      type: DT_FLOAT
    }
  }
  attr {
    key: "_class"
    value {
      list {
        s: "loc:@DS-CNN/conv_ds_1/pw_conv/batch_norm/beta"
      }
    }
  }
}
node {
  name: "DS-CNN/conv_ds_1/pw_conv/batch_norm/Const"
  op: "Const"
  attr {
    key: "dtype"
    value {
      type: DT_FLOAT
    }
  }
  attr {
    key: "value"
    value {
      tensor {
        dtype: DT_FLOAT
        tensor_shape {
          dim {
            size: 64
          }
        }
        float_val: 1.0
      }
    }
  }
}
node {
  name: "DS-CNN/conv_ds_1/pw_conv/batch_norm/moving_mean/Initializer/zeros"
  op: "Const"
  attr {
    key: "_class"
    value {
      list {
        s: "loc:@DS-CNN/conv_ds_1/pw_conv/batch_norm/moving_mean"
      }
    }
  }
  attr {
    key: "dtype"
    value {
      type: DT_FLOAT
    }
  }
  attr {
    key: "value"
    value {
      tensor {
        dtype: DT_FLOAT
        tensor_shape {
          dim {
            size: 64
          }
        }
        float_val: 0.0
      }
    }
  }
}
node {
  name: "DS-CNN/conv_ds_1/pw_conv/batch_norm/moving_mean"
  op: "VariableV2"
  attr {
    key: "_class"
    value {
      list {
        s: "loc:@DS-CNN/conv_ds_1/pw_conv/batch_norm/moving_mean"
      }
    }
  }
  attr {
    key: "container"
    value {
      s: ""
    }
  }
  attr {
    key: "dtype"
    value {
      type: DT_FLOAT
    }
  }
  attr {
    key: "shape"
    value {
      shape {
        dim {
          size: 64
        }
      }
    }
  }
  attr {
    key: "shared_name"
    value {
      s: ""
    }
  }
}
node {
  name: "DS-CNN/conv_ds_1/pw_conv/batch_norm/moving_mean/Assign"
  op: "Assign"
  input: "DS-CNN/conv_ds_1/pw_conv/batch_norm/moving_mean"
  input: "DS-CNN/conv_ds_1/pw_conv/batch_norm/moving_mean/Initializer/zeros"
  attr {
    key: "T"
    value {
      type: DT_FLOAT
    }
  }
  attr {
    key: "_class"
    value {
      list {
        s: "loc:@DS-CNN/conv_ds_1/pw_conv/batch_norm/moving_mean"
      }
    }
  }
  attr {
    key: "use_locking"
    value {
      b: true
    }
  }
  attr {
    key: "validate_shape"
    value {
      b: true
    }
  }
}
node {
  name: "DS-CNN/conv_ds_1/pw_conv/batch_norm/moving_mean/read"
  op: "Identity"
  input: "DS-CNN/conv_ds_1/pw_conv/batch_norm/moving_mean"
  attr {
    key: "T"
    value {
      type: DT_FLOAT
    }
  }
  attr {
    key: "_class"
    value {
      list {
        s: "loc:@DS-CNN/conv_ds_1/pw_conv/batch_norm/moving_mean"
      }
    }
  }
}
node {
  name: "DS-CNN/conv_ds_1/pw_conv/batch_norm/moving_variance/Initializer/ones"
  op: "Const"
  attr {
    key: "_class"
    value {
      list {
        s: "loc:@DS-CNN/conv_ds_1/pw_conv/batch_norm/moving_variance"
      }
    }
  }
  attr {
    key: "dtype"
    value {
      type: DT_FLOAT
    }
  }
  attr {
    key: "value"
    value {
      tensor {
        dtype: DT_FLOAT
        tensor_shape {
          dim {
            size: 64
          }
        }
        float_val: 1.0
      }
    }
  }
}
node {
  name: "DS-CNN/conv_ds_1/pw_conv/batch_norm/moving_variance"
  op: "VariableV2"
  attr {
    key: "_class"
    value {
      list {
        s: "loc:@DS-CNN/conv_ds_1/pw_conv/batch_norm/moving_variance"
      }
    }
  }
  attr {
    key: "container"
    value {
      s: ""
    }
  }
  attr {
    key: "dtype"
    value {
      type: DT_FLOAT
    }
  }
  attr {
    key: "shape"
    value {
      shape {
        dim {
          size: 64
        }
      }
    }
  }
  attr {
    key: "shared_name"
    value {
      s: ""
    }
  }
}
node {
  name: "DS-CNN/conv_ds_1/pw_conv/batch_norm/moving_variance/Assign"
  op: "Assign"
  input: "DS-CNN/conv_ds_1/pw_conv/batch_norm/moving_variance"
  input: "DS-CNN/conv_ds_1/pw_conv/batch_norm/moving_variance/Initializer/ones"
  attr {
    key: "T"
    value {
      type: DT_FLOAT
    }
  }
  attr {
    key: "_class"
    value {
      list {
        s: "loc:@DS-CNN/conv_ds_1/pw_conv/batch_norm/moving_variance"
      }
    }
  }
  attr {
    key: "use_locking"
    value {
      b: true
    }
  }
  attr {
    key: "validate_shape"
    value {
      b: true
    }
  }
}
node {
  name: "DS-CNN/conv_ds_1/pw_conv/batch_norm/moving_variance/read"
  op: "Identity"
  input: "DS-CNN/conv_ds_1/pw_conv/batch_norm/moving_variance"
  attr {
    key: "T"
    value {
      type: DT_FLOAT
    }
  }
  attr {
    key: "_class"
    value {
      list {
        s: "loc:@DS-CNN/conv_ds_1/pw_conv/batch_norm/moving_variance"
      }
    }
  }
}
node {
  name: "DS-CNN/conv_ds_1/pw_conv/batch_norm/Const_1"
  op: "Const"
  attr {
    key: "dtype"
    value {
      type: DT_FLOAT
    }
  }
  attr {
    key: "value"
    value {
      tensor {
        dtype: DT_FLOAT
        tensor_shape {
          dim {
          }
        }
      }
    }
  }
}
node {
  name: "DS-CNN/conv_ds_1/pw_conv/batch_norm/Const_2"
  op: "Const"
  attr {
    key: "dtype"
    value {
      type: DT_FLOAT
    }
  }
  attr {
    key: "value"
    value {
      tensor {
        dtype: DT_FLOAT
        tensor_shape {
          dim {
          }
        }
      }
    }
  }
}
node {
  name: "DS-CNN/conv_ds_1/pw_conv/batch_norm/FusedBatchNorm"
  op: "FusedBatchNorm"
  input: "DS-CNN/conv_ds_1/pw_conv/BiasAdd"
  input: "DS-CNN/conv_ds_1/pw_conv/batch_norm/Const"
  input: "DS-CNN/conv_ds_1/pw_conv/batch_norm/beta/read"
  input: "DS-CNN/conv_ds_1/pw_conv/batch_norm/Const_1"
  input: "DS-CNN/conv_ds_1/pw_conv/batch_norm/Const_2"
  attr {
    key: "T"
    value {
      type: DT_FLOAT
    }
  }
  attr {
    key: "data_format"
    value {
      s: "NHWC"
    }
  }
  attr {
    key: "epsilon"
    value {
      f: 0.0010000000474974513
    }
  }
  attr {
    key: "is_training"
    value {
      b: true
    }
  }
}
node {
  name: "DS-CNN/conv_ds_1/pw_conv/batch_norm/AssignMovingAvg/decay"
  op: "Const"
  attr {
    key: "dtype"
    value {
      type: DT_FLOAT
    }
  }
  attr {
    key: "value"
    value {
      tensor {
        dtype: DT_FLOAT
        tensor_shape {
        }
        float_val: 0.03999999910593033
      }
    }
  }
}
node {
  name: "DS-CNN/conv_ds_1/pw_conv/batch_norm/AssignMovingAvg/sub"
  op: "Sub"
  input: "DS-CNN/conv_ds_1/pw_conv/batch_norm/moving_mean/read"
  input: "DS-CNN/conv_ds_1/pw_conv/batch_norm/FusedBatchNorm:1"
  attr {
    key: "T"
    value {
      type: DT_FLOAT
    }
  }
}
node {
  name: "DS-CNN/conv_ds_1/pw_conv/batch_norm/AssignMovingAvg/mul"
  op: "Mul"
  input: "DS-CNN/conv_ds_1/pw_conv/batch_norm/AssignMovingAvg/sub"
  input: "DS-CNN/conv_ds_1/pw_conv/batch_norm/AssignMovingAvg/decay"
  attr {
    key: "T"
    value {
      type: DT_FLOAT
    }
  }
}
node {
  name: "DS-CNN/conv_ds_1/pw_conv/batch_norm/AssignMovingAvg"
  op: "AssignSub"
  input: "DS-CNN/conv_ds_1/pw_conv/batch_norm/moving_mean"
  input: "DS-CNN/conv_ds_1/pw_conv/batch_norm/AssignMovingAvg/mul"
  attr {
    key: "T"
    value {
      type: DT_FLOAT
    }
  }
  attr {
    key: "_class"
    value {
      list {
        s: "loc:@DS-CNN/conv_ds_1/pw_conv/batch_norm/moving_mean"
      }
    }
  }
  attr {
    key: "use_locking"
    value {
      b: false
    }
  }
}
node {
  name: "DS-CNN/conv_ds_1/pw_conv/batch_norm/AssignMovingAvg_1/decay"
  op: "Const"
  attr {
    key: "dtype"
    value {
      type: DT_FLOAT
    }
  }
  attr {
    key: "value"
    value {
      tensor {
        dtype: DT_FLOAT
        tensor_shape {
        }
        float_val: 0.03999999910593033
      }
    }
  }
}
node {
  name: "DS-CNN/conv_ds_1/pw_conv/batch_norm/AssignMovingAvg_1/sub"
  op: "Sub"
  input: "DS-CNN/conv_ds_1/pw_conv/batch_norm/moving_variance/read"
  input: "DS-CNN/conv_ds_1/pw_conv/batch_norm/FusedBatchNorm:2"
  attr {
    key: "T"
    value {
      type: DT_FLOAT
    }
  }
}
node {
  name: "DS-CNN/conv_ds_1/pw_conv/batch_norm/AssignMovingAvg_1/mul"
  op: "Mul"
  input: "DS-CNN/conv_ds_1/pw_conv/batch_norm/AssignMovingAvg_1/sub"
  input: "DS-CNN/conv_ds_1/pw_conv/batch_norm/AssignMovingAvg_1/decay"
  attr {
    key: "T"
    value {
      type: DT_FLOAT
    }
  }
}
node {
  name: "DS-CNN/conv_ds_1/pw_conv/batch_norm/AssignMovingAvg_1"
  op: "AssignSub"
  input: "DS-CNN/conv_ds_1/pw_conv/batch_norm/moving_variance"
  input: "DS-CNN/conv_ds_1/pw_conv/batch_norm/AssignMovingAvg_1/mul"
  attr {
    key: "T"
    value {
      type: DT_FLOAT
    }
  }
  attr {
    key: "_class"
    value {
      list {
        s: "loc:@DS-CNN/conv_ds_1/pw_conv/batch_norm/moving_variance"
      }
    }
  }
  attr {
    key: "use_locking"
    value {
      b: false
    }
  }
}
node {
  name: "DS-CNN/conv_ds_1/pw_conv/batch_norm/Identity"
  op: "Identity"
  input: "DS-CNN/conv_ds_1/pw_conv/batch_norm/FusedBatchNorm"
  input: "^DS-CNN/conv_ds_1/pw_conv/batch_norm/AssignMovingAvg"
  input: "^DS-CNN/conv_ds_1/pw_conv/batch_norm/AssignMovingAvg_1"
  attr {
    key: "T"
    value {
      type: DT_FLOAT
    }
  }
}
node {
  name: "DS-CNN/conv_ds_1/pw_conv/batch_norm/Relu"
  op: "Relu"
  input: "DS-CNN/conv_ds_1/pw_conv/batch_norm/Identity"
  attr {
    key: "T"
    value {
      type: DT_FLOAT
    }
  }
}
node {
  name: "DS-CNN/conv_ds_2/dw_conv/depthwise_weights/Initializer/random_uniform/shape"
  op: "Const"
  attr {
    key: "_class"
    value {
      list {
        s: "loc:@DS-CNN/conv_ds_2/dw_conv/depthwise_weights"
      }
    }
  }
  attr {
    key: "dtype"
    value {
      type: DT_INT32
    }
  }
  attr {
    key: "value"
    value {
      tensor {
        dtype: DT_INT32
        tensor_shape {
          dim {
            size: 4
          }
        }
        tensor_content: "\003\000\000\000\003\000\000\000@\000\000\000\001\000\000\000"
      }
    }
  }
}
node {
  name: "DS-CNN/conv_ds_2/dw_conv/depthwise_weights/Initializer/random_uniform/min"
  op: "Const"
  attr {
    key: "_class"
    value {
      list {
        s: "loc:@DS-CNN/conv_ds_2/dw_conv/depthwise_weights"
      }
    }
  }
  attr {
    key: "dtype"
    value {
      type: DT_FLOAT
    }
  }
  attr {
    key: "value"
    value {
      tensor {
        dtype: DT_FLOAT
        tensor_shape {
        }
        float_val: -0.10127393901348114
      }
    }
  }
}
node {
  name: "DS-CNN/conv_ds_2/dw_conv/depthwise_weights/Initializer/random_uniform/max"
  op: "Const"
  attr {
    key: "_class"
    value {
      list {
        s: "loc:@DS-CNN/conv_ds_2/dw_conv/depthwise_weights"
      }
    }
  }
  attr {
    key: "dtype"
    value {
      type: DT_FLOAT
    }
  }
  attr {
    key: "value"
    value {
      tensor {
        dtype: DT_FLOAT
        tensor_shape {
        }
        float_val: 0.10127393901348114
      }
    }
  }
}
node {
  name: "DS-CNN/conv_ds_2/dw_conv/depthwise_weights/Initializer/random_uniform/RandomUniform"
  op: "RandomUniform"
  input: "DS-CNN/conv_ds_2/dw_conv/depthwise_weights/Initializer/random_uniform/shape"
  attr {
    key: "T"
    value {
      type: DT_INT32
    }
  }
  attr {
    key: "_class"
    value {
      list {
        s: "loc:@DS-CNN/conv_ds_2/dw_conv/depthwise_weights"
      }
    }
  }
  attr {
    key: "dtype"
    value {
      type: DT_FLOAT
    }
  }
  attr {
    key: "seed"
    value {
      i: 0
    }
  }
  attr {
    key: "seed2"
    value {
      i: 0
    }
  }
}
node {
  name: "DS-CNN/conv_ds_2/dw_conv/depthwise_weights/Initializer/random_uniform/sub"
  op: "Sub"
  input: "DS-CNN/conv_ds_2/dw_conv/depthwise_weights/Initializer/random_uniform/max"
  input: "DS-CNN/conv_ds_2/dw_conv/depthwise_weights/Initializer/random_uniform/min"
  attr {
    key: "T"
    value {
      type: DT_FLOAT
    }
  }
  attr {
    key: "_class"
    value {
      list {
        s: "loc:@DS-CNN/conv_ds_2/dw_conv/depthwise_weights"
      }
    }
  }
}
node {
  name: "DS-CNN/conv_ds_2/dw_conv/depthwise_weights/Initializer/random_uniform/mul"
  op: "Mul"
  input: "DS-CNN/conv_ds_2/dw_conv/depthwise_weights/Initializer/random_uniform/RandomUniform"
  input: "DS-CNN/conv_ds_2/dw_conv/depthwise_weights/Initializer/random_uniform/sub"
  attr {
    key: "T"
    value {
      type: DT_FLOAT
    }
  }
  attr {
    key: "_class"
    value {
      list {
        s: "loc:@DS-CNN/conv_ds_2/dw_conv/depthwise_weights"
      }
    }
  }
}
node {
  name: "DS-CNN/conv_ds_2/dw_conv/depthwise_weights/Initializer/random_uniform"
  op: "Add"
  input: "DS-CNN/conv_ds_2/dw_conv/depthwise_weights/Initializer/random_uniform/mul"
  input: "DS-CNN/conv_ds_2/dw_conv/depthwise_weights/Initializer/random_uniform/min"
  attr {
    key: "T"
    value {
      type: DT_FLOAT
    }
  }
  attr {
    key: "_class"
    value {
      list {
        s: "loc:@DS-CNN/conv_ds_2/dw_conv/depthwise_weights"
      }
    }
  }
}
node {
  name: "DS-CNN/conv_ds_2/dw_conv/depthwise_weights"
  op: "VariableV2"
  attr {
    key: "_class"
    value {
      list {
        s: "loc:@DS-CNN/conv_ds_2/dw_conv/depthwise_weights"
      }
    }
  }
  attr {
    key: "container"
    value {
      s: ""
    }
  }
  attr {
    key: "dtype"
    value {
      type: DT_FLOAT
    }
  }
  attr {
    key: "shape"
    value {
      shape {
        dim {
          size: 3
        }
        dim {
          size: 3
        }
        dim {
          size: 64
        }
        dim {
          size: 1
        }
      }
    }
  }
  attr {
    key: "shared_name"
    value {
      s: ""
    }
  }
}
node {
  name: "DS-CNN/conv_ds_2/dw_conv/depthwise_weights/Assign"
  op: "Assign"
  input: "DS-CNN/conv_ds_2/dw_conv/depthwise_weights"
  input: "DS-CNN/conv_ds_2/dw_conv/depthwise_weights/Initializer/random_uniform"
  attr {
    key: "T"
    value {
      type: DT_FLOAT
    }
  }
  attr {
    key: "_class"
    value {
      list {
        s: "loc:@DS-CNN/conv_ds_2/dw_conv/depthwise_weights"
      }
    }
  }
  attr {
    key: "use_locking"
    value {
      b: true
    }
  }
  attr {
    key: "validate_shape"
    value {
      b: true
    }
  }
}
node {
  name: "DS-CNN/conv_ds_2/dw_conv/depthwise_weights/read"
  op: "Identity"
  input: "DS-CNN/conv_ds_2/dw_conv/depthwise_weights"
  attr {
    key: "T"
    value {
      type: DT_FLOAT
    }
  }
  attr {
    key: "_class"
    value {
      list {
        s: "loc:@DS-CNN/conv_ds_2/dw_conv/depthwise_weights"
      }
    }
  }
}
node {
  name: "DS-CNN/conv_ds_2/dw_conv/depthwise/Shape"
  op: "Const"
  attr {
    key: "dtype"
    value {
      type: DT_INT32
    }
  }
  attr {
    key: "value"
    value {
      tensor {
        dtype: DT_INT32
        tensor_shape {
          dim {
            size: 4
          }
        }
        tensor_content: "\003\000\000\000\003\000\000\000@\000\000\000\001\000\000\000"
      }
    }
  }
}
node {
  name: "DS-CNN/conv_ds_2/dw_conv/depthwise/dilation_rate"
  op: "Const"
  attr {
    key: "dtype"
    value {
      type: DT_INT32
    }
  }
  attr {
    key: "value"
    value {
      tensor {
        dtype: DT_INT32
        tensor_shape {
          dim {
            size: 2
          }
        }
        tensor_content: "\001\000\000\000\001\000\000\000"
      }
    }
  }
}
node {
  name: "DS-CNN/conv_ds_2/dw_conv/depthwise"
  op: "DepthwiseConv2dNative"
  input: "DS-CNN/conv_ds_1/pw_conv/batch_norm/Relu"
  input: "DS-CNN/conv_ds_2/dw_conv/depthwise_weights/read"
  attr {
    key: "T"
    value {
      type: DT_FLOAT
    }
  }
  attr {
    key: "data_format"
    value {
      s: "NHWC"
    }
  }
  attr {
    key: "dilations"
    value {
      list {
        i: 1
        i: 1
        i: 1
        i: 1
      }
    }
  }
  attr {
    key: "padding"
    value {
      s: "VALID"
    }
  }
  attr {
    key: "strides"
    value {
      list {
        i: 1
        i: 1
        i: 1
        i: 1
      }
    }
  }
}
node {
  name: "DS-CNN/conv_ds_2/dw_conv/biases/Initializer/zeros"
  op: "Const"
  attr {
    key: "_class"
    value {
      list {
        s: "loc:@DS-CNN/conv_ds_2/dw_conv/biases"
      }
    }
  }
  attr {
    key: "dtype"
    value {
      type: DT_FLOAT
    }
  }
  attr {
    key: "value"
    value {
      tensor {
        dtype: DT_FLOAT
        tensor_shape {
          dim {
            size: 64
          }
        }
        float_val: 0.0
      }
    }
  }
}
node {
  name: "DS-CNN/conv_ds_2/dw_conv/biases"
  op: "VariableV2"
  attr {
    key: "_class"
    value {
      list {
        s: "loc:@DS-CNN/conv_ds_2/dw_conv/biases"
      }
    }
  }
  attr {
    key: "container"
    value {
      s: ""
    }
  }
  attr {
    key: "dtype"
    value {
      type: DT_FLOAT
    }
  }
  attr {
    key: "shape"
    value {
      shape {
        dim {
          size: 64
        }
      }
    }
  }
  attr {
    key: "shared_name"
    value {
      s: ""
    }
  }
}
node {
  name: "DS-CNN/conv_ds_2/dw_conv/biases/Assign"
  op: "Assign"
  input: "DS-CNN/conv_ds_2/dw_conv/biases"
  input: "DS-CNN/conv_ds_2/dw_conv/biases/Initializer/zeros"
  attr {
    key: "T"
    value {
      type: DT_FLOAT
    }
  }
  attr {
    key: "_class"
    value {
      list {
        s: "loc:@DS-CNN/conv_ds_2/dw_conv/biases"
      }
    }
  }
  attr {
    key: "use_locking"
    value {
      b: true
    }
  }
  attr {
    key: "validate_shape"
    value {
      b: true
    }
  }
}
node {
  name: "DS-CNN/conv_ds_2/dw_conv/biases/read"
  op: "Identity"
  input: "DS-CNN/conv_ds_2/dw_conv/biases"
  attr {
    key: "T"
    value {
      type: DT_FLOAT
    }
  }
  attr {
    key: "_class"
    value {
      list {
        s: "loc:@DS-CNN/conv_ds_2/dw_conv/biases"
      }
    }
  }
}
node {
  name: "DS-CNN/conv_ds_2/dw_conv/BiasAdd"
  op: "BiasAdd"
  input: "DS-CNN/conv_ds_2/dw_conv/depthwise"
  input: "DS-CNN/conv_ds_2/dw_conv/biases/read"
  attr {
    key: "T"
    value {
      type: DT_FLOAT
    }
  }
  attr {
    key: "data_format"
    value {
      s: "NHWC"
    }
  }
}
node {
  name: "DS-CNN/conv_ds_2/dw_conv/batch_norm/beta/Initializer/zeros"
  op: "Const"
  attr {
    key: "_class"
    value {
      list {
        s: "loc:@DS-CNN/conv_ds_2/dw_conv/batch_norm/beta"
      }
    }
  }
  attr {
    key: "dtype"
    value {
      type: DT_FLOAT
    }
  }
  attr {
    key: "value"
    value {
      tensor {
        dtype: DT_FLOAT
        tensor_shape {
          dim {
            size: 64
          }
        }
        float_val: 0.0
      }
    }
  }
}
node {
  name: "DS-CNN/conv_ds_2/dw_conv/batch_norm/beta"
  op: "VariableV2"
  attr {
    key: "_class"
    value {
      list {
        s: "loc:@DS-CNN/conv_ds_2/dw_conv/batch_norm/beta"
      }
    }
  }
  attr {
    key: "container"
    value {
      s: ""
    }
  }
  attr {
    key: "dtype"
    value {
      type: DT_FLOAT
    }
  }
  attr {
    key: "shape"
    value {
      shape {
        dim {
          size: 64
        }
      }
    }
  }
  attr {
    key: "shared_name"
    value {
      s: ""
    }
  }
}
node {
  name: "DS-CNN/conv_ds_2/dw_conv/batch_norm/beta/Assign"
  op: "Assign"
  input: "DS-CNN/conv_ds_2/dw_conv/batch_norm/beta"
  input: "DS-CNN/conv_ds_2/dw_conv/batch_norm/beta/Initializer/zeros"
  attr {
    key: "T"
    value {
      type: DT_FLOAT
    }
  }
  attr {
    key: "_class"
    value {
      list {
        s: "loc:@DS-CNN/conv_ds_2/dw_conv/batch_norm/beta"
      }
    }
  }
  attr {
    key: "use_locking"
    value {
      b: true
    }
  }
  attr {
    key: "validate_shape"
    value {
      b: true
    }
  }
}
node {
  name: "DS-CNN/conv_ds_2/dw_conv/batch_norm/beta/read"
  op: "Identity"
  input: "DS-CNN/conv_ds_2/dw_conv/batch_norm/beta"
  attr {
    key: "T"
    value {
      type: DT_FLOAT
    }
  }
  attr {
    key: "_class"
    value {
      list {
        s: "loc:@DS-CNN/conv_ds_2/dw_conv/batch_norm/beta"
      }
    }
  }
}
node {
  name: "DS-CNN/conv_ds_2/dw_conv/batch_norm/Const"
  op: "Const"
  attr {
    key: "dtype"
    value {
      type: DT_FLOAT
    }
  }
  attr {
    key: "value"
    value {
      tensor {
        dtype: DT_FLOAT
        tensor_shape {
          dim {
            size: 64
          }
        }
        float_val: 1.0
      }
    }
  }
}
node {
  name: "DS-CNN/conv_ds_2/dw_conv/batch_norm/moving_mean/Initializer/zeros"
  op: "Const"
  attr {
    key: "_class"
    value {
      list {
        s: "loc:@DS-CNN/conv_ds_2/dw_conv/batch_norm/moving_mean"
      }
    }
  }
  attr {
    key: "dtype"
    value {
      type: DT_FLOAT
    }
  }
  attr {
    key: "value"
    value {
      tensor {
        dtype: DT_FLOAT
        tensor_shape {
          dim {
            size: 64
          }
        }
        float_val: 0.0
      }
    }
  }
}
node {
  name: "DS-CNN/conv_ds_2/dw_conv/batch_norm/moving_mean"
  op: "VariableV2"
  attr {
    key: "_class"
    value {
      list {
        s: "loc:@DS-CNN/conv_ds_2/dw_conv/batch_norm/moving_mean"
      }
    }
  }
  attr {
    key: "container"
    value {
      s: ""
    }
  }
  attr {
    key: "dtype"
    value {
      type: DT_FLOAT
    }
  }
  attr {
    key: "shape"
    value {
      shape {
        dim {
          size: 64
        }
      }
    }
  }
  attr {
    key: "shared_name"
    value {
      s: ""
    }
  }
}
node {
  name: "DS-CNN/conv_ds_2/dw_conv/batch_norm/moving_mean/Assign"
  op: "Assign"
  input: "DS-CNN/conv_ds_2/dw_conv/batch_norm/moving_mean"
  input: "DS-CNN/conv_ds_2/dw_conv/batch_norm/moving_mean/Initializer/zeros"
  attr {
    key: "T"
    value {
      type: DT_FLOAT
    }
  }
  attr {
    key: "_class"
    value {
      list {
        s: "loc:@DS-CNN/conv_ds_2/dw_conv/batch_norm/moving_mean"
      }
    }
  }
  attr {
    key: "use_locking"
    value {
      b: true
    }
  }
  attr {
    key: "validate_shape"
    value {
      b: true
    }
  }
}
node {
  name: "DS-CNN/conv_ds_2/dw_conv/batch_norm/moving_mean/read"
  op: "Identity"
  input: "DS-CNN/conv_ds_2/dw_conv/batch_norm/moving_mean"
  attr {
    key: "T"
    value {
      type: DT_FLOAT
    }
  }
  attr {
    key: "_class"
    value {
      list {
        s: "loc:@DS-CNN/conv_ds_2/dw_conv/batch_norm/moving_mean"
      }
    }
  }
}
node {
  name: "DS-CNN/conv_ds_2/dw_conv/batch_norm/moving_variance/Initializer/ones"
  op: "Const"
  attr {
    key: "_class"
    value {
      list {
        s: "loc:@DS-CNN/conv_ds_2/dw_conv/batch_norm/moving_variance"
      }
    }
  }
  attr {
    key: "dtype"
    value {
      type: DT_FLOAT
    }
  }
  attr {
    key: "value"
    value {
      tensor {
        dtype: DT_FLOAT
        tensor_shape {
          dim {
            size: 64
          }
        }
        float_val: 1.0
      }
    }
  }
}
node {
  name: "DS-CNN/conv_ds_2/dw_conv/batch_norm/moving_variance"
  op: "VariableV2"
  attr {
    key: "_class"
    value {
      list {
        s: "loc:@DS-CNN/conv_ds_2/dw_conv/batch_norm/moving_variance"
      }
    }
  }
  attr {
    key: "container"
    value {
      s: ""
    }
  }
  attr {
    key: "dtype"
    value {
      type: DT_FLOAT
    }
  }
  attr {
    key: "shape"
    value {
      shape {
        dim {
          size: 64
        }
      }
    }
  }
  attr {
    key: "shared_name"
    value {
      s: ""
    }
  }
}
node {
  name: "DS-CNN/conv_ds_2/dw_conv/batch_norm/moving_variance/Assign"
  op: "Assign"
  input: "DS-CNN/conv_ds_2/dw_conv/batch_norm/moving_variance"
  input: "DS-CNN/conv_ds_2/dw_conv/batch_norm/moving_variance/Initializer/ones"
  attr {
    key: "T"
    value {
      type: DT_FLOAT
    }
  }
  attr {
    key: "_class"
    value {
      list {
        s: "loc:@DS-CNN/conv_ds_2/dw_conv/batch_norm/moving_variance"
      }
    }
  }
  attr {
    key: "use_locking"
    value {
      b: true
    }
  }
  attr {
    key: "validate_shape"
    value {
      b: true
    }
  }
}
node {
  name: "DS-CNN/conv_ds_2/dw_conv/batch_norm/moving_variance/read"
  op: "Identity"
  input: "DS-CNN/conv_ds_2/dw_conv/batch_norm/moving_variance"
  attr {
    key: "T"
    value {
      type: DT_FLOAT
    }
  }
  attr {
    key: "_class"
    value {
      list {
        s: "loc:@DS-CNN/conv_ds_2/dw_conv/batch_norm/moving_variance"
      }
    }
  }
}
node {
  name: "DS-CNN/conv_ds_2/dw_conv/batch_norm/Const_1"
  op: "Const"
  attr {
    key: "dtype"
    value {
      type: DT_FLOAT
    }
  }
  attr {
    key: "value"
    value {
      tensor {
        dtype: DT_FLOAT
        tensor_shape {
          dim {
          }
        }
      }
    }
  }
}
node {
  name: "DS-CNN/conv_ds_2/dw_conv/batch_norm/Const_2"
  op: "Const"
  attr {
    key: "dtype"
    value {
      type: DT_FLOAT
    }
  }
  attr {
    key: "value"
    value {
      tensor {
        dtype: DT_FLOAT
        tensor_shape {
          dim {
          }
        }
      }
    }
  }
}
node {
  name: "DS-CNN/conv_ds_2/dw_conv/batch_norm/FusedBatchNorm"
  op: "FusedBatchNorm"
  input: "DS-CNN/conv_ds_2/dw_conv/BiasAdd"
  input: "DS-CNN/conv_ds_2/dw_conv/batch_norm/Const"
  input: "DS-CNN/conv_ds_2/dw_conv/batch_norm/beta/read"
  input: "DS-CNN/conv_ds_2/dw_conv/batch_norm/Const_1"
  input: "DS-CNN/conv_ds_2/dw_conv/batch_norm/Const_2"
  attr {
    key: "T"
    value {
      type: DT_FLOAT
    }
  }
  attr {
    key: "data_format"
    value {
      s: "NHWC"
    }
  }
  attr {
    key: "epsilon"
    value {
      f: 0.0010000000474974513
    }
  }
  attr {
    key: "is_training"
    value {
      b: true
    }
  }
}
node {
  name: "DS-CNN/conv_ds_2/dw_conv/batch_norm/AssignMovingAvg/decay"
  op: "Const"
  attr {
    key: "dtype"
    value {
      type: DT_FLOAT
    }
  }
  attr {
    key: "value"
    value {
      tensor {
        dtype: DT_FLOAT
        tensor_shape {
        }
        float_val: 0.03999999910593033
      }
    }
  }
}
node {
  name: "DS-CNN/conv_ds_2/dw_conv/batch_norm/AssignMovingAvg/sub"
  op: "Sub"
  input: "DS-CNN/conv_ds_2/dw_conv/batch_norm/moving_mean/read"
  input: "DS-CNN/conv_ds_2/dw_conv/batch_norm/FusedBatchNorm:1"
  attr {
    key: "T"
    value {
      type: DT_FLOAT
    }
  }
}
node {
  name: "DS-CNN/conv_ds_2/dw_conv/batch_norm/AssignMovingAvg/mul"
  op: "Mul"
  input: "DS-CNN/conv_ds_2/dw_conv/batch_norm/AssignMovingAvg/sub"
  input: "DS-CNN/conv_ds_2/dw_conv/batch_norm/AssignMovingAvg/decay"
  attr {
    key: "T"
    value {
      type: DT_FLOAT
    }
  }
}
node {
  name: "DS-CNN/conv_ds_2/dw_conv/batch_norm/AssignMovingAvg"
  op: "AssignSub"
  input: "DS-CNN/conv_ds_2/dw_conv/batch_norm/moving_mean"
  input: "DS-CNN/conv_ds_2/dw_conv/batch_norm/AssignMovingAvg/mul"
  attr {
    key: "T"
    value {
      type: DT_FLOAT
    }
  }
  attr {
    key: "_class"
    value {
      list {
        s: "loc:@DS-CNN/conv_ds_2/dw_conv/batch_norm/moving_mean"
      }
    }
  }
  attr {
    key: "use_locking"
    value {
      b: false
    }
  }
}
node {
  name: "DS-CNN/conv_ds_2/dw_conv/batch_norm/AssignMovingAvg_1/decay"
  op: "Const"
  attr {
    key: "dtype"
    value {
      type: DT_FLOAT
    }
  }
  attr {
    key: "value"
    value {
      tensor {
        dtype: DT_FLOAT
        tensor_shape {
        }
        float_val: 0.03999999910593033
      }
    }
  }
}
node {
  name: "DS-CNN/conv_ds_2/dw_conv/batch_norm/AssignMovingAvg_1/sub"
  op: "Sub"
  input: "DS-CNN/conv_ds_2/dw_conv/batch_norm/moving_variance/read"
  input: "DS-CNN/conv_ds_2/dw_conv/batch_norm/FusedBatchNorm:2"
  attr {
    key: "T"
    value {
      type: DT_FLOAT
    }
  }
}
node {
  name: "DS-CNN/conv_ds_2/dw_conv/batch_norm/AssignMovingAvg_1/mul"
  op: "Mul"
  input: "DS-CNN/conv_ds_2/dw_conv/batch_norm/AssignMovingAvg_1/sub"
  input: "DS-CNN/conv_ds_2/dw_conv/batch_norm/AssignMovingAvg_1/decay"
  attr {
    key: "T"
    value {
      type: DT_FLOAT
    }
  }
}
node {
  name: "DS-CNN/conv_ds_2/dw_conv/batch_norm/AssignMovingAvg_1"
  op: "AssignSub"
  input: "DS-CNN/conv_ds_2/dw_conv/batch_norm/moving_variance"
  input: "DS-CNN/conv_ds_2/dw_conv/batch_norm/AssignMovingAvg_1/mul"
  attr {
    key: "T"
    value {
      type: DT_FLOAT
    }
  }
  attr {
    key: "_class"
    value {
      list {
        s: "loc:@DS-CNN/conv_ds_2/dw_conv/batch_norm/moving_variance"
      }
    }
  }
  attr {
    key: "use_locking"
    value {
      b: false
    }
  }
}
node {
  name: "DS-CNN/conv_ds_2/dw_conv/batch_norm/Identity"
  op: "Identity"
  input: "DS-CNN/conv_ds_2/dw_conv/batch_norm/FusedBatchNorm"
  input: "^DS-CNN/conv_ds_2/dw_conv/batch_norm/AssignMovingAvg"
  input: "^DS-CNN/conv_ds_2/dw_conv/batch_norm/AssignMovingAvg_1"
  attr {
    key: "T"
    value {
      type: DT_FLOAT
    }
  }
}
node {
  name: "DS-CNN/conv_ds_2/dw_conv/batch_norm/Relu"
  op: "Relu"
  input: "DS-CNN/conv_ds_2/dw_conv/batch_norm/Identity"
  attr {
    key: "T"
    value {
      type: DT_FLOAT
    }
  }
}
node {
  name: "DS-CNN/conv_ds_2/pw_conv/weights/Initializer/random_uniform/shape"
  op: "Const"
  attr {
    key: "_class"
    value {
      list {
        s: "loc:@DS-CNN/conv_ds_2/pw_conv/weights"
      }
    }
  }
  attr {
    key: "dtype"
    value {
      type: DT_INT32
    }
  }
  attr {
    key: "value"
    value {
      tensor {
        dtype: DT_INT32
        tensor_shape {
          dim {
            size: 4
          }
        }
        tensor_content: "\001\000\000\000\001\000\000\000@\000\000\000@\000\000\000"
      }
    }
  }
}
node {
  name: "DS-CNN/conv_ds_2/pw_conv/weights/Initializer/random_uniform/min"
  op: "Const"
  attr {
    key: "_class"
    value {
      list {
        s: "loc:@DS-CNN/conv_ds_2/pw_conv/weights"
      }
    }
  }
  attr {
    key: "dtype"
    value {
      type: DT_FLOAT
    }
  }
  attr {
    key: "value"
    value {
      tensor {
        dtype: DT_FLOAT
        tensor_shape {
        }
        float_val: -0.21650634706020355
      }
    }
  }
}
node {
  name: "DS-CNN/conv_ds_2/pw_conv/weights/Initializer/random_uniform/max"
  op: "Const"
  attr {
    key: "_class"
    value {
      list {
        s: "loc:@DS-CNN/conv_ds_2/pw_conv/weights"
      }
    }
  }
  attr {
    key: "dtype"
    value {
      type: DT_FLOAT
    }
  }
  attr {
    key: "value"
    value {
      tensor {
        dtype: DT_FLOAT
        tensor_shape {
        }
        float_val: 0.21650634706020355
      }
    }
  }
}
node {
  name: "DS-CNN/conv_ds_2/pw_conv/weights/Initializer/random_uniform/RandomUniform"
  op: "RandomUniform"
  input: "DS-CNN/conv_ds_2/pw_conv/weights/Initializer/random_uniform/shape"
  attr {
    key: "T"
    value {
      type: DT_INT32
    }
  }
  attr {
    key: "_class"
    value {
      list {
        s: "loc:@DS-CNN/conv_ds_2/pw_conv/weights"
      }
    }
  }
  attr {
    key: "dtype"
    value {
      type: DT_FLOAT
    }
  }
  attr {
    key: "seed"
    value {
      i: 0
    }
  }
  attr {
    key: "seed2"
    value {
      i: 0
    }
  }
}
node {
  name: "DS-CNN/conv_ds_2/pw_conv/weights/Initializer/random_uniform/sub"
  op: "Sub"
  input: "DS-CNN/conv_ds_2/pw_conv/weights/Initializer/random_uniform/max"
  input: "DS-CNN/conv_ds_2/pw_conv/weights/Initializer/random_uniform/min"
  attr {
    key: "T"
    value {
      type: DT_FLOAT
    }
  }
  attr {
    key: "_class"
    value {
      list {
        s: "loc:@DS-CNN/conv_ds_2/pw_conv/weights"
      }
    }
  }
}
node {
  name: "DS-CNN/conv_ds_2/pw_conv/weights/Initializer/random_uniform/mul"
  op: "Mul"
  input: "DS-CNN/conv_ds_2/pw_conv/weights/Initializer/random_uniform/RandomUniform"
  input: "DS-CNN/conv_ds_2/pw_conv/weights/Initializer/random_uniform/sub"
  attr {
    key: "T"
    value {
      type: DT_FLOAT
    }
  }
  attr {
    key: "_class"
    value {
      list {
        s: "loc:@DS-CNN/conv_ds_2/pw_conv/weights"
      }
    }
  }
}
node {
  name: "DS-CNN/conv_ds_2/pw_conv/weights/Initializer/random_uniform"
  op: "Add"
  input: "DS-CNN/conv_ds_2/pw_conv/weights/Initializer/random_uniform/mul"
  input: "DS-CNN/conv_ds_2/pw_conv/weights/Initializer/random_uniform/min"
  attr {
    key: "T"
    value {
      type: DT_FLOAT
    }
  }
  attr {
    key: "_class"
    value {
      list {
        s: "loc:@DS-CNN/conv_ds_2/pw_conv/weights"
      }
    }
  }
}
node {
  name: "DS-CNN/conv_ds_2/pw_conv/weights"
  op: "VariableV2"
  attr {
    key: "_class"
    value {
      list {
        s: "loc:@DS-CNN/conv_ds_2/pw_conv/weights"
      }
    }
  }
  attr {
    key: "container"
    value {
      s: ""
    }
  }
  attr {
    key: "dtype"
    value {
      type: DT_FLOAT
    }
  }
  attr {
    key: "shape"
    value {
      shape {
        dim {
          size: 1
        }
        dim {
          size: 1
        }
        dim {
          size: 64
        }
        dim {
          size: 64
        }
      }
    }
  }
  attr {
    key: "shared_name"
    value {
      s: ""
    }
  }
}
node {
  name: "DS-CNN/conv_ds_2/pw_conv/weights/Assign"
  op: "Assign"
  input: "DS-CNN/conv_ds_2/pw_conv/weights"
  input: "DS-CNN/conv_ds_2/pw_conv/weights/Initializer/random_uniform"
  attr {
    key: "T"
    value {
      type: DT_FLOAT
    }
  }
  attr {
    key: "_class"
    value {
      list {
        s: "loc:@DS-CNN/conv_ds_2/pw_conv/weights"
      }
    }
  }
  attr {
    key: "use_locking"
    value {
      b: true
    }
  }
  attr {
    key: "validate_shape"
    value {
      b: true
    }
  }
}
node {
  name: "DS-CNN/conv_ds_2/pw_conv/weights/read"
  op: "Identity"
  input: "DS-CNN/conv_ds_2/pw_conv/weights"
  attr {
    key: "T"
    value {
      type: DT_FLOAT
    }
  }
  attr {
    key: "_class"
    value {
      list {
        s: "loc:@DS-CNN/conv_ds_2/pw_conv/weights"
      }
    }
  }
}
node {
  name: "DS-CNN/conv_ds_2/pw_conv/biases/Initializer/zeros"
  op: "Const"
  attr {
    key: "_class"
    value {
      list {
        s: "loc:@DS-CNN/conv_ds_2/pw_conv/biases"
      }
    }
  }
  attr {
    key: "dtype"
    value {
      type: DT_FLOAT
    }
  }
  attr {
    key: "value"
    value {
      tensor {
        dtype: DT_FLOAT
        tensor_shape {
          dim {
            size: 64
          }
        }
        float_val: 0.0
      }
    }
  }
}
node {
  name: "DS-CNN/conv_ds_2/pw_conv/biases"
  op: "VariableV2"
  attr {
    key: "_class"
    value {
      list {
        s: "loc:@DS-CNN/conv_ds_2/pw_conv/biases"
      }
    }
  }
  attr {
    key: "container"
    value {
      s: ""
    }
  }
  attr {
    key: "dtype"
    value {
      type: DT_FLOAT
    }
  }
  attr {
    key: "shape"
    value {
      shape {
        dim {
          size: 64
        }
      }
    }
  }
  attr {
    key: "shared_name"
    value {
      s: ""
    }
  }
}
node {
  name: "DS-CNN/conv_ds_2/pw_conv/biases/Assign"
  op: "Assign"
  input: "DS-CNN/conv_ds_2/pw_conv/biases"
  input: "DS-CNN/conv_ds_2/pw_conv/biases/Initializer/zeros"
  attr {
    key: "T"
    value {
      type: DT_FLOAT
    }
  }
  attr {
    key: "_class"
    value {
      list {
        s: "loc:@DS-CNN/conv_ds_2/pw_conv/biases"
      }
    }
  }
  attr {
    key: "use_locking"
    value {
      b: true
    }
  }
  attr {
    key: "validate_shape"
    value {
      b: true
    }
  }
}
node {
  name: "DS-CNN/conv_ds_2/pw_conv/biases/read"
  op: "Identity"
  input: "DS-CNN/conv_ds_2/pw_conv/biases"
  attr {
    key: "T"
    value {
      type: DT_FLOAT
    }
  }
  attr {
    key: "_class"
    value {
      list {
        s: "loc:@DS-CNN/conv_ds_2/pw_conv/biases"
      }
    }
  }
}
node {
  name: "DS-CNN/conv_ds_2/pw_conv/dilation_rate"
  op: "Const"
  attr {
    key: "dtype"
    value {
      type: DT_INT32
    }
  }
  attr {
    key: "value"
    value {
      tensor {
        dtype: DT_INT32
        tensor_shape {
          dim {
            size: 2
          }
        }
        tensor_content: "\001\000\000\000\001\000\000\000"
      }
    }
  }
}
node {
  name: "DS-CNN/conv_ds_2/pw_conv/Conv2D"
  op: "Conv2D"
  input: "DS-CNN/conv_ds_2/dw_conv/batch_norm/Relu"
  input: "DS-CNN/conv_ds_2/pw_conv/weights/read"
  attr {
    key: "T"
    value {
      type: DT_FLOAT
    }
  }
  attr {
    key: "data_format"
    value {
      s: "NHWC"
    }
  }
  attr {
    key: "dilations"
    value {
      list {
        i: 1
        i: 1
        i: 1
        i: 1
      }
    }
  }
  attr {
    key: "explicit_paddings"
    value {
      list {
      }
    }
  }
  attr {
    key: "padding"
    value {
      s: "SAME"
    }
  }
  attr {
    key: "strides"
    value {
      list {
        i: 1
        i: 1
        i: 1
        i: 1
      }
    }
  }
  attr {
    key: "use_cudnn_on_gpu"
    value {
      b: true
    }
  }
}
node {
  name: "DS-CNN/conv_ds_2/pw_conv/BiasAdd"
  op: "BiasAdd"
  input: "DS-CNN/conv_ds_2/pw_conv/Conv2D"
  input: "DS-CNN/conv_ds_2/pw_conv/biases/read"
  attr {
    key: "T"
    value {
      type: DT_FLOAT
    }
  }
  attr {
    key: "data_format"
    value {
      s: "NHWC"
    }
  }
}
node {
  name: "DS-CNN/conv_ds_2/pw_conv/batch_norm/beta/Initializer/zeros"
  op: "Const"
  attr {
    key: "_class"
    value {
      list {
        s: "loc:@DS-CNN/conv_ds_2/pw_conv/batch_norm/beta"
      }
    }
  }
  attr {
    key: "dtype"
    value {
      type: DT_FLOAT
    }
  }
  attr {
    key: "value"
    value {
      tensor {
        dtype: DT_FLOAT
        tensor_shape {
          dim {
            size: 64
          }
        }
        float_val: 0.0
      }
    }
  }
}
node {
  name: "DS-CNN/conv_ds_2/pw_conv/batch_norm/beta"
  op: "VariableV2"
  attr {
    key: "_class"
    value {
      list {
        s: "loc:@DS-CNN/conv_ds_2/pw_conv/batch_norm/beta"
      }
    }
  }
  attr {
    key: "container"
    value {
      s: ""
    }
  }
  attr {
    key: "dtype"
    value {
      type: DT_FLOAT
    }
  }
  attr {
    key: "shape"
    value {
      shape {
        dim {
          size: 64
        }
      }
    }
  }
  attr {
    key: "shared_name"
    value {
      s: ""
    }
  }
}
node {
  name: "DS-CNN/conv_ds_2/pw_conv/batch_norm/beta/Assign"
  op: "Assign"
  input: "DS-CNN/conv_ds_2/pw_conv/batch_norm/beta"
  input: "DS-CNN/conv_ds_2/pw_conv/batch_norm/beta/Initializer/zeros"
  attr {
    key: "T"
    value {
      type: DT_FLOAT
    }
  }
  attr {
    key: "_class"
    value {
      list {
        s: "loc:@DS-CNN/conv_ds_2/pw_conv/batch_norm/beta"
      }
    }
  }
  attr {
    key: "use_locking"
    value {
      b: true
    }
  }
  attr {
    key: "validate_shape"
    value {
      b: true
    }
  }
}
node {
  name: "DS-CNN/conv_ds_2/pw_conv/batch_norm/beta/read"
  op: "Identity"
  input: "DS-CNN/conv_ds_2/pw_conv/batch_norm/beta"
  attr {
    key: "T"
    value {
      type: DT_FLOAT
    }
  }
  attr {
    key: "_class"
    value {
      list {
        s: "loc:@DS-CNN/conv_ds_2/pw_conv/batch_norm/beta"
      }
    }
  }
}
node {
  name: "DS-CNN/conv_ds_2/pw_conv/batch_norm/Const"
  op: "Const"
  attr {
    key: "dtype"
    value {
      type: DT_FLOAT
    }
  }
  attr {
    key: "value"
    value {
      tensor {
        dtype: DT_FLOAT
        tensor_shape {
          dim {
            size: 64
          }
        }
        float_val: 1.0
      }
    }
  }
}
node {
  name: "DS-CNN/conv_ds_2/pw_conv/batch_norm/moving_mean/Initializer/zeros"
  op: "Const"
  attr {
    key: "_class"
    value {
      list {
        s: "loc:@DS-CNN/conv_ds_2/pw_conv/batch_norm/moving_mean"
      }
    }
  }
  attr {
    key: "dtype"
    value {
      type: DT_FLOAT
    }
  }
  attr {
    key: "value"
    value {
      tensor {
        dtype: DT_FLOAT
        tensor_shape {
          dim {
            size: 64
          }
        }
        float_val: 0.0
      }
    }
  }
}
node {
  name: "DS-CNN/conv_ds_2/pw_conv/batch_norm/moving_mean"
  op: "VariableV2"
  attr {
    key: "_class"
    value {
      list {
        s: "loc:@DS-CNN/conv_ds_2/pw_conv/batch_norm/moving_mean"
      }
    }
  }
  attr {
    key: "container"
    value {
      s: ""
    }
  }
  attr {
    key: "dtype"
    value {
      type: DT_FLOAT
    }
  }
  attr {
    key: "shape"
    value {
      shape {
        dim {
          size: 64
        }
      }
    }
  }
  attr {
    key: "shared_name"
    value {
      s: ""
    }
  }
}
node {
  name: "DS-CNN/conv_ds_2/pw_conv/batch_norm/moving_mean/Assign"
  op: "Assign"
  input: "DS-CNN/conv_ds_2/pw_conv/batch_norm/moving_mean"
  input: "DS-CNN/conv_ds_2/pw_conv/batch_norm/moving_mean/Initializer/zeros"
  attr {
    key: "T"
    value {
      type: DT_FLOAT
    }
  }
  attr {
    key: "_class"
    value {
      list {
        s: "loc:@DS-CNN/conv_ds_2/pw_conv/batch_norm/moving_mean"
      }
    }
  }
  attr {
    key: "use_locking"
    value {
      b: true
    }
  }
  attr {
    key: "validate_shape"
    value {
      b: true
    }
  }
}
node {
  name: "DS-CNN/conv_ds_2/pw_conv/batch_norm/moving_mean/read"
  op: "Identity"
  input: "DS-CNN/conv_ds_2/pw_conv/batch_norm/moving_mean"
  attr {
    key: "T"
    value {
      type: DT_FLOAT
    }
  }
  attr {
    key: "_class"
    value {
      list {
        s: "loc:@DS-CNN/conv_ds_2/pw_conv/batch_norm/moving_mean"
      }
    }
  }
}
node {
  name: "DS-CNN/conv_ds_2/pw_conv/batch_norm/moving_variance/Initializer/ones"
  op: "Const"
  attr {
    key: "_class"
    value {
      list {
        s: "loc:@DS-CNN/conv_ds_2/pw_conv/batch_norm/moving_variance"
      }
    }
  }
  attr {
    key: "dtype"
    value {
      type: DT_FLOAT
    }
  }
  attr {
    key: "value"
    value {
      tensor {
        dtype: DT_FLOAT
        tensor_shape {
          dim {
            size: 64
          }
        }
        float_val: 1.0
      }
    }
  }
}
node {
  name: "DS-CNN/conv_ds_2/pw_conv/batch_norm/moving_variance"
  op: "VariableV2"
  attr {
    key: "_class"
    value {
      list {
        s: "loc:@DS-CNN/conv_ds_2/pw_conv/batch_norm/moving_variance"
      }
    }
  }
  attr {
    key: "container"
    value {
      s: ""
    }
  }
  attr {
    key: "dtype"
    value {
      type: DT_FLOAT
    }
  }
  attr {
    key: "shape"
    value {
      shape {
        dim {
          size: 64
        }
      }
    }
  }
  attr {
    key: "shared_name"
    value {
      s: ""
    }
  }
}
node {
  name: "DS-CNN/conv_ds_2/pw_conv/batch_norm/moving_variance/Assign"
  op: "Assign"
  input: "DS-CNN/conv_ds_2/pw_conv/batch_norm/moving_variance"
  input: "DS-CNN/conv_ds_2/pw_conv/batch_norm/moving_variance/Initializer/ones"
  attr {
    key: "T"
    value {
      type: DT_FLOAT
    }
  }
  attr {
    key: "_class"
    value {
      list {
        s: "loc:@DS-CNN/conv_ds_2/pw_conv/batch_norm/moving_variance"
      }
    }
  }
  attr {
    key: "use_locking"
    value {
      b: true
    }
  }
  attr {
    key: "validate_shape"
    value {
      b: true
    }
  }
}
node {
  name: "DS-CNN/conv_ds_2/pw_conv/batch_norm/moving_variance/read"
  op: "Identity"
  input: "DS-CNN/conv_ds_2/pw_conv/batch_norm/moving_variance"
  attr {
    key: "T"
    value {
      type: DT_FLOAT
    }
  }
  attr {
    key: "_class"
    value {
      list {
        s: "loc:@DS-CNN/conv_ds_2/pw_conv/batch_norm/moving_variance"
      }
    }
  }
}
node {
  name: "DS-CNN/conv_ds_2/pw_conv/batch_norm/Const_1"
  op: "Const"
  attr {
    key: "dtype"
    value {
      type: DT_FLOAT
    }
  }
  attr {
    key: "value"
    value {
      tensor {
        dtype: DT_FLOAT
        tensor_shape {
          dim {
          }
        }
      }
    }
  }
}
node {
  name: "DS-CNN/conv_ds_2/pw_conv/batch_norm/Const_2"
  op: "Const"
  attr {
    key: "dtype"
    value {
      type: DT_FLOAT
    }
  }
  attr {
    key: "value"
    value {
      tensor {
        dtype: DT_FLOAT
        tensor_shape {
          dim {
          }
        }
      }
    }
  }
}
node {
  name: "DS-CNN/conv_ds_2/pw_conv/batch_norm/FusedBatchNorm"
  op: "FusedBatchNorm"
  input: "DS-CNN/conv_ds_2/pw_conv/BiasAdd"
  input: "DS-CNN/conv_ds_2/pw_conv/batch_norm/Const"
  input: "DS-CNN/conv_ds_2/pw_conv/batch_norm/beta/read"
  input: "DS-CNN/conv_ds_2/pw_conv/batch_norm/Const_1"
  input: "DS-CNN/conv_ds_2/pw_conv/batch_norm/Const_2"
  attr {
    key: "T"
    value {
      type: DT_FLOAT
    }
  }
  attr {
    key: "data_format"
    value {
      s: "NHWC"
    }
  }
  attr {
    key: "epsilon"
    value {
      f: 0.0010000000474974513
    }
  }
  attr {
    key: "is_training"
    value {
      b: true
    }
  }
}
node {
  name: "DS-CNN/conv_ds_2/pw_conv/batch_norm/AssignMovingAvg/decay"
  op: "Const"
  attr {
    key: "dtype"
    value {
      type: DT_FLOAT
    }
  }
  attr {
    key: "value"
    value {
      tensor {
        dtype: DT_FLOAT
        tensor_shape {
        }
        float_val: 0.03999999910593033
      }
    }
  }
}
node {
  name: "DS-CNN/conv_ds_2/pw_conv/batch_norm/AssignMovingAvg/sub"
  op: "Sub"
  input: "DS-CNN/conv_ds_2/pw_conv/batch_norm/moving_mean/read"
  input: "DS-CNN/conv_ds_2/pw_conv/batch_norm/FusedBatchNorm:1"
  attr {
    key: "T"
    value {
      type: DT_FLOAT
    }
  }
}
node {
  name: "DS-CNN/conv_ds_2/pw_conv/batch_norm/AssignMovingAvg/mul"
  op: "Mul"
  input: "DS-CNN/conv_ds_2/pw_conv/batch_norm/AssignMovingAvg/sub"
  input: "DS-CNN/conv_ds_2/pw_conv/batch_norm/AssignMovingAvg/decay"
  attr {
    key: "T"
    value {
      type: DT_FLOAT
    }
  }
}
node {
  name: "DS-CNN/conv_ds_2/pw_conv/batch_norm/AssignMovingAvg"
  op: "AssignSub"
  input: "DS-CNN/conv_ds_2/pw_conv/batch_norm/moving_mean"
  input: "DS-CNN/conv_ds_2/pw_conv/batch_norm/AssignMovingAvg/mul"
  attr {
    key: "T"
    value {
      type: DT_FLOAT
    }
  }
  attr {
    key: "_class"
    value {
      list {
        s: "loc:@DS-CNN/conv_ds_2/pw_conv/batch_norm/moving_mean"
      }
    }
  }
  attr {
    key: "use_locking"
    value {
      b: false
    }
  }
}
node {
  name: "DS-CNN/conv_ds_2/pw_conv/batch_norm/AssignMovingAvg_1/decay"
  op: "Const"
  attr {
    key: "dtype"
    value {
      type: DT_FLOAT
    }
  }
  attr {
    key: "value"
    value {
      tensor {
        dtype: DT_FLOAT
        tensor_shape {
        }
        float_val: 0.03999999910593033
      }
    }
  }
}
node {
  name: "DS-CNN/conv_ds_2/pw_conv/batch_norm/AssignMovingAvg_1/sub"
  op: "Sub"
  input: "DS-CNN/conv_ds_2/pw_conv/batch_norm/moving_variance/read"
  input: "DS-CNN/conv_ds_2/pw_conv/batch_norm/FusedBatchNorm:2"
  attr {
    key: "T"
    value {
      type: DT_FLOAT
    }
  }
}
node {
  name: "DS-CNN/conv_ds_2/pw_conv/batch_norm/AssignMovingAvg_1/mul"
  op: "Mul"
  input: "DS-CNN/conv_ds_2/pw_conv/batch_norm/AssignMovingAvg_1/sub"
  input: "DS-CNN/conv_ds_2/pw_conv/batch_norm/AssignMovingAvg_1/decay"
  attr {
    key: "T"
    value {
      type: DT_FLOAT
    }
  }
}
node {
  name: "DS-CNN/conv_ds_2/pw_conv/batch_norm/AssignMovingAvg_1"
  op: "AssignSub"
  input: "DS-CNN/conv_ds_2/pw_conv/batch_norm/moving_variance"
  input: "DS-CNN/conv_ds_2/pw_conv/batch_norm/AssignMovingAvg_1/mul"
  attr {
    key: "T"
    value {
      type: DT_FLOAT
    }
  }
  attr {
    key: "_class"
    value {
      list {
        s: "loc:@DS-CNN/conv_ds_2/pw_conv/batch_norm/moving_variance"
      }
    }
  }
  attr {
    key: "use_locking"
    value {
      b: false
    }
  }
}
node {
  name: "DS-CNN/conv_ds_2/pw_conv/batch_norm/Identity"
  op: "Identity"
  input: "DS-CNN/conv_ds_2/pw_conv/batch_norm/FusedBatchNorm"
  input: "^DS-CNN/conv_ds_2/pw_conv/batch_norm/AssignMovingAvg"
  input: "^DS-CNN/conv_ds_2/pw_conv/batch_norm/AssignMovingAvg_1"
  attr {
    key: "T"
    value {
      type: DT_FLOAT
    }
  }
}
node {
  name: "DS-CNN/conv_ds_2/pw_conv/batch_norm/Relu"
  op: "Relu"
  input: "DS-CNN/conv_ds_2/pw_conv/batch_norm/Identity"
  attr {
    key: "T"
    value {
      type: DT_FLOAT
    }
  }
}
node {
  name: "DS-CNN/conv_ds_3/dw_conv/depthwise_weights/Initializer/random_uniform/shape"
  op: "Const"
  attr {
    key: "_class"
    value {
      list {
        s: "loc:@DS-CNN/conv_ds_3/dw_conv/depthwise_weights"
      }
    }
  }
  attr {
    key: "dtype"
    value {
      type: DT_INT32
    }
  }
  attr {
    key: "value"
    value {
      tensor {
        dtype: DT_INT32
        tensor_shape {
          dim {
            size: 4
          }
        }
        tensor_content: "\003\000\000\000\003\000\000\000@\000\000\000\001\000\000\000"
      }
    }
  }
}
node {
  name: "DS-CNN/conv_ds_3/dw_conv/depthwise_weights/Initializer/random_uniform/min"
  op: "Const"
  attr {
    key: "_class"
    value {
      list {
        s: "loc:@DS-CNN/conv_ds_3/dw_conv/depthwise_weights"
      }
    }
  }
  attr {
    key: "dtype"
    value {
      type: DT_FLOAT
    }
  }
  attr {
    key: "value"
    value {
      tensor {
        dtype: DT_FLOAT
        tensor_shape {
        }
        float_val: -0.10127393901348114
      }
    }
  }
}
node {
  name: "DS-CNN/conv_ds_3/dw_conv/depthwise_weights/Initializer/random_uniform/max"
  op: "Const"
  attr {
    key: "_class"
    value {
      list {
        s: "loc:@DS-CNN/conv_ds_3/dw_conv/depthwise_weights"
      }
    }
  }
  attr {
    key: "dtype"
    value {
      type: DT_FLOAT
    }
  }
  attr {
    key: "value"
    value {
      tensor {
        dtype: DT_FLOAT
        tensor_shape {
        }
        float_val: 0.10127393901348114
      }
    }
  }
}
node {
  name: "DS-CNN/conv_ds_3/dw_conv/depthwise_weights/Initializer/random_uniform/RandomUniform"
  op: "RandomUniform"
  input: "DS-CNN/conv_ds_3/dw_conv/depthwise_weights/Initializer/random_uniform/shape"
  attr {
    key: "T"
    value {
      type: DT_INT32
    }
  }
  attr {
    key: "_class"
    value {
      list {
        s: "loc:@DS-CNN/conv_ds_3/dw_conv/depthwise_weights"
      }
    }
  }
  attr {
    key: "dtype"
    value {
      type: DT_FLOAT
    }
  }
  attr {
    key: "seed"
    value {
      i: 0
    }
  }
  attr {
    key: "seed2"
    value {
      i: 0
    }
  }
}
node {
  name: "DS-CNN/conv_ds_3/dw_conv/depthwise_weights/Initializer/random_uniform/sub"
  op: "Sub"
  input: "DS-CNN/conv_ds_3/dw_conv/depthwise_weights/Initializer/random_uniform/max"
  input: "DS-CNN/conv_ds_3/dw_conv/depthwise_weights/Initializer/random_uniform/min"
  attr {
    key: "T"
    value {
      type: DT_FLOAT
    }
  }
  attr {
    key: "_class"
    value {
      list {
        s: "loc:@DS-CNN/conv_ds_3/dw_conv/depthwise_weights"
      }
    }
  }
}
node {
  name: "DS-CNN/conv_ds_3/dw_conv/depthwise_weights/Initializer/random_uniform/mul"
  op: "Mul"
  input: "DS-CNN/conv_ds_3/dw_conv/depthwise_weights/Initializer/random_uniform/RandomUniform"
  input: "DS-CNN/conv_ds_3/dw_conv/depthwise_weights/Initializer/random_uniform/sub"
  attr {
    key: "T"
    value {
      type: DT_FLOAT
    }
  }
  attr {
    key: "_class"
    value {
      list {
        s: "loc:@DS-CNN/conv_ds_3/dw_conv/depthwise_weights"
      }
    }
  }
}
node {
  name: "DS-CNN/conv_ds_3/dw_conv/depthwise_weights/Initializer/random_uniform"
  op: "Add"
  input: "DS-CNN/conv_ds_3/dw_conv/depthwise_weights/Initializer/random_uniform/mul"
  input: "DS-CNN/conv_ds_3/dw_conv/depthwise_weights/Initializer/random_uniform/min"
  attr {
    key: "T"
    value {
      type: DT_FLOAT
    }
  }
  attr {
    key: "_class"
    value {
      list {
        s: "loc:@DS-CNN/conv_ds_3/dw_conv/depthwise_weights"
      }
    }
  }
}
node {
  name: "DS-CNN/conv_ds_3/dw_conv/depthwise_weights"
  op: "VariableV2"
  attr {
    key: "_class"
    value {
      list {
        s: "loc:@DS-CNN/conv_ds_3/dw_conv/depthwise_weights"
      }
    }
  }
  attr {
    key: "container"
    value {
      s: ""
    }
  }
  attr {
    key: "dtype"
    value {
      type: DT_FLOAT
    }
  }
  attr {
    key: "shape"
    value {
      shape {
        dim {
          size: 3
        }
        dim {
          size: 3
        }
        dim {
          size: 64
        }
        dim {
          size: 1
        }
      }
    }
  }
  attr {
    key: "shared_name"
    value {
      s: ""
    }
  }
}
node {
  name: "DS-CNN/conv_ds_3/dw_conv/depthwise_weights/Assign"
  op: "Assign"
  input: "DS-CNN/conv_ds_3/dw_conv/depthwise_weights"
  input: "DS-CNN/conv_ds_3/dw_conv/depthwise_weights/Initializer/random_uniform"
  attr {
    key: "T"
    value {
      type: DT_FLOAT
    }
  }
  attr {
    key: "_class"
    value {
      list {
        s: "loc:@DS-CNN/conv_ds_3/dw_conv/depthwise_weights"
      }
    }
  }
  attr {
    key: "use_locking"
    value {
      b: true
    }
  }
  attr {
    key: "validate_shape"
    value {
      b: true
    }
  }
}
node {
  name: "DS-CNN/conv_ds_3/dw_conv/depthwise_weights/read"
  op: "Identity"
  input: "DS-CNN/conv_ds_3/dw_conv/depthwise_weights"
  attr {
    key: "T"
    value {
      type: DT_FLOAT
    }
  }
  attr {
    key: "_class"
    value {
      list {
        s: "loc:@DS-CNN/conv_ds_3/dw_conv/depthwise_weights"
      }
    }
  }
}
node {
  name: "DS-CNN/conv_ds_3/dw_conv/depthwise/Shape"
  op: "Const"
  attr {
    key: "dtype"
    value {
      type: DT_INT32
    }
  }
  attr {
    key: "value"
    value {
      tensor {
        dtype: DT_INT32
        tensor_shape {
          dim {
            size: 4
          }
        }
        tensor_content: "\003\000\000\000\003\000\000\000@\000\000\000\001\000\000\000"
      }
    }
  }
}
node {
  name: "DS-CNN/conv_ds_3/dw_conv/depthwise/dilation_rate"
  op: "Const"
  attr {
    key: "dtype"
    value {
      type: DT_INT32
    }
  }
  attr {
    key: "value"
    value {
      tensor {
        dtype: DT_INT32
        tensor_shape {
          dim {
            size: 2
          }
        }
        tensor_content: "\001\000\000\000\001\000\000\000"
      }
    }
  }
}
node {
  name: "DS-CNN/conv_ds_3/dw_conv/depthwise"
  op: "DepthwiseConv2dNative"
  input: "DS-CNN/conv_ds_2/pw_conv/batch_norm/Relu"
  input: "DS-CNN/conv_ds_3/dw_conv/depthwise_weights/read"
  attr {
    key: "T"
    value {
      type: DT_FLOAT
    }
  }
  attr {
    key: "data_format"
    value {
      s: "NHWC"
    }
  }
  attr {
    key: "dilations"
    value {
      list {
        i: 1
        i: 1
        i: 1
        i: 1
      }
    }
  }
  attr {
    key: "padding"
    value {
      s: "VALID"
    }
  }
  attr {
    key: "strides"
    value {
      list {
        i: 1
        i: 1
        i: 1
        i: 1
      }
    }
  }
}
node {
  name: "DS-CNN/conv_ds_3/dw_conv/biases/Initializer/zeros"
  op: "Const"
  attr {
    key: "_class"
    value {
      list {
        s: "loc:@DS-CNN/conv_ds_3/dw_conv/biases"
      }
    }
  }
  attr {
    key: "dtype"
    value {
      type: DT_FLOAT
    }
  }
  attr {
    key: "value"
    value {
      tensor {
        dtype: DT_FLOAT
        tensor_shape {
          dim {
            size: 64
          }
        }
        float_val: 0.0
      }
    }
  }
}
node {
  name: "DS-CNN/conv_ds_3/dw_conv/biases"
  op: "VariableV2"
  attr {
    key: "_class"
    value {
      list {
        s: "loc:@DS-CNN/conv_ds_3/dw_conv/biases"
      }
    }
  }
  attr {
    key: "container"
    value {
      s: ""
    }
  }
  attr {
    key: "dtype"
    value {
      type: DT_FLOAT
    }
  }
  attr {
    key: "shape"
    value {
      shape {
        dim {
          size: 64
        }
      }
    }
  }
  attr {
    key: "shared_name"
    value {
      s: ""
    }
  }
}
node {
  name: "DS-CNN/conv_ds_3/dw_conv/biases/Assign"
  op: "Assign"
  input: "DS-CNN/conv_ds_3/dw_conv/biases"
  input: "DS-CNN/conv_ds_3/dw_conv/biases/Initializer/zeros"
  attr {
    key: "T"
    value {
      type: DT_FLOAT
    }
  }
  attr {
    key: "_class"
    value {
      list {
        s: "loc:@DS-CNN/conv_ds_3/dw_conv/biases"
      }
    }
  }
  attr {
    key: "use_locking"
    value {
      b: true
    }
  }
  attr {
    key: "validate_shape"
    value {
      b: true
    }
  }
}
node {
  name: "DS-CNN/conv_ds_3/dw_conv/biases/read"
  op: "Identity"
  input: "DS-CNN/conv_ds_3/dw_conv/biases"
  attr {
    key: "T"
    value {
      type: DT_FLOAT
    }
  }
  attr {
    key: "_class"
    value {
      list {
        s: "loc:@DS-CNN/conv_ds_3/dw_conv/biases"
      }
    }
  }
}
node {
  name: "DS-CNN/conv_ds_3/dw_conv/BiasAdd"
  op: "BiasAdd"
  input: "DS-CNN/conv_ds_3/dw_conv/depthwise"
  input: "DS-CNN/conv_ds_3/dw_conv/biases/read"
  attr {
    key: "T"
    value {
      type: DT_FLOAT
    }
  }
  attr {
    key: "data_format"
    value {
      s: "NHWC"
    }
  }
}
node {
  name: "DS-CNN/conv_ds_3/dw_conv/batch_norm/beta/Initializer/zeros"
  op: "Const"
  attr {
    key: "_class"
    value {
      list {
        s: "loc:@DS-CNN/conv_ds_3/dw_conv/batch_norm/beta"
      }
    }
  }
  attr {
    key: "dtype"
    value {
      type: DT_FLOAT
    }
  }
  attr {
    key: "value"
    value {
      tensor {
        dtype: DT_FLOAT
        tensor_shape {
          dim {
            size: 64
          }
        }
        float_val: 0.0
      }
    }
  }
}
node {
  name: "DS-CNN/conv_ds_3/dw_conv/batch_norm/beta"
  op: "VariableV2"
  attr {
    key: "_class"
    value {
      list {
        s: "loc:@DS-CNN/conv_ds_3/dw_conv/batch_norm/beta"
      }
    }
  }
  attr {
    key: "container"
    value {
      s: ""
    }
  }
  attr {
    key: "dtype"
    value {
      type: DT_FLOAT
    }
  }
  attr {
    key: "shape"
    value {
      shape {
        dim {
          size: 64
        }
      }
    }
  }
  attr {
    key: "shared_name"
    value {
      s: ""
    }
  }
}
node {
  name: "DS-CNN/conv_ds_3/dw_conv/batch_norm/beta/Assign"
  op: "Assign"
  input: "DS-CNN/conv_ds_3/dw_conv/batch_norm/beta"
  input: "DS-CNN/conv_ds_3/dw_conv/batch_norm/beta/Initializer/zeros"
  attr {
    key: "T"
    value {
      type: DT_FLOAT
    }
  }
  attr {
    key: "_class"
    value {
      list {
        s: "loc:@DS-CNN/conv_ds_3/dw_conv/batch_norm/beta"
      }
    }
  }
  attr {
    key: "use_locking"
    value {
      b: true
    }
  }
  attr {
    key: "validate_shape"
    value {
      b: true
    }
  }
}
node {
  name: "DS-CNN/conv_ds_3/dw_conv/batch_norm/beta/read"
  op: "Identity"
  input: "DS-CNN/conv_ds_3/dw_conv/batch_norm/beta"
  attr {
    key: "T"
    value {
      type: DT_FLOAT
    }
  }
  attr {
    key: "_class"
    value {
      list {
        s: "loc:@DS-CNN/conv_ds_3/dw_conv/batch_norm/beta"
      }
    }
  }
}
node {
  name: "DS-CNN/conv_ds_3/dw_conv/batch_norm/Const"
  op: "Const"
  attr {
    key: "dtype"
    value {
      type: DT_FLOAT
    }
  }
  attr {
    key: "value"
    value {
      tensor {
        dtype: DT_FLOAT
        tensor_shape {
          dim {
            size: 64
          }
        }
        float_val: 1.0
      }
    }
  }
}
node {
  name: "DS-CNN/conv_ds_3/dw_conv/batch_norm/moving_mean/Initializer/zeros"
  op: "Const"
  attr {
    key: "_class"
    value {
      list {
        s: "loc:@DS-CNN/conv_ds_3/dw_conv/batch_norm/moving_mean"
      }
    }
  }
  attr {
    key: "dtype"
    value {
      type: DT_FLOAT
    }
  }
  attr {
    key: "value"
    value {
      tensor {
        dtype: DT_FLOAT
        tensor_shape {
          dim {
            size: 64
          }
        }
        float_val: 0.0
      }
    }
  }
}
node {
  name: "DS-CNN/conv_ds_3/dw_conv/batch_norm/moving_mean"
  op: "VariableV2"
  attr {
    key: "_class"
    value {
      list {
        s: "loc:@DS-CNN/conv_ds_3/dw_conv/batch_norm/moving_mean"
      }
    }
  }
  attr {
    key: "container"
    value {
      s: ""
    }
  }
  attr {
    key: "dtype"
    value {
      type: DT_FLOAT
    }
  }
  attr {
    key: "shape"
    value {
      shape {
        dim {
          size: 64
        }
      }
    }
  }
  attr {
    key: "shared_name"
    value {
      s: ""
    }
  }
}
node {
  name: "DS-CNN/conv_ds_3/dw_conv/batch_norm/moving_mean/Assign"
  op: "Assign"
  input: "DS-CNN/conv_ds_3/dw_conv/batch_norm/moving_mean"
  input: "DS-CNN/conv_ds_3/dw_conv/batch_norm/moving_mean/Initializer/zeros"
  attr {
    key: "T"
    value {
      type: DT_FLOAT
    }
  }
  attr {
    key: "_class"
    value {
      list {
        s: "loc:@DS-CNN/conv_ds_3/dw_conv/batch_norm/moving_mean"
      }
    }
  }
  attr {
    key: "use_locking"
    value {
      b: true
    }
  }
  attr {
    key: "validate_shape"
    value {
      b: true
    }
  }
}
node {
  name: "DS-CNN/conv_ds_3/dw_conv/batch_norm/moving_mean/read"
  op: "Identity"
  input: "DS-CNN/conv_ds_3/dw_conv/batch_norm/moving_mean"
  attr {
    key: "T"
    value {
      type: DT_FLOAT
    }
  }
  attr {
    key: "_class"
    value {
      list {
        s: "loc:@DS-CNN/conv_ds_3/dw_conv/batch_norm/moving_mean"
      }
    }
  }
}
node {
  name: "DS-CNN/conv_ds_3/dw_conv/batch_norm/moving_variance/Initializer/ones"
  op: "Const"
  attr {
    key: "_class"
    value {
      list {
        s: "loc:@DS-CNN/conv_ds_3/dw_conv/batch_norm/moving_variance"
      }
    }
  }
  attr {
    key: "dtype"
    value {
      type: DT_FLOAT
    }
  }
  attr {
    key: "value"
    value {
      tensor {
        dtype: DT_FLOAT
        tensor_shape {
          dim {
            size: 64
          }
        }
        float_val: 1.0
      }
    }
  }
}
node {
  name: "DS-CNN/conv_ds_3/dw_conv/batch_norm/moving_variance"
  op: "VariableV2"
  attr {
    key: "_class"
    value {
      list {
        s: "loc:@DS-CNN/conv_ds_3/dw_conv/batch_norm/moving_variance"
      }
    }
  }
  attr {
    key: "container"
    value {
      s: ""
    }
  }
  attr {
    key: "dtype"
    value {
      type: DT_FLOAT
    }
  }
  attr {
    key: "shape"
    value {
      shape {
        dim {
          size: 64
        }
      }
    }
  }
  attr {
    key: "shared_name"
    value {
      s: ""
    }
  }
}
node {
  name: "DS-CNN/conv_ds_3/dw_conv/batch_norm/moving_variance/Assign"
  op: "Assign"
  input: "DS-CNN/conv_ds_3/dw_conv/batch_norm/moving_variance"
  input: "DS-CNN/conv_ds_3/dw_conv/batch_norm/moving_variance/Initializer/ones"
  attr {
    key: "T"
    value {
      type: DT_FLOAT
    }
  }
  attr {
    key: "_class"
    value {
      list {
        s: "loc:@DS-CNN/conv_ds_3/dw_conv/batch_norm/moving_variance"
      }
    }
  }
  attr {
    key: "use_locking"
    value {
      b: true
    }
  }
  attr {
    key: "validate_shape"
    value {
      b: true
    }
  }
}
node {
  name: "DS-CNN/conv_ds_3/dw_conv/batch_norm/moving_variance/read"
  op: "Identity"
  input: "DS-CNN/conv_ds_3/dw_conv/batch_norm/moving_variance"
  attr {
    key: "T"
    value {
      type: DT_FLOAT
    }
  }
  attr {
    key: "_class"
    value {
      list {
        s: "loc:@DS-CNN/conv_ds_3/dw_conv/batch_norm/moving_variance"
      }
    }
  }
}
node {
  name: "DS-CNN/conv_ds_3/dw_conv/batch_norm/Const_1"
  op: "Const"
  attr {
    key: "dtype"
    value {
      type: DT_FLOAT
    }
  }
  attr {
    key: "value"
    value {
      tensor {
        dtype: DT_FLOAT
        tensor_shape {
          dim {
          }
        }
      }
    }
  }
}
node {
  name: "DS-CNN/conv_ds_3/dw_conv/batch_norm/Const_2"
  op: "Const"
  attr {
    key: "dtype"
    value {
      type: DT_FLOAT
    }
  }
  attr {
    key: "value"
    value {
      tensor {
        dtype: DT_FLOAT
        tensor_shape {
          dim {
          }
        }
      }
    }
  }
}
node {
  name: "DS-CNN/conv_ds_3/dw_conv/batch_norm/FusedBatchNorm"
  op: "FusedBatchNorm"
  input: "DS-CNN/conv_ds_3/dw_conv/BiasAdd"
  input: "DS-CNN/conv_ds_3/dw_conv/batch_norm/Const"
  input: "DS-CNN/conv_ds_3/dw_conv/batch_norm/beta/read"
  input: "DS-CNN/conv_ds_3/dw_conv/batch_norm/Const_1"
  input: "DS-CNN/conv_ds_3/dw_conv/batch_norm/Const_2"
  attr {
    key: "T"
    value {
      type: DT_FLOAT
    }
  }
  attr {
    key: "data_format"
    value {
      s: "NHWC"
    }
  }
  attr {
    key: "epsilon"
    value {
      f: 0.0010000000474974513
    }
  }
  attr {
    key: "is_training"
    value {
      b: true
    }
  }
}
node {
  name: "DS-CNN/conv_ds_3/dw_conv/batch_norm/AssignMovingAvg/decay"
  op: "Const"
  attr {
    key: "dtype"
    value {
      type: DT_FLOAT
    }
  }
  attr {
    key: "value"
    value {
      tensor {
        dtype: DT_FLOAT
        tensor_shape {
        }
        float_val: 0.03999999910593033
      }
    }
  }
}
node {
  name: "DS-CNN/conv_ds_3/dw_conv/batch_norm/AssignMovingAvg/sub"
  op: "Sub"
  input: "DS-CNN/conv_ds_3/dw_conv/batch_norm/moving_mean/read"
  input: "DS-CNN/conv_ds_3/dw_conv/batch_norm/FusedBatchNorm:1"
  attr {
    key: "T"
    value {
      type: DT_FLOAT
    }
  }
}
node {
  name: "DS-CNN/conv_ds_3/dw_conv/batch_norm/AssignMovingAvg/mul"
  op: "Mul"
  input: "DS-CNN/conv_ds_3/dw_conv/batch_norm/AssignMovingAvg/sub"
  input: "DS-CNN/conv_ds_3/dw_conv/batch_norm/AssignMovingAvg/decay"
  attr {
    key: "T"
    value {
      type: DT_FLOAT
    }
  }
}
node {
  name: "DS-CNN/conv_ds_3/dw_conv/batch_norm/AssignMovingAvg"
  op: "AssignSub"
  input: "DS-CNN/conv_ds_3/dw_conv/batch_norm/moving_mean"
  input: "DS-CNN/conv_ds_3/dw_conv/batch_norm/AssignMovingAvg/mul"
  attr {
    key: "T"
    value {
      type: DT_FLOAT
    }
  }
  attr {
    key: "_class"
    value {
      list {
        s: "loc:@DS-CNN/conv_ds_3/dw_conv/batch_norm/moving_mean"
      }
    }
  }
  attr {
    key: "use_locking"
    value {
      b: false
    }
  }
}
node {
  name: "DS-CNN/conv_ds_3/dw_conv/batch_norm/AssignMovingAvg_1/decay"
  op: "Const"
  attr {
    key: "dtype"
    value {
      type: DT_FLOAT
    }
  }
  attr {
    key: "value"
    value {
      tensor {
        dtype: DT_FLOAT
        tensor_shape {
        }
        float_val: 0.03999999910593033
      }
    }
  }
}
node {
  name: "DS-CNN/conv_ds_3/dw_conv/batch_norm/AssignMovingAvg_1/sub"
  op: "Sub"
  input: "DS-CNN/conv_ds_3/dw_conv/batch_norm/moving_variance/read"
  input: "DS-CNN/conv_ds_3/dw_conv/batch_norm/FusedBatchNorm:2"
  attr {
    key: "T"
    value {
      type: DT_FLOAT
    }
  }
}
node {
  name: "DS-CNN/conv_ds_3/dw_conv/batch_norm/AssignMovingAvg_1/mul"
  op: "Mul"
  input: "DS-CNN/conv_ds_3/dw_conv/batch_norm/AssignMovingAvg_1/sub"
  input: "DS-CNN/conv_ds_3/dw_conv/batch_norm/AssignMovingAvg_1/decay"
  attr {
    key: "T"
    value {
      type: DT_FLOAT
    }
  }
}
node {
  name: "DS-CNN/conv_ds_3/dw_conv/batch_norm/AssignMovingAvg_1"
  op: "AssignSub"
  input: "DS-CNN/conv_ds_3/dw_conv/batch_norm/moving_variance"
  input: "DS-CNN/conv_ds_3/dw_conv/batch_norm/AssignMovingAvg_1/mul"
  attr {
    key: "T"
    value {
      type: DT_FLOAT
    }
  }
  attr {
    key: "_class"
    value {
      list {
        s: "loc:@DS-CNN/conv_ds_3/dw_conv/batch_norm/moving_variance"
      }
    }
  }
  attr {
    key: "use_locking"
    value {
      b: false
    }
  }
}
node {
  name: "DS-CNN/conv_ds_3/dw_conv/batch_norm/Identity"
  op: "Identity"
  input: "DS-CNN/conv_ds_3/dw_conv/batch_norm/FusedBatchNorm"
  input: "^DS-CNN/conv_ds_3/dw_conv/batch_norm/AssignMovingAvg"
  input: "^DS-CNN/conv_ds_3/dw_conv/batch_norm/AssignMovingAvg_1"
  attr {
    key: "T"
    value {
      type: DT_FLOAT
    }
  }
}
node {
  name: "DS-CNN/conv_ds_3/dw_conv/batch_norm/Relu"
  op: "Relu"
  input: "DS-CNN/conv_ds_3/dw_conv/batch_norm/Identity"
  attr {
    key: "T"
    value {
      type: DT_FLOAT
    }
  }
}
node {
  name: "DS-CNN/conv_ds_3/pw_conv/weights/Initializer/random_uniform/shape"
  op: "Const"
  attr {
    key: "_class"
    value {
      list {
        s: "loc:@DS-CNN/conv_ds_3/pw_conv/weights"
      }
    }
  }
  attr {
    key: "dtype"
    value {
      type: DT_INT32
    }
  }
  attr {
    key: "value"
    value {
      tensor {
        dtype: DT_INT32
        tensor_shape {
          dim {
            size: 4
          }
        }
        tensor_content: "\001\000\000\000\001\000\000\000@\000\000\000@\000\000\000"
      }
    }
  }
}
node {
  name: "DS-CNN/conv_ds_3/pw_conv/weights/Initializer/random_uniform/min"
  op: "Const"
  attr {
    key: "_class"
    value {
      list {
        s: "loc:@DS-CNN/conv_ds_3/pw_conv/weights"
      }
    }
  }
  attr {
    key: "dtype"
    value {
      type: DT_FLOAT
    }
  }
  attr {
    key: "value"
    value {
      tensor {
        dtype: DT_FLOAT
        tensor_shape {
        }
        float_val: -0.21650634706020355
      }
    }
  }
}
node {
  name: "DS-CNN/conv_ds_3/pw_conv/weights/Initializer/random_uniform/max"
  op: "Const"
  attr {
    key: "_class"
    value {
      list {
        s: "loc:@DS-CNN/conv_ds_3/pw_conv/weights"
      }
    }
  }
  attr {
    key: "dtype"
    value {
      type: DT_FLOAT
    }
  }
  attr {
    key: "value"
    value {
      tensor {
        dtype: DT_FLOAT
        tensor_shape {
        }
        float_val: 0.21650634706020355
      }
    }
  }
}
node {
  name: "DS-CNN/conv_ds_3/pw_conv/weights/Initializer/random_uniform/RandomUniform"
  op: "RandomUniform"
  input: "DS-CNN/conv_ds_3/pw_conv/weights/Initializer/random_uniform/shape"
  attr {
    key: "T"
    value {
      type: DT_INT32
    }
  }
  attr {
    key: "_class"
    value {
      list {
        s: "loc:@DS-CNN/conv_ds_3/pw_conv/weights"
      }
    }
  }
  attr {
    key: "dtype"
    value {
      type: DT_FLOAT
    }
  }
  attr {
    key: "seed"
    value {
      i: 0
    }
  }
  attr {
    key: "seed2"
    value {
      i: 0
    }
  }
}
node {
  name: "DS-CNN/conv_ds_3/pw_conv/weights/Initializer/random_uniform/sub"
  op: "Sub"
  input: "DS-CNN/conv_ds_3/pw_conv/weights/Initializer/random_uniform/max"
  input: "DS-CNN/conv_ds_3/pw_conv/weights/Initializer/random_uniform/min"
  attr {
    key: "T"
    value {
      type: DT_FLOAT
    }
  }
  attr {
    key: "_class"
    value {
      list {
        s: "loc:@DS-CNN/conv_ds_3/pw_conv/weights"
      }
    }
  }
}
node {
  name: "DS-CNN/conv_ds_3/pw_conv/weights/Initializer/random_uniform/mul"
  op: "Mul"
  input: "DS-CNN/conv_ds_3/pw_conv/weights/Initializer/random_uniform/RandomUniform"
  input: "DS-CNN/conv_ds_3/pw_conv/weights/Initializer/random_uniform/sub"
  attr {
    key: "T"
    value {
      type: DT_FLOAT
    }
  }
  attr {
    key: "_class"
    value {
      list {
        s: "loc:@DS-CNN/conv_ds_3/pw_conv/weights"
      }
    }
  }
}
node {
  name: "DS-CNN/conv_ds_3/pw_conv/weights/Initializer/random_uniform"
  op: "Add"
  input: "DS-CNN/conv_ds_3/pw_conv/weights/Initializer/random_uniform/mul"
  input: "DS-CNN/conv_ds_3/pw_conv/weights/Initializer/random_uniform/min"
  attr {
    key: "T"
    value {
      type: DT_FLOAT
    }
  }
  attr {
    key: "_class"
    value {
      list {
        s: "loc:@DS-CNN/conv_ds_3/pw_conv/weights"
      }
    }
  }
}
node {
  name: "DS-CNN/conv_ds_3/pw_conv/weights"
  op: "VariableV2"
  attr {
    key: "_class"
    value {
      list {
        s: "loc:@DS-CNN/conv_ds_3/pw_conv/weights"
      }
    }
  }
  attr {
    key: "container"
    value {
      s: ""
    }
  }
  attr {
    key: "dtype"
    value {
      type: DT_FLOAT
    }
  }
  attr {
    key: "shape"
    value {
      shape {
        dim {
          size: 1
        }
        dim {
          size: 1
        }
        dim {
          size: 64
        }
        dim {
          size: 64
        }
      }
    }
  }
  attr {
    key: "shared_name"
    value {
      s: ""
    }
  }
}
node {
  name: "DS-CNN/conv_ds_3/pw_conv/weights/Assign"
  op: "Assign"
  input: "DS-CNN/conv_ds_3/pw_conv/weights"
  input: "DS-CNN/conv_ds_3/pw_conv/weights/Initializer/random_uniform"
  attr {
    key: "T"
    value {
      type: DT_FLOAT
    }
  }
  attr {
    key: "_class"
    value {
      list {
        s: "loc:@DS-CNN/conv_ds_3/pw_conv/weights"
      }
    }
  }
  attr {
    key: "use_locking"
    value {
      b: true
    }
  }
  attr {
    key: "validate_shape"
    value {
      b: true
    }
  }
}
node {
  name: "DS-CNN/conv_ds_3/pw_conv/weights/read"
  op: "Identity"
  input: "DS-CNN/conv_ds_3/pw_conv/weights"
  attr {
    key: "T"
    value {
      type: DT_FLOAT
    }
  }
  attr {
    key: "_class"
    value {
      list {
        s: "loc:@DS-CNN/conv_ds_3/pw_conv/weights"
      }
    }
  }
}
node {
  name: "DS-CNN/conv_ds_3/pw_conv/biases/Initializer/zeros"
  op: "Const"
  attr {
    key: "_class"
    value {
      list {
        s: "loc:@DS-CNN/conv_ds_3/pw_conv/biases"
      }
    }
  }
  attr {
    key: "dtype"
    value {
      type: DT_FLOAT
    }
  }
  attr {
    key: "value"
    value {
      tensor {
        dtype: DT_FLOAT
        tensor_shape {
          dim {
            size: 64
          }
        }
        float_val: 0.0
      }
    }
  }
}
node {
  name: "DS-CNN/conv_ds_3/pw_conv/biases"
  op: "VariableV2"
  attr {
    key: "_class"
    value {
      list {
        s: "loc:@DS-CNN/conv_ds_3/pw_conv/biases"
      }
    }
  }
  attr {
    key: "container"
    value {
      s: ""
    }
  }
  attr {
    key: "dtype"
    value {
      type: DT_FLOAT
    }
  }
  attr {
    key: "shape"
    value {
      shape {
        dim {
          size: 64
        }
      }
    }
  }
  attr {
    key: "shared_name"
    value {
      s: ""
    }
  }
}
node {
  name: "DS-CNN/conv_ds_3/pw_conv/biases/Assign"
  op: "Assign"
  input: "DS-CNN/conv_ds_3/pw_conv/biases"
  input: "DS-CNN/conv_ds_3/pw_conv/biases/Initializer/zeros"
  attr {
    key: "T"
    value {
      type: DT_FLOAT
    }
  }
  attr {
    key: "_class"
    value {
      list {
        s: "loc:@DS-CNN/conv_ds_3/pw_conv/biases"
      }
    }
  }
  attr {
    key: "use_locking"
    value {
      b: true
    }
  }
  attr {
    key: "validate_shape"
    value {
      b: true
    }
  }
}
node {
  name: "DS-CNN/conv_ds_3/pw_conv/biases/read"
  op: "Identity"
  input: "DS-CNN/conv_ds_3/pw_conv/biases"
  attr {
    key: "T"
    value {
      type: DT_FLOAT
    }
  }
  attr {
    key: "_class"
    value {
      list {
        s: "loc:@DS-CNN/conv_ds_3/pw_conv/biases"
      }
    }
  }
}
node {
  name: "DS-CNN/conv_ds_3/pw_conv/dilation_rate"
  op: "Const"
  attr {
    key: "dtype"
    value {
      type: DT_INT32
    }
  }
  attr {
    key: "value"
    value {
      tensor {
        dtype: DT_INT32
        tensor_shape {
          dim {
            size: 2
          }
        }
        tensor_content: "\001\000\000\000\001\000\000\000"
      }
    }
  }
}
node {
  name: "DS-CNN/conv_ds_3/pw_conv/Conv2D"
  op: "Conv2D"
  input: "DS-CNN/conv_ds_3/dw_conv/batch_norm/Relu"
  input: "DS-CNN/conv_ds_3/pw_conv/weights/read"
  attr {
    key: "T"
    value {
      type: DT_FLOAT
    }
  }
  attr {
    key: "data_format"
    value {
      s: "NHWC"
    }
  }
  attr {
    key: "dilations"
    value {
      list {
        i: 1
        i: 1
        i: 1
        i: 1
      }
    }
  }
  attr {
    key: "explicit_paddings"
    value {
      list {
      }
    }
  }
  attr {
    key: "padding"
    value {
      s: "SAME"
    }
  }
  attr {
    key: "strides"
    value {
      list {
        i: 1
        i: 1
        i: 1
        i: 1
      }
    }
  }
  attr {
    key: "use_cudnn_on_gpu"
    value {
      b: true
    }
  }
}
node {
  name: "DS-CNN/conv_ds_3/pw_conv/BiasAdd"
  op: "BiasAdd"
  input: "DS-CNN/conv_ds_3/pw_conv/Conv2D"
  input: "DS-CNN/conv_ds_3/pw_conv/biases/read"
  attr {
    key: "T"
    value {
      type: DT_FLOAT
    }
  }
  attr {
    key: "data_format"
    value {
      s: "NHWC"
    }
  }
}
node {
  name: "DS-CNN/conv_ds_3/pw_conv/batch_norm/beta/Initializer/zeros"
  op: "Const"
  attr {
    key: "_class"
    value {
      list {
        s: "loc:@DS-CNN/conv_ds_3/pw_conv/batch_norm/beta"
      }
    }
  }
  attr {
    key: "dtype"
    value {
      type: DT_FLOAT
    }
  }
  attr {
    key: "value"
    value {
      tensor {
        dtype: DT_FLOAT
        tensor_shape {
          dim {
            size: 64
          }
        }
        float_val: 0.0
      }
    }
  }
}
node {
  name: "DS-CNN/conv_ds_3/pw_conv/batch_norm/beta"
  op: "VariableV2"
  attr {
    key: "_class"
    value {
      list {
        s: "loc:@DS-CNN/conv_ds_3/pw_conv/batch_norm/beta"
      }
    }
  }
  attr {
    key: "container"
    value {
      s: ""
    }
  }
  attr {
    key: "dtype"
    value {
      type: DT_FLOAT
    }
  }
  attr {
    key: "shape"
    value {
      shape {
        dim {
          size: 64
        }
      }
    }
  }
  attr {
    key: "shared_name"
    value {
      s: ""
    }
  }
}
node {
  name: "DS-CNN/conv_ds_3/pw_conv/batch_norm/beta/Assign"
  op: "Assign"
  input: "DS-CNN/conv_ds_3/pw_conv/batch_norm/beta"
  input: "DS-CNN/conv_ds_3/pw_conv/batch_norm/beta/Initializer/zeros"
  attr {
    key: "T"
    value {
      type: DT_FLOAT
    }
  }
  attr {
    key: "_class"
    value {
      list {
        s: "loc:@DS-CNN/conv_ds_3/pw_conv/batch_norm/beta"
      }
    }
  }
  attr {
    key: "use_locking"
    value {
      b: true
    }
  }
  attr {
    key: "validate_shape"
    value {
      b: true
    }
  }
}
node {
  name: "DS-CNN/conv_ds_3/pw_conv/batch_norm/beta/read"
  op: "Identity"
  input: "DS-CNN/conv_ds_3/pw_conv/batch_norm/beta"
  attr {
    key: "T"
    value {
      type: DT_FLOAT
    }
  }
  attr {
    key: "_class"
    value {
      list {
        s: "loc:@DS-CNN/conv_ds_3/pw_conv/batch_norm/beta"
      }
    }
  }
}
node {
  name: "DS-CNN/conv_ds_3/pw_conv/batch_norm/Const"
  op: "Const"
  attr {
    key: "dtype"
    value {
      type: DT_FLOAT
    }
  }
  attr {
    key: "value"
    value {
      tensor {
        dtype: DT_FLOAT
        tensor_shape {
          dim {
            size: 64
          }
        }
        float_val: 1.0
      }
    }
  }
}
node {
  name: "DS-CNN/conv_ds_3/pw_conv/batch_norm/moving_mean/Initializer/zeros"
  op: "Const"
  attr {
    key: "_class"
    value {
      list {
        s: "loc:@DS-CNN/conv_ds_3/pw_conv/batch_norm/moving_mean"
      }
    }
  }
  attr {
    key: "dtype"
    value {
      type: DT_FLOAT
    }
  }
  attr {
    key: "value"
    value {
      tensor {
        dtype: DT_FLOAT
        tensor_shape {
          dim {
            size: 64
          }
        }
        float_val: 0.0
      }
    }
  }
}
node {
  name: "DS-CNN/conv_ds_3/pw_conv/batch_norm/moving_mean"
  op: "VariableV2"
  attr {
    key: "_class"
    value {
      list {
        s: "loc:@DS-CNN/conv_ds_3/pw_conv/batch_norm/moving_mean"
      }
    }
  }
  attr {
    key: "container"
    value {
      s: ""
    }
  }
  attr {
    key: "dtype"
    value {
      type: DT_FLOAT
    }
  }
  attr {
    key: "shape"
    value {
      shape {
        dim {
          size: 64
        }
      }
    }
  }
  attr {
    key: "shared_name"
    value {
      s: ""
    }
  }
}
node {
  name: "DS-CNN/conv_ds_3/pw_conv/batch_norm/moving_mean/Assign"
  op: "Assign"
  input: "DS-CNN/conv_ds_3/pw_conv/batch_norm/moving_mean"
  input: "DS-CNN/conv_ds_3/pw_conv/batch_norm/moving_mean/Initializer/zeros"
  attr {
    key: "T"
    value {
      type: DT_FLOAT
    }
  }
  attr {
    key: "_class"
    value {
      list {
        s: "loc:@DS-CNN/conv_ds_3/pw_conv/batch_norm/moving_mean"
      }
    }
  }
  attr {
    key: "use_locking"
    value {
      b: true
    }
  }
  attr {
    key: "validate_shape"
    value {
      b: true
    }
  }
}
node {
  name: "DS-CNN/conv_ds_3/pw_conv/batch_norm/moving_mean/read"
  op: "Identity"
  input: "DS-CNN/conv_ds_3/pw_conv/batch_norm/moving_mean"
  attr {
    key: "T"
    value {
      type: DT_FLOAT
    }
  }
  attr {
    key: "_class"
    value {
      list {
        s: "loc:@DS-CNN/conv_ds_3/pw_conv/batch_norm/moving_mean"
      }
    }
  }
}
node {
  name: "DS-CNN/conv_ds_3/pw_conv/batch_norm/moving_variance/Initializer/ones"
  op: "Const"
  attr {
    key: "_class"
    value {
      list {
        s: "loc:@DS-CNN/conv_ds_3/pw_conv/batch_norm/moving_variance"
      }
    }
  }
  attr {
    key: "dtype"
    value {
      type: DT_FLOAT
    }
  }
  attr {
    key: "value"
    value {
      tensor {
        dtype: DT_FLOAT
        tensor_shape {
          dim {
            size: 64
          }
        }
        float_val: 1.0
      }
    }
  }
}
node {
  name: "DS-CNN/conv_ds_3/pw_conv/batch_norm/moving_variance"
  op: "VariableV2"
  attr {
    key: "_class"
    value {
      list {
        s: "loc:@DS-CNN/conv_ds_3/pw_conv/batch_norm/moving_variance"
      }
    }
  }
  attr {
    key: "container"
    value {
      s: ""
    }
  }
  attr {
    key: "dtype"
    value {
      type: DT_FLOAT
    }
  }
  attr {
    key: "shape"
    value {
      shape {
        dim {
          size: 64
        }
      }
    }
  }
  attr {
    key: "shared_name"
    value {
      s: ""
    }
  }
}
node {
  name: "DS-CNN/conv_ds_3/pw_conv/batch_norm/moving_variance/Assign"
  op: "Assign"
  input: "DS-CNN/conv_ds_3/pw_conv/batch_norm/moving_variance"
  input: "DS-CNN/conv_ds_3/pw_conv/batch_norm/moving_variance/Initializer/ones"
  attr {
    key: "T"
    value {
      type: DT_FLOAT
    }
  }
  attr {
    key: "_class"
    value {
      list {
        s: "loc:@DS-CNN/conv_ds_3/pw_conv/batch_norm/moving_variance"
      }
    }
  }
  attr {
    key: "use_locking"
    value {
      b: true
    }
  }
  attr {
    key: "validate_shape"
    value {
      b: true
    }
  }
}
node {
  name: "DS-CNN/conv_ds_3/pw_conv/batch_norm/moving_variance/read"
  op: "Identity"
  input: "DS-CNN/conv_ds_3/pw_conv/batch_norm/moving_variance"
  attr {
    key: "T"
    value {
      type: DT_FLOAT
    }
  }
  attr {
    key: "_class"
    value {
      list {
        s: "loc:@DS-CNN/conv_ds_3/pw_conv/batch_norm/moving_variance"
      }
    }
  }
}
node {
  name: "DS-CNN/conv_ds_3/pw_conv/batch_norm/Const_1"
  op: "Const"
  attr {
    key: "dtype"
    value {
      type: DT_FLOAT
    }
  }
  attr {
    key: "value"
    value {
      tensor {
        dtype: DT_FLOAT
        tensor_shape {
          dim {
          }
        }
      }
    }
  }
}
node {
  name: "DS-CNN/conv_ds_3/pw_conv/batch_norm/Const_2"
  op: "Const"
  attr {
    key: "dtype"
    value {
      type: DT_FLOAT
    }
  }
  attr {
    key: "value"
    value {
      tensor {
        dtype: DT_FLOAT
        tensor_shape {
          dim {
          }
        }
      }
    }
  }
}
node {
  name: "DS-CNN/conv_ds_3/pw_conv/batch_norm/FusedBatchNorm"
  op: "FusedBatchNorm"
  input: "DS-CNN/conv_ds_3/pw_conv/BiasAdd"
  input: "DS-CNN/conv_ds_3/pw_conv/batch_norm/Const"
  input: "DS-CNN/conv_ds_3/pw_conv/batch_norm/beta/read"
  input: "DS-CNN/conv_ds_3/pw_conv/batch_norm/Const_1"
  input: "DS-CNN/conv_ds_3/pw_conv/batch_norm/Const_2"
  attr {
    key: "T"
    value {
      type: DT_FLOAT
    }
  }
  attr {
    key: "data_format"
    value {
      s: "NHWC"
    }
  }
  attr {
    key: "epsilon"
    value {
      f: 0.0010000000474974513
    }
  }
  attr {
    key: "is_training"
    value {
      b: true
    }
  }
}
node {
  name: "DS-CNN/conv_ds_3/pw_conv/batch_norm/AssignMovingAvg/decay"
  op: "Const"
  attr {
    key: "dtype"
    value {
      type: DT_FLOAT
    }
  }
  attr {
    key: "value"
    value {
      tensor {
        dtype: DT_FLOAT
        tensor_shape {
        }
        float_val: 0.03999999910593033
      }
    }
  }
}
node {
  name: "DS-CNN/conv_ds_3/pw_conv/batch_norm/AssignMovingAvg/sub"
  op: "Sub"
  input: "DS-CNN/conv_ds_3/pw_conv/batch_norm/moving_mean/read"
  input: "DS-CNN/conv_ds_3/pw_conv/batch_norm/FusedBatchNorm:1"
  attr {
    key: "T"
    value {
      type: DT_FLOAT
    }
  }
}
node {
  name: "DS-CNN/conv_ds_3/pw_conv/batch_norm/AssignMovingAvg/mul"
  op: "Mul"
  input: "DS-CNN/conv_ds_3/pw_conv/batch_norm/AssignMovingAvg/sub"
  input: "DS-CNN/conv_ds_3/pw_conv/batch_norm/AssignMovingAvg/decay"
  attr {
    key: "T"
    value {
      type: DT_FLOAT
    }
  }
}
node {
  name: "DS-CNN/conv_ds_3/pw_conv/batch_norm/AssignMovingAvg"
  op: "AssignSub"
  input: "DS-CNN/conv_ds_3/pw_conv/batch_norm/moving_mean"
  input: "DS-CNN/conv_ds_3/pw_conv/batch_norm/AssignMovingAvg/mul"
  attr {
    key: "T"
    value {
      type: DT_FLOAT
    }
  }
  attr {
    key: "_class"
    value {
      list {
        s: "loc:@DS-CNN/conv_ds_3/pw_conv/batch_norm/moving_mean"
      }
    }
  }
  attr {
    key: "use_locking"
    value {
      b: false
    }
  }
}
node {
  name: "DS-CNN/conv_ds_3/pw_conv/batch_norm/AssignMovingAvg_1/decay"
  op: "Const"
  attr {
    key: "dtype"
    value {
      type: DT_FLOAT
    }
  }
  attr {
    key: "value"
    value {
      tensor {
        dtype: DT_FLOAT
        tensor_shape {
        }
        float_val: 0.03999999910593033
      }
    }
  }
}
node {
  name: "DS-CNN/conv_ds_3/pw_conv/batch_norm/AssignMovingAvg_1/sub"
  op: "Sub"
  input: "DS-CNN/conv_ds_3/pw_conv/batch_norm/moving_variance/read"
  input: "DS-CNN/conv_ds_3/pw_conv/batch_norm/FusedBatchNorm:2"
  attr {
    key: "T"
    value {
      type: DT_FLOAT
    }
  }
}
node {
  name: "DS-CNN/conv_ds_3/pw_conv/batch_norm/AssignMovingAvg_1/mul"
  op: "Mul"
  input: "DS-CNN/conv_ds_3/pw_conv/batch_norm/AssignMovingAvg_1/sub"
  input: "DS-CNN/conv_ds_3/pw_conv/batch_norm/AssignMovingAvg_1/decay"
  attr {
    key: "T"
    value {
      type: DT_FLOAT
    }
  }
}
node {
  name: "DS-CNN/conv_ds_3/pw_conv/batch_norm/AssignMovingAvg_1"
  op: "AssignSub"
  input: "DS-CNN/conv_ds_3/pw_conv/batch_norm/moving_variance"
  input: "DS-CNN/conv_ds_3/pw_conv/batch_norm/AssignMovingAvg_1/mul"
  attr {
    key: "T"
    value {
      type: DT_FLOAT
    }
  }
  attr {
    key: "_class"
    value {
      list {
        s: "loc:@DS-CNN/conv_ds_3/pw_conv/batch_norm/moving_variance"
      }
    }
  }
  attr {
    key: "use_locking"
    value {
      b: false
    }
  }
}
node {
  name: "DS-CNN/conv_ds_3/pw_conv/batch_norm/Identity"
  op: "Identity"
  input: "DS-CNN/conv_ds_3/pw_conv/batch_norm/FusedBatchNorm"
  input: "^DS-CNN/conv_ds_3/pw_conv/batch_norm/AssignMovingAvg"
  input: "^DS-CNN/conv_ds_3/pw_conv/batch_norm/AssignMovingAvg_1"
  attr {
    key: "T"
    value {
      type: DT_FLOAT
    }
  }
}
node {
  name: "DS-CNN/conv_ds_3/pw_conv/batch_norm/Relu"
  op: "Relu"
  input: "DS-CNN/conv_ds_3/pw_conv/batch_norm/Identity"
  attr {
    key: "T"
    value {
      type: DT_FLOAT
    }
  }
}
node {
  name: "DS-CNN/conv_ds_4/dw_conv/depthwise_weights/Initializer/random_uniform/shape"
  op: "Const"
  attr {
    key: "_class"
    value {
      list {
        s: "loc:@DS-CNN/conv_ds_4/dw_conv/depthwise_weights"
      }
    }
  }
  attr {
    key: "dtype"
    value {
      type: DT_INT32
    }
  }
  attr {
    key: "value"
    value {
      tensor {
        dtype: DT_INT32
        tensor_shape {
          dim {
            size: 4
          }
        }
        tensor_content: "\003\000\000\000\003\000\000\000@\000\000\000\001\000\000\000"
      }
    }
  }
}
node {
  name: "DS-CNN/conv_ds_4/dw_conv/depthwise_weights/Initializer/random_uniform/min"
  op: "Const"
  attr {
    key: "_class"
    value {
      list {
        s: "loc:@DS-CNN/conv_ds_4/dw_conv/depthwise_weights"
      }
    }
  }
  attr {
    key: "dtype"
    value {
      type: DT_FLOAT
    }
  }
  attr {
    key: "value"
    value {
      tensor {
        dtype: DT_FLOAT
        tensor_shape {
        }
        float_val: -0.10127393901348114
      }
    }
  }
}
node {
  name: "DS-CNN/conv_ds_4/dw_conv/depthwise_weights/Initializer/random_uniform/max"
  op: "Const"
  attr {
    key: "_class"
    value {
      list {
        s: "loc:@DS-CNN/conv_ds_4/dw_conv/depthwise_weights"
      }
    }
  }
  attr {
    key: "dtype"
    value {
      type: DT_FLOAT
    }
  }
  attr {
    key: "value"
    value {
      tensor {
        dtype: DT_FLOAT
        tensor_shape {
        }
        float_val: 0.10127393901348114
      }
    }
  }
}
node {
  name: "DS-CNN/conv_ds_4/dw_conv/depthwise_weights/Initializer/random_uniform/RandomUniform"
  op: "RandomUniform"
  input: "DS-CNN/conv_ds_4/dw_conv/depthwise_weights/Initializer/random_uniform/shape"
  attr {
    key: "T"
    value {
      type: DT_INT32
    }
  }
  attr {
    key: "_class"
    value {
      list {
        s: "loc:@DS-CNN/conv_ds_4/dw_conv/depthwise_weights"
      }
    }
  }
  attr {
    key: "dtype"
    value {
      type: DT_FLOAT
    }
  }
  attr {
    key: "seed"
    value {
      i: 0
    }
  }
  attr {
    key: "seed2"
    value {
      i: 0
    }
  }
}
node {
  name: "DS-CNN/conv_ds_4/dw_conv/depthwise_weights/Initializer/random_uniform/sub"
  op: "Sub"
  input: "DS-CNN/conv_ds_4/dw_conv/depthwise_weights/Initializer/random_uniform/max"
  input: "DS-CNN/conv_ds_4/dw_conv/depthwise_weights/Initializer/random_uniform/min"
  attr {
    key: "T"
    value {
      type: DT_FLOAT
    }
  }
  attr {
    key: "_class"
    value {
      list {
        s: "loc:@DS-CNN/conv_ds_4/dw_conv/depthwise_weights"
      }
    }
  }
}
node {
  name: "DS-CNN/conv_ds_4/dw_conv/depthwise_weights/Initializer/random_uniform/mul"
  op: "Mul"
  input: "DS-CNN/conv_ds_4/dw_conv/depthwise_weights/Initializer/random_uniform/RandomUniform"
  input: "DS-CNN/conv_ds_4/dw_conv/depthwise_weights/Initializer/random_uniform/sub"
  attr {
    key: "T"
    value {
      type: DT_FLOAT
    }
  }
  attr {
    key: "_class"
    value {
      list {
        s: "loc:@DS-CNN/conv_ds_4/dw_conv/depthwise_weights"
      }
    }
  }
}
node {
  name: "DS-CNN/conv_ds_4/dw_conv/depthwise_weights/Initializer/random_uniform"
  op: "Add"
  input: "DS-CNN/conv_ds_4/dw_conv/depthwise_weights/Initializer/random_uniform/mul"
  input: "DS-CNN/conv_ds_4/dw_conv/depthwise_weights/Initializer/random_uniform/min"
  attr {
    key: "T"
    value {
      type: DT_FLOAT
    }
  }
  attr {
    key: "_class"
    value {
      list {
        s: "loc:@DS-CNN/conv_ds_4/dw_conv/depthwise_weights"
      }
    }
  }
}
node {
  name: "DS-CNN/conv_ds_4/dw_conv/depthwise_weights"
  op: "VariableV2"
  attr {
    key: "_class"
    value {
      list {
        s: "loc:@DS-CNN/conv_ds_4/dw_conv/depthwise_weights"
      }
    }
  }
  attr {
    key: "container"
    value {
      s: ""
    }
  }
  attr {
    key: "dtype"
    value {
      type: DT_FLOAT
    }
  }
  attr {
    key: "shape"
    value {
      shape {
        dim {
          size: 3
        }
        dim {
          size: 3
        }
        dim {
          size: 64
        }
        dim {
          size: 1
        }
      }
    }
  }
  attr {
    key: "shared_name"
    value {
      s: ""
    }
  }
}
node {
  name: "DS-CNN/conv_ds_4/dw_conv/depthwise_weights/Assign"
  op: "Assign"
  input: "DS-CNN/conv_ds_4/dw_conv/depthwise_weights"
  input: "DS-CNN/conv_ds_4/dw_conv/depthwise_weights/Initializer/random_uniform"
  attr {
    key: "T"
    value {
      type: DT_FLOAT
    }
  }
  attr {
    key: "_class"
    value {
      list {
        s: "loc:@DS-CNN/conv_ds_4/dw_conv/depthwise_weights"
      }
    }
  }
  attr {
    key: "use_locking"
    value {
      b: true
    }
  }
  attr {
    key: "validate_shape"
    value {
      b: true
    }
  }
}
node {
  name: "DS-CNN/conv_ds_4/dw_conv/depthwise_weights/read"
  op: "Identity"
  input: "DS-CNN/conv_ds_4/dw_conv/depthwise_weights"
  attr {
    key: "T"
    value {
      type: DT_FLOAT
    }
  }
  attr {
    key: "_class"
    value {
      list {
        s: "loc:@DS-CNN/conv_ds_4/dw_conv/depthwise_weights"
      }
    }
  }
}
node {
  name: "DS-CNN/conv_ds_4/dw_conv/depthwise/Shape"
  op: "Const"
  attr {
    key: "dtype"
    value {
      type: DT_INT32
    }
  }
  attr {
    key: "value"
    value {
      tensor {
        dtype: DT_INT32
        tensor_shape {
          dim {
            size: 4
          }
        }
        tensor_content: "\003\000\000\000\003\000\000\000@\000\000\000\001\000\000\000"
      }
    }
  }
}
node {
  name: "DS-CNN/conv_ds_4/dw_conv/depthwise/dilation_rate"
  op: "Const"
  attr {
    key: "dtype"
    value {
      type: DT_INT32
    }
  }
  attr {
    key: "value"
    value {
      tensor {
        dtype: DT_INT32
        tensor_shape {
          dim {
            size: 2
          }
        }
        tensor_content: "\001\000\000\000\001\000\000\000"
      }
    }
  }
}
node {
  name: "DS-CNN/conv_ds_4/dw_conv/depthwise"
  op: "DepthwiseConv2dNative"
  input: "DS-CNN/conv_ds_3/pw_conv/batch_norm/Relu"
  input: "DS-CNN/conv_ds_4/dw_conv/depthwise_weights/read"
  attr {
    key: "T"
    value {
      type: DT_FLOAT
    }
  }
  attr {
    key: "data_format"
    value {
      s: "NHWC"
    }
  }
  attr {
    key: "dilations"
    value {
      list {
        i: 1
        i: 1
        i: 1
        i: 1
      }
    }
  }
  attr {
    key: "padding"
    value {
      s: "VALID"
    }
  }
  attr {
    key: "strides"
    value {
      list {
        i: 1
        i: 1
        i: 1
        i: 1
      }
    }
  }
}
node {
  name: "DS-CNN/conv_ds_4/dw_conv/biases/Initializer/zeros"
  op: "Const"
  attr {
    key: "_class"
    value {
      list {
        s: "loc:@DS-CNN/conv_ds_4/dw_conv/biases"
      }
    }
  }
  attr {
    key: "dtype"
    value {
      type: DT_FLOAT
    }
  }
  attr {
    key: "value"
    value {
      tensor {
        dtype: DT_FLOAT
        tensor_shape {
          dim {
            size: 64
          }
        }
        float_val: 0.0
      }
    }
  }
}
node {
  name: "DS-CNN/conv_ds_4/dw_conv/biases"
  op: "VariableV2"
  attr {
    key: "_class"
    value {
      list {
        s: "loc:@DS-CNN/conv_ds_4/dw_conv/biases"
      }
    }
  }
  attr {
    key: "container"
    value {
      s: ""
    }
  }
  attr {
    key: "dtype"
    value {
      type: DT_FLOAT
    }
  }
  attr {
    key: "shape"
    value {
      shape {
        dim {
          size: 64
        }
      }
    }
  }
  attr {
    key: "shared_name"
    value {
      s: ""
    }
  }
}
node {
  name: "DS-CNN/conv_ds_4/dw_conv/biases/Assign"
  op: "Assign"
  input: "DS-CNN/conv_ds_4/dw_conv/biases"
  input: "DS-CNN/conv_ds_4/dw_conv/biases/Initializer/zeros"
  attr {
    key: "T"
    value {
      type: DT_FLOAT
    }
  }
  attr {
    key: "_class"
    value {
      list {
        s: "loc:@DS-CNN/conv_ds_4/dw_conv/biases"
      }
    }
  }
  attr {
    key: "use_locking"
    value {
      b: true
    }
  }
  attr {
    key: "validate_shape"
    value {
      b: true
    }
  }
}
node {
  name: "DS-CNN/conv_ds_4/dw_conv/biases/read"
  op: "Identity"
  input: "DS-CNN/conv_ds_4/dw_conv/biases"
  attr {
    key: "T"
    value {
      type: DT_FLOAT
    }
  }
  attr {
    key: "_class"
    value {
      list {
        s: "loc:@DS-CNN/conv_ds_4/dw_conv/biases"
      }
    }
  }
}
node {
  name: "DS-CNN/conv_ds_4/dw_conv/BiasAdd"
  op: "BiasAdd"
  input: "DS-CNN/conv_ds_4/dw_conv/depthwise"
  input: "DS-CNN/conv_ds_4/dw_conv/biases/read"
  attr {
    key: "T"
    value {
      type: DT_FLOAT
    }
  }
  attr {
    key: "data_format"
    value {
      s: "NHWC"
    }
  }
}
node {
  name: "DS-CNN/conv_ds_4/dw_conv/batch_norm/beta/Initializer/zeros"
  op: "Const"
  attr {
    key: "_class"
    value {
      list {
        s: "loc:@DS-CNN/conv_ds_4/dw_conv/batch_norm/beta"
      }
    }
  }
  attr {
    key: "dtype"
    value {
      type: DT_FLOAT
    }
  }
  attr {
    key: "value"
    value {
      tensor {
        dtype: DT_FLOAT
        tensor_shape {
          dim {
            size: 64
          }
        }
        float_val: 0.0
      }
    }
  }
}
node {
  name: "DS-CNN/conv_ds_4/dw_conv/batch_norm/beta"
  op: "VariableV2"
  attr {
    key: "_class"
    value {
      list {
        s: "loc:@DS-CNN/conv_ds_4/dw_conv/batch_norm/beta"
      }
    }
  }
  attr {
    key: "container"
    value {
      s: ""
    }
  }
  attr {
    key: "dtype"
    value {
      type: DT_FLOAT
    }
  }
  attr {
    key: "shape"
    value {
      shape {
        dim {
          size: 64
        }
      }
    }
  }
  attr {
    key: "shared_name"
    value {
      s: ""
    }
  }
}
node {
  name: "DS-CNN/conv_ds_4/dw_conv/batch_norm/beta/Assign"
  op: "Assign"
  input: "DS-CNN/conv_ds_4/dw_conv/batch_norm/beta"
  input: "DS-CNN/conv_ds_4/dw_conv/batch_norm/beta/Initializer/zeros"
  attr {
    key: "T"
    value {
      type: DT_FLOAT
    }
  }
  attr {
    key: "_class"
    value {
      list {
        s: "loc:@DS-CNN/conv_ds_4/dw_conv/batch_norm/beta"
      }
    }
  }
  attr {
    key: "use_locking"
    value {
      b: true
    }
  }
  attr {
    key: "validate_shape"
    value {
      b: true
    }
  }
}
node {
  name: "DS-CNN/conv_ds_4/dw_conv/batch_norm/beta/read"
  op: "Identity"
  input: "DS-CNN/conv_ds_4/dw_conv/batch_norm/beta"
  attr {
    key: "T"
    value {
      type: DT_FLOAT
    }
  }
  attr {
    key: "_class"
    value {
      list {
        s: "loc:@DS-CNN/conv_ds_4/dw_conv/batch_norm/beta"
      }
    }
  }
}
node {
  name: "DS-CNN/conv_ds_4/dw_conv/batch_norm/Const"
  op: "Const"
  attr {
    key: "dtype"
    value {
…
    key: "T"
    value {
      type: DT_FLOAT
    }
  }
  attr {
    key: "_class"
    value {
      list {
        s: "loc:@DS-CNN/conv_ds_2/dw_conv/biases"
      }
    }
  }
  attr {
    key: "use_locking"
    value {
      b: true
    }
  }
  attr {
    key: "validate_shape"
    value {
      b: true
    }
  }
}
node {
  name: "save/Assign_41"
  op: "Assign"
  input: "DS-CNN/conv_ds_2/dw_conv/depthwise_weights"
  input: "save/RestoreV2:41"
  attr {
    key: "T"
    value {
      type: DT_FLOAT
    }
  }
  attr {
    key: "_class"
    value {
      list {
        s: "loc:@DS-CNN/conv_ds_2/dw_conv/depthwise_weights"
      }
    }
  }
  attr {
    key: "use_locking"
    value {
      b: true
    }
  }
  attr {
    key: "validate_shape"
    value {
      b: true
    }
  }
}
node {
  name: "save/Assign_42"
  op: "Assign"
  input: "DS-CNN/conv_ds_2/dw_conv/depthwise_weights/Adam"
  input: "save/RestoreV2:42"
  attr {
    key: "T"
    value {
      type: DT_FLOAT
    }
  }
  attr {
    key: "_class"
    value {
      list {
        s: "loc:@DS-CNN/conv_ds_2/dw_conv/depthwise_weights"
      }
    }
  }
  attr {
    key: "use_locking"
    value {
      b: true
    }
  }
  attr {
    key: "validate_shape"
    value {
      b: true
    }
  }
}
node {
  name: "save/Assign_43"
  op: "Assign"
  input: "DS-CNN/conv_ds_2/dw_conv/depthwise_weights/Adam_1"
  input: "save/RestoreV2:43"
  attr {
    key: "T"
    value {
      type: DT_FLOAT
    }
  }
  attr {
    key: "_class"
    value {
      list {
        s: "loc:@DS-CNN/conv_ds_2/dw_conv/depthwise_weights"
      }
    }
  }
  attr {
    key: "use_locking"
    value {
      b: true
    }
  }
  attr {
    key: "validate_shape"
    value {
      b: true
    }
  }
}
node {
  name: "save/Assign_44"
  op: "Assign"
  input: "DS-CNN/conv_ds_2/pw_conv/batch_norm/beta"
  input: "save/RestoreV2:44"
  attr {
    key: "T"
    value {
      type: DT_FLOAT
    }
  }
  attr {
    key: "_class"
    value {
      list {
        s: "loc:@DS-CNN/conv_ds_2/pw_conv/batch_norm/beta"
      }
    }
  }
  attr {
    key: "use_locking"
    value {
      b: true
    }
  }
  attr {
    key: "validate_shape"
    value {
      b: true
    }
  }
}
node {
  name: "save/Assign_45"
  op: "Assign"
  input: "DS-CNN/conv_ds_2/pw_conv/batch_norm/beta/Adam"
  input: "save/RestoreV2:45"
  attr {
    key: "T"
    value {
      type: DT_FLOAT
    }
  }
  attr {
    key: "_class"
    value {
      list {
        s: "loc:@DS-CNN/conv_ds_2/pw_conv/batch_norm/beta"
      }
    }
  }
  attr {
    key: "use_locking"
    value {
      b: true
    }
  }
  attr {
    key: "validate_shape"
    value {
      b: true
    }
  }
}
node {
  name: "save/Assign_46"
  op: "Assign"
  input: "DS-CNN/conv_ds_2/pw_conv/batch_norm/beta/Adam_1"
  input: "save/RestoreV2:46"
  attr {
    key: "T"
    value {
      type: DT_FLOAT
    }
  }
  attr {
    key: "_class"
    value {
      list {
        s: "loc:@DS-CNN/conv_ds_2/pw_conv/batch_norm/beta"
      }
    }
  }
  attr {
    key: "use_locking"
    value {
      b: true
    }
  }
  attr {
    key: "validate_shape"
    value {
      b: true
    }
  }
}
node {
  name: "save/Assign_47"
  op: "Assign"
  input: "DS-CNN/conv_ds_2/pw_conv/batch_norm/moving_mean"
  input: "save/RestoreV2:47"
  attr {
    key: "T"
    value {
      type: DT_FLOAT
    }
  }
  attr {
    key: "_class"
    value {
      list {
        s: "loc:@DS-CNN/conv_ds_2/pw_conv/batch_norm/moving_mean"
      }
    }
  }
  attr {
    key: "use_locking"
    value {
      b: true
    }
  }
  attr {
    key: "validate_shape"
    value {
      b: true
    }
  }
}
node {
  name: "save/Assign_48"
  op: "Assign"
  input: "DS-CNN/conv_ds_2/pw_conv/batch_norm/moving_variance"
  input: "save/RestoreV2:48"
  attr {
    key: "T"
    value {
      type: DT_FLOAT
    }
  }
  attr {
    key: "_class"
    value {
      list {
        s: "loc:@DS-CNN/conv_ds_2/pw_conv/batch_norm/moving_variance"
      }
    }
  }
  attr {
    key: "use_locking"
    value {
      b: true
    }
  }
  attr {
    key: "validate_shape"
    value {
      b: true
    }
  }
}
node {
  name: "save/Assign_49"
  op: "Assign"
  input: "DS-CNN/conv_ds_2/pw_conv/biases"
  input: "save/RestoreV2:49"
  attr {
    key: "T"
    value {
      type: DT_FLOAT
    }
  }
  attr {
    key: "_class"
    value {
      list {
        s: "loc:@DS-CNN/conv_ds_2/pw_conv/biases"
      }
    }
  }
  attr {
    key: "use_locking"
    value {
      b: true
    }
  }
  attr {
    key: "validate_shape"
    value {
      b: true
    }
  }
}
node {
  name: "save/Assign_50"
  op: "Assign"
  input: "DS-CNN/conv_ds_2/pw_conv/biases/Adam"
  input: "save/RestoreV2:50"
  attr {
    key: "T"
    value {
      type: DT_FLOAT
    }
  }
  attr {
    key: "_class"
    value {
      list {
        s: "loc:@DS-CNN/conv_ds_2/pw_conv/biases"
      }
    }
  }
  attr {
    key: "use_locking"
    value {
      b: true
    }
  }
  attr {
    key: "validate_shape"
    value {
      b: true
    }
  }
}
node {
  name: "save/Assign_51"
  op: "Assign"
  input: "DS-CNN/conv_ds_2/pw_conv/biases/Adam_1"
  input: "save/RestoreV2:51"
  attr {
    key: "T"
    value {
      type: DT_FLOAT
    }
  }
  attr {
    key: "_class"
    value {
      list {
        s: "loc:@DS-CNN/conv_ds_2/pw_conv/biases"
      }
    }
  }
  attr {
    key: "use_locking"
    value {
      b: true
    }
  }
  attr {
    key: "validate_shape"
    value {
      b: true
    }
  }
}
node {
  name: "save/Assign_52"
  op: "Assign"
  input: "DS-CNN/conv_ds_2/pw_conv/weights"
  input: "save/RestoreV2:52"
  attr {
    key: "T"
    value {
      type: DT_FLOAT
    }
  }
  attr {
    key: "_class"
    value {
      list {
        s: "loc:@DS-CNN/conv_ds_2/pw_conv/weights"
      }
    }
  }
  attr {
    key: "use_locking"
    value {
      b: true
    }
  }
  attr {
    key: "validate_shape"
    value {
      b: true
    }
  }
}
node {
  name: "save/Assign_53"
  op: "Assign"
  input: "DS-CNN/conv_ds_2/pw_conv/weights/Adam"
  input: "save/RestoreV2:53"
  attr {
    key: "T"
    value {
      type: DT_FLOAT
    }
  }
  attr {
    key: "_class"
    value {
      list {
        s: "loc:@DS-CNN/conv_ds_2/pw_conv/weights"
      }
    }
  }
  attr {
    key: "use_locking"
    value {
      b: true
    }
  }
  attr {
    key: "validate_shape"
    value {
      b: true
    }
  }
}
node {
  name: "save/Assign_54"
  op: "Assign"
  input: "DS-CNN/conv_ds_2/pw_conv/weights/Adam_1"
  input: "save/RestoreV2:54"
  attr {
    key: "T"
    value {
      type: DT_FLOAT
    }
  }
  attr {
    key: "_class"
    value {
      list {
        s: "loc:@DS-CNN/conv_ds_2/pw_conv/weights"
      }
    }
  }
  attr {
    key: "use_locking"
    value {
      b: true
    }
  }
  attr {
    key: "validate_shape"
    value {
      b: true
    }
  }
}
node {
  name: "save/Assign_55"
  op: "Assign"
  input: "DS-CNN/conv_ds_3/dw_conv/batch_norm/beta"
  input: "save/RestoreV2:55"
  attr {
    key: "T"
    value {
      type: DT_FLOAT
    }
  }
  attr {
    key: "_class"
    value {
      list {
        s: "loc:@DS-CNN/conv_ds_3/dw_conv/batch_norm/beta"
      }
    }
  }
  attr {
    key: "use_locking"
    value {
      b: true
    }
  }
  attr {
    key: "validate_shape"
    value {
      b: true
    }
  }
}
node {
  name: "save/Assign_56"
  op: "Assign"
  input: "DS-CNN/conv_ds_3/dw_conv/batch_norm/beta/Adam"
  input: "save/RestoreV2:56"
  attr {
    key: "T"
    value {
      type: DT_FLOAT
    }
  }
  attr {
    key: "_class"
    value {
      list {
        s: "loc:@DS-CNN/conv_ds_3/dw_conv/batch_norm/beta"
      }
    }
  }
  attr {
    key: "use_locking"
    value {
      b: true
    }
  }
  attr {
    key: "validate_shape"
    value {
      b: true
    }
  }
}
node {
  name: "save/Assign_57"
  op: "Assign"
  input: "DS-CNN/conv_ds_3/dw_conv/batch_norm/beta/Adam_1"
  input: "save/RestoreV2:57"
  attr {
    key: "T"
    value {
      type: DT_FLOAT
    }
  }
  attr {
    key: "_class"
    value {
      list {
        s: "loc:@DS-CNN/conv_ds_3/dw_conv/batch_norm/beta"
      }
    }
  }
  attr {
    key: "use_locking"
    value {
      b: true
    }
  }
  attr {
    key: "validate_shape"
    value {
      b: true
    }
  }
}
node {
  name: "save/Assign_58"
  op: "Assign"
  input: "DS-CNN/conv_ds_3/dw_conv/batch_norm/moving_mean"
  input: "save/RestoreV2:58"
  attr {
    key: "T"
    value {
      type: DT_FLOAT
    }
  }
  attr {
    key: "_class"
    value {
      list {
        s: "loc:@DS-CNN/conv_ds_3/dw_conv/batch_norm/moving_mean"
      }
    }
  }
  attr {
    key: "use_locking"
    value {
      b: true
    }
  }
  attr {
    key: "validate_shape"
    value {
      b: true
    }
  }
}
node {
  name: "save/Assign_59"
  op: "Assign"
  input: "DS-CNN/conv_ds_3/dw_conv/batch_norm/moving_variance"
  input: "save/RestoreV2:59"
  attr {
    key: "T"
    value {
      type: DT_FLOAT
    }
  }
  attr {
    key: "_class"
    value {
      list {
        s: "loc:@DS-CNN/conv_ds_3/dw_conv/batch_norm/moving_variance"
      }
    }
  }
  attr {
    key: "use_locking"
    value {
      b: true
    }
  }
  attr {
    key: "validate_shape"
    value {
      b: true
    }
  }
}
node {
  name: "save/Assign_60"
  op: "Assign"
  input: "DS-CNN/conv_ds_3/dw_conv/biases"
  input: "save/RestoreV2:60"
  attr {
    key: "T"
    value {
      type: DT_FLOAT
    }
  }
  attr {
    key: "_class"
    value {
      list {
        s: "loc:@DS-CNN/conv_ds_3/dw_conv/biases"
      }
    }
  }
  attr {
    key: "use_locking"
    value {
      b: true
    }
  }
  attr {
    key: "validate_shape"
    value {
      b: true
    }
  }
}
node {
  name: "save/Assign_61"
  op: "Assign"
  input: "DS-CNN/conv_ds_3/dw_conv/biases/Adam"
  input: "save/RestoreV2:61"
  attr {
    key: "T"
    value {
      type: DT_FLOAT
    }
  }
  attr {
    key: "_class"
    value {
      list {
        s: "loc:@DS-CNN/conv_ds_3/dw_conv/biases"
      }
    }
  }
  attr {
    key: "use_locking"
    value {
      b: true
    }
  }
  attr {
    key: "validate_shape"
    value {
      b: true
    }
  }
}
node {
  name: "save/Assign_62"
  op: "Assign"
  input: "DS-CNN/conv_ds_3/dw_conv/biases/Adam_1"
  input: "save/RestoreV2:62"
  attr {
    key: "T"
    value {
      type: DT_FLOAT
    }
  }
  attr {
    key: "_class"
    value {
      list {
        s: "loc:@DS-CNN/conv_ds_3/dw_conv/biases"
      }
    }
  }
  attr {
    key: "use_locking"
    value {
      b: true
    }
  }
  attr {
    key: "validate_shape"
    value {
      b: true
    }
  }
}
node {
  name: "save/Assign_63"
  op: "Assign"
  input: "DS-CNN/conv_ds_3/dw_conv/depthwise_weights"
  input: "save/RestoreV2:63"
  attr {
    key: "T"
    value {
      type: DT_FLOAT
    }
  }
  attr {
    key: "_class"
    value {
      list {
        s: "loc:@DS-CNN/conv_ds_3/dw_conv/depthwise_weights"
      }
    }
  }
  attr {
    key: "use_locking"
    value {
      b: true
    }
  }
  attr {
    key: "validate_shape"
    value {
      b: true
    }
  }
}
node {
  name: "save/Assign_64"
  op: "Assign"
  input: "DS-CNN/conv_ds_3/dw_conv/depthwise_weights/Adam"
  input: "save/RestoreV2:64"
  attr {
    key: "T"
    value {
      type: DT_FLOAT
    }
  }
  attr {
    key: "_class"
    value {
      list {
        s: "loc:@DS-CNN/conv_ds_3/dw_conv/depthwise_weights"
      }
    }
  }
  attr {
    key: "use_locking"
    value {
      b: true
    }
  }
  attr {
    key: "validate_shape"
    value {
      b: true
    }
  }
}
node {
  name: "save/Assign_65"
  op: "Assign"
  input: "DS-CNN/conv_ds_3/dw_conv/depthwise_weights/Adam_1"
  input: "save/RestoreV2:65"
  attr {
    key: "T"
    value {
      type: DT_FLOAT
    }
  }
  attr {
    key: "_class"
    value {
      list {
        s: "loc:@DS-CNN/conv_ds_3/dw_conv/depthwise_weights"
      }
    }
  }
  attr {
    key: "use_locking"
    value {
      b: true
    }
  }
  attr {
    key: "validate_shape"
    value {
      b: true
    }
  }
}
node {
  name: "save/Assign_66"
  op: "Assign"
  input: "DS-CNN/conv_ds_3/pw_conv/batch_norm/beta"
  input: "save/RestoreV2:66"
  attr {
    key: "T"
    value {
      type: DT_FLOAT
    }
  }
  attr {
    key: "_class"
    value {
      list {
        s: "loc:@DS-CNN/conv_ds_3/pw_conv/batch_norm/beta"
      }
    }
  }
  attr {
    key: "use_locking"
    value {
      b: true
    }
  }
  attr {
    key: "validate_shape"
    value {
      b: true
    }
  }
}
node {
  name: "save/Assign_67"
  op: "Assign"
  input: "DS-CNN/conv_ds_3/pw_conv/batch_norm/beta/Adam"
  input: "save/RestoreV2:67"
  attr {
    key: "T"
    value {
      type: DT_FLOAT
    }
  }
  attr {
    key: "_class"
    value {
      list {
        s: "loc:@DS-CNN/conv_ds_3/pw_conv/batch_norm/beta"
      }
    }
  }
  attr {
    key: "use_locking"
    value {
      b: true
    }
  }
  attr {
    key: "validate_shape"
    value {
      b: true
    }
  }
}
node {
  name: "save/Assign_68"
  op: "Assign"
  input: "DS-CNN/conv_ds_3/pw_conv/batch_norm/beta/Adam_1"
  input: "save/RestoreV2:68"
  attr {
    key: "T"
    value {
      type: DT_FLOAT
    }
  }
  attr {
    key: "_class"
    value {
      list {
        s: "loc:@DS-CNN/conv_ds_3/pw_conv/batch_norm/beta"
      }
    }
  }
  attr {
    key: "use_locking"
    value {
      b: true
    }
  }
  attr {
    key: "validate_shape"
    value {
      b: true
    }
  }
}
node {
  name: "save/Assign_69"
  op: "Assign"
  input: "DS-CNN/conv_ds_3/pw_conv/batch_norm/moving_mean"
  input: "save/RestoreV2:69"
  attr {
    key: "T"
    value {
      type: DT_FLOAT
    }
  }
  attr {
    key: "_class"
    value {
      list {
        s: "loc:@DS-CNN/conv_ds_3/pw_conv/batch_norm/moving_mean"
      }
    }
  }
  attr {
    key: "use_locking"
    value {
      b: true
    }
  }
  attr {
    key: "validate_shape"
    value {
      b: true
    }
  }
}
node {
  name: "save/Assign_70"
  op: "Assign"
  input: "DS-CNN/conv_ds_3/pw_conv/batch_norm/moving_variance"
  input: "save/RestoreV2:70"
  attr {
    key: "T"
    value {
      type: DT_FLOAT
    }
  }
  attr {
    key: "_class"
    value {
      list {
        s: "loc:@DS-CNN/conv_ds_3/pw_conv/batch_norm/moving_variance"
      }
    }
  }
  attr {
    key: "use_locking"
    value {
      b: true
    }
  }
  attr {
    key: "validate_shape"
    value {
      b: true
    }
  }
}
node {
  name: "save/Assign_71"
  op: "Assign"
  input: "DS-CNN/conv_ds_3/pw_conv/biases"
  input: "save/RestoreV2:71"
  attr {
    key: "T"
    value {
      type: DT_FLOAT
    }
  }
  attr {
    key: "_class"
    value {
      list {
        s: "loc:@DS-CNN/conv_ds_3/pw_conv/biases"
      }
    }
  }
  attr {
    key: "use_locking"
    value {
      b: true
    }
  }
  attr {
    key: "validate_shape"
    value {
      b: true
    }
  }
}
node {
  name: "save/Assign_72"
  op: "Assign"
  input: "DS-CNN/conv_ds_3/pw_conv/biases/Adam"
  input: "save/RestoreV2:72"
  attr {
    key: "T"
    value {
      type: DT_FLOAT
    }
  }
  attr {
    key: "_class"
    value {
      list {
        s: "loc:@DS-CNN/conv_ds_3/pw_conv/biases"
      }
    }
  }
  attr {
    key: "use_locking"
    value {
      b: true
    }
  }
  attr {
    key: "validate_shape"
    value {
      b: true
    }
  }
}
node {
  name: "save/Assign_73"
  op: "Assign"
  input: "DS-CNN/conv_ds_3/pw_conv/biases/Adam_1"
  input: "save/RestoreV2:73"
  attr {
    key: "T"
    value {
      type: DT_FLOAT
    }
  }
  attr {
    key: "_class"
    value {
      list {
        s: "loc:@DS-CNN/conv_ds_3/pw_conv/biases"
      }
    }
  }
  attr {
    key: "use_locking"
    value {
      b: true
    }
  }
  attr {
    key: "validate_shape"
    value {
      b: true
    }
  }
}
node {
  name: "save/Assign_74"
  op: "Assign"
  input: "DS-CNN/conv_ds_3/pw_conv/weights"
  input: "save/RestoreV2:74"
  attr {
    key: "T"
    value {
      type: DT_FLOAT
    }
  }
  attr {
    key: "_class"
    value {
      list {
        s: "loc:@DS-CNN/conv_ds_3/pw_conv/weights"
      }
    }
  }
  attr {
    key: "use_locking"
    value {
      b: true
    }
  }
  attr {
    key: "validate_shape"
    value {
      b: true
    }
  }
}
node {
  name: "save/Assign_75"
  op: "Assign"
  input: "DS-CNN/conv_ds_3/pw_conv/weights/Adam"
  input: "save/RestoreV2:75"
  attr {
    key: "T"
    value {
      type: DT_FLOAT
    }
  }
  attr {
    key: "_class"
    value {
      list {
        s: "loc:@DS-CNN/conv_ds_3/pw_conv/weights"
      }
    }
  }
  attr {
    key: "use_locking"
    value {
      b: true
    }
  }
  attr {
    key: "validate_shape"
    value {
      b: true
    }
  }
}
node {
  name: "save/Assign_76"
  op: "Assign"
  input: "DS-CNN/conv_ds_3/pw_conv/weights/Adam_1"
  input: "save/RestoreV2:76"
  attr {
    key: "T"
    value {
      type: DT_FLOAT
    }
  }
  attr {
    key: "_class"
    value {
      list {
        s: "loc:@DS-CNN/conv_ds_3/pw_conv/weights"
      }
    }
  }
  attr {
    key: "use_locking"
    value {
      b: true
    }
  }
  attr {
    key: "validate_shape"
    value {
      b: true
    }
  }
}
node {
  name: "save/Assign_77"
  op: "Assign"
  input: "DS-CNN/conv_ds_4/dw_conv/batch_norm/beta"
  input: "save/RestoreV2:77"
  attr {
    key: "T"
    value {
      type: DT_FLOAT
    }
  }
  attr {
    key: "_class"
    value {
      list {
        s: "loc:@DS-CNN/conv_ds_4/dw_conv/batch_norm/beta"
      }
    }
  }
  attr {
    key: "use_locking"
    value {
      b: true
    }
  }
  attr {
    key: "validate_shape"
    value {
      b: true
    }
  }
}
node {
  name: "save/Assign_78"
  op: "Assign"
  input: "DS-CNN/conv_ds_4/dw_conv/batch_norm/beta/Adam"
  input: "save/RestoreV2:78"
  attr {
    key: "T"
    value {
      type: DT_FLOAT
    }
  }
  attr {
    key: "_class"
    value {
      list {
        s: "loc:@DS-CNN/conv_ds_4/dw_conv/batch_norm/beta"
      }
    }
  }
  attr {
    key: "use_locking"
    value {
      b: true
    }
  }
  attr {
    key: "validate_shape"
    value {
      b: true
    }
  }
}
node {
  name: "save/Assign_79"
  op: "Assign"
  input: "DS-CNN/conv_ds_4/dw_conv/batch_norm/beta/Adam_1"
  input: "save/RestoreV2:79"
  attr {
    key: "T"
    value {
      type: DT_FLOAT
    }
  }
  attr {
    key: "_class"
    value {
      list {
        s: "loc:@DS-CNN/conv_ds_4/dw_conv/batch_norm/beta"
      }
    }
  }
  attr {
    key: "use_locking"
    value {
      b: true
    }
  }
  attr {
    key: "validate_shape"
    value {
      b: true
    }
  }
}
node {
  name: "save/Assign_80"
  op: "Assign"
  input: "DS-CNN/conv_ds_4/dw_conv/batch_norm/moving_mean"
  input: "save/RestoreV2:80"
  attr {
    key: "T"
    value {
      type: DT_FLOAT
    }
  }
  attr {
    key: "_class"
    value {
      list {
        s: "loc:@DS-CNN/conv_ds_4/dw_conv/batch_norm/moving_mean"
      }
    }
  }
  attr {
    key: "use_locking"
    value {
      b: true
    }
  }
  attr {
    key: "validate_shape"
    value {
      b: true
    }
  }
}
node {
  name: "save/Assign_81"
  op: "Assign"
  input: "DS-CNN/conv_ds_4/dw_conv/batch_norm/moving_variance"
  input: "save/RestoreV2:81"
  attr {
    key: "T"
    value {
      type: DT_FLOAT
    }
  }
  attr {
    key: "_class"
    value {
      list {
        s: "loc:@DS-CNN/conv_ds_4/dw_conv/batch_norm/moving_variance"
      }
    }
  }
  attr {
    key: "use_locking"
    value {
      b: true
    }
  }
  attr {
    key: "validate_shape"
    value {
      b: true
    }
  }
}
node {
  name: "save/Assign_82"
  op: "Assign"
  input: "DS-CNN/conv_ds_4/dw_conv/biases"
  input: "save/RestoreV2:82"
  attr {
    key: "T"
    value {
      type: DT_FLOAT
    }
  }
  attr {
    key: "_class"
    value {
      list {
        s: "loc:@DS-CNN/conv_ds_4/dw_conv/biases"
      }
    }
  }
  attr {
    key: "use_locking"
    value {
      b: true
    }
  }
  attr {
    key: "validate_shape"
    value {
      b: true
    }
  }
}
node {
  name: "save/Assign_83"
  op: "Assign"
  input: "DS-CNN/conv_ds_4/dw_conv/biases/Adam"
  input: "save/RestoreV2:83"
  attr {
    key: "T"
    value {
      type: DT_FLOAT
    }
  }
  attr {
    key: "_class"
    value {
      list {
        s: "loc:@DS-CNN/conv_ds_4/dw_conv/biases"
      }
    }
  }
  attr {
    key: "use_locking"
    value {
      b: true
    }
  }
  attr {
    key: "validate_shape"
    value {
      b: true
    }
  }
}
node {
  name: "save/Assign_84"
  op: "Assign"
  input: "DS-CNN/conv_ds_4/dw_conv/biases/Adam_1"
  input: "save/RestoreV2:84"
  attr {
    key: "T"
    value {
      type: DT_FLOAT
    }
  }
  attr {
    key: "_class"
    value {
      list {
        s: "loc:@DS-CNN/conv_ds_4/dw_conv/biases"
      }
    }
  }
  attr {
    key: "use_locking"
    value {
      b: true
    }
  }
  attr {
    key: "validate_shape"
    value {
      b: true
    }
  }
}
node {
  name: "save/Assign_85"
  op: "Assign"
  input: "DS-CNN/conv_ds_4/dw_conv/depthwise_weights"
  input: "save/RestoreV2:85"
  attr {
    key: "T"
    value {
      type: DT_FLOAT
    }
  }
  attr {
    key: "_class"
    value {
      list {
        s: "loc:@DS-CNN/conv_ds_4/dw_conv/depthwise_weights"
      }
    }
  }
  attr {
    key: "use_locking"
    value {
      b: true
    }
  }
  attr {
    key: "validate_shape"
    value {
      b: true
    }
  }
}
node {
  name: "save/Assign_86"
  op: "Assign"
  input: "DS-CNN/conv_ds_4/dw_conv/depthwise_weights/Adam"
  input: "save/RestoreV2:86"
  attr {
    key: "T"
    value {
      type: DT_FLOAT
    }
  }
  attr {
    key: "_class"
    value {
      list {
        s: "loc:@DS-CNN/conv_ds_4/dw_conv/depthwise_weights"
      }
    }
  }
  attr {
    key: "use_locking"
    value {
      b: true
    }
  }
  attr {
    key: "validate_shape"
    value {
      b: true
    }
  }
}
node {
  name: "save/Assign_87"
  op: "Assign"
  input: "DS-CNN/conv_ds_4/dw_conv/depthwise_weights/Adam_1"
  input: "save/RestoreV2:87"
  attr {
    key: "T"
    value {
      type: DT_FLOAT
    }
  }
  attr {
    key: "_class"
    value {
      list {
        s: "loc:@DS-CNN/conv_ds_4/dw_conv/depthwise_weights"
      }
    }
  }
  attr {
    key: "use_locking"
    value {
      b: true
    }
  }
  attr {
    key: "validate_shape"
    value {
      b: true
    }
  }
}
node {
  name: "save/Assign_88"
  op: "Assign"
  input: "DS-CNN/conv_ds_4/pw_conv/batch_norm/beta"
  input: "save/RestoreV2:88"
  attr {
    key: "T"
    value {
      type: DT_FLOAT
    }
  }
  attr {
    key: "_class"
    value {
      list {
        s: "loc:@DS-CNN/conv_ds_4/pw_conv/batch_norm/beta"
      }
    }
  }
  attr {
    key: "use_locking"
    value {
      b: true
    }
  }
  attr {
    key: "validate_shape"
    value {
      b: true
    }
  }
}
node {
  name: "save/Assign_89"
  op: "Assign"
  input: "DS-CNN/conv_ds_4/pw_conv/batch_norm/beta/Adam"
  input: "save/RestoreV2:89"
  attr {
    key: "T"
    value {
      type: DT_FLOAT
    }
  }
  attr {
    key: "_class"
    value {
      list {
        s: "loc:@DS-CNN/conv_ds_4/pw_conv/batch_norm/beta"
      }
    }
  }
  attr {
    key: "use_locking"
    value {
      b: true
    }
  }
  attr {
    key: "validate_shape"
    value {
      b: true
    }
  }
}
node {
  name: "save/Assign_90"
  op: "Assign"
  input: "DS-CNN/conv_ds_4/pw_conv/batch_norm/beta/Adam_1"
  input: "save/RestoreV2:90"
  attr {
    key: "T"
    value {
      type: DT_FLOAT
    }
  }
  attr {
    key: "_class"
    value {
      list {
        s: "loc:@DS-CNN/conv_ds_4/pw_conv/batch_norm/beta"
      }
    }
  }
  attr {
    key: "use_locking"
    value {
      b: true
    }
  }
  attr {
    key: "validate_shape"
    value {
      b: true
    }
  }
}
node {
  name: "save/Assign_91"
  op: "Assign"
  input: "DS-CNN/conv_ds_4/pw_conv/batch_norm/moving_mean"
  input: "save/RestoreV2:91"
  attr {
    key: "T"
    value {
      type: DT_FLOAT
    }
  }
  attr {
    key: "_class"
    value {
      list {
        s: "loc:@DS-CNN/conv_ds_4/pw_conv/batch_norm/moving_mean"
      }
    }
  }
  attr {
    key: "use_locking"
    value {
      b: true
    }
  }
  attr {
    key: "validate_shape"
    value {
      b: true
    }
  }
}
node {
  name: "save/Assign_92"
  op: "Assign"
  input: "DS-CNN/conv_ds_4/pw_conv/batch_norm/moving_variance"
  input: "save/RestoreV2:92"
  attr {
    key: "T"
    value {
      type: DT_FLOAT
    }
  }
  attr {
    key: "_class"
    value {
      list {
        s: "loc:@DS-CNN/conv_ds_4/pw_conv/batch_norm/moving_variance"
      }
    }
  }
  attr {
    key: "use_locking"
    value {
      b: true
    }
  }
  attr {
    key: "validate_shape"
    value {
      b: true
    }
  }
}
node {
  name: "save/Assign_93"
  op: "Assign"
  input: "DS-CNN/conv_ds_4/pw_conv/biases"
  input: "save/RestoreV2:93"
  attr {
    key: "T"
    value {
      type: DT_FLOAT
    }
  }
  attr {
    key: "_class"
    value {
      list {
        s: "loc:@DS-CNN/conv_ds_4/pw_conv/biases"
      }
    }
  }
  attr {
    key: "use_locking"
    value {
      b: true
    }
  }
  attr {
    key: "validate_shape"
    value {
      b: true
    }
  }
}
node {
  name: "save/Assign_94"
  op: "Assign"
  input: "DS-CNN/conv_ds_4/pw_conv/biases/Adam"
  input: "save/RestoreV2:94"
  attr {
    key: "T"
    value {
      type: DT_FLOAT
    }
  }
  attr {
    key: "_class"
    value {
      list {
        s: "loc:@DS-CNN/conv_ds_4/pw_conv/biases"
      }
    }
  }
  attr {
    key: "use_locking"
    value {
      b: true
    }
  }
  attr {
    key: "validate_shape"
    value {
      b: true
    }
  }
}
node {
  name: "save/Assign_95"
  op: "Assign"
  input: "DS-CNN/conv_ds_4/pw_conv/biases/Adam_1"
  input: "save/RestoreV2:95"
  attr {
    key: "T"
    value {
      type: DT_FLOAT
    }
  }
  attr {
    key: "_class"
    value {
      list {
        s: "loc:@DS-CNN/conv_ds_4/pw_conv/biases"
      }
    }
  }
  attr {
    key: "use_locking"
    value {
      b: true
    }
  }
  attr {
    key: "validate_shape"
    value {
      b: true
    }
  }
}
node {
  name: "save/Assign_96"
  op: "Assign"
  input: "DS-CNN/conv_ds_4/pw_conv/weights"
  input: "save/RestoreV2:96"
  attr {
    key: "T"
    value {
      type: DT_FLOAT
    }
  }
  attr {
    key: "_class"
    value {
      list {
        s: "loc:@DS-CNN/conv_ds_4/pw_conv/weights"
      }
    }
  }
  attr {
    key: "use_locking"
    value {
      b: true
    }
  }
  attr {
    key: "validate_shape"
    value {
      b: true
    }
  }
}
node {
  name: "save/Assign_97"
  op: "Assign"
  input: "DS-CNN/conv_ds_4/pw_conv/weights/Adam"
  input: "save/RestoreV2:97"
  attr {
    key: "T"
    value {
      type: DT_FLOAT
    }
  }
  attr {
    key: "_class"
    value {
      list {
        s: "loc:@DS-CNN/conv_ds_4/pw_conv/weights"
      }
    }
  }
  attr {
    key: "use_locking"
    value {
      b: true
    }
  }
  attr {
    key: "validate_shape"
    value {
      b: true
    }
  }
}
node {
  name: "save/Assign_98"
  op: "Assign"
  input: "DS-CNN/conv_ds_4/pw_conv/weights/Adam_1"
  input: "save/RestoreV2:98"
  attr {
    key: "T"
    value {
      type: DT_FLOAT
    }
  }
  attr {
    key: "_class"
    value {
      list {
        s: "loc:@DS-CNN/conv_ds_4/pw_conv/weights"
      }
    }
  }
  attr {
    key: "use_locking"
    value {
      b: true
    }
  }
  attr {
    key: "validate_shape"
    value {
      b: true
    }
  }
}
node {
  name: "save/Assign_99"
  op: "Assign"
  input: "DS-CNN/fc1/biases"
  input: "save/RestoreV2:99"
  attr {
    key: "T"
    value {
      type: DT_FLOAT
    }
  }
  attr {
    key: "_class"
    value {
      list {
        s: "loc:@DS-CNN/fc1/biases"
      }
    }
  }
  attr {
    key: "use_locking"
    value {
      b: true
    }
  }
  attr {
    key: "validate_shape"
    value {
      b: true
    }
  }
}
node {
  name: "save/Assign_100"
  op: "Assign"
  input: "DS-CNN/fc1/biases/Adam"
  input: "save/RestoreV2:100"
  attr {
    key: "T"
    value {
      type: DT_FLOAT
    }
  }
  attr {
    key: "_class"
    value {
      list {
        s: "loc:@DS-CNN/fc1/biases"
      }
    }
  }
  attr {
    key: "use_locking"
    value {
      b: true
    }
  }
  attr {
    key: "validate_shape"
    value {
      b: true
    }
  }
}
node {
  name: "save/Assign_101"
  op: "Assign"
  input: "DS-CNN/fc1/biases/Adam_1"
  input: "save/RestoreV2:101"
  attr {
    key: "T"
    value {
      type: DT_FLOAT
    }
  }
  attr {
    key: "_class"
    value {
      list {
        s: "loc:@DS-CNN/fc1/biases"
      }
    }
  }
  attr {
    key: "use_locking"
    value {
      b: true
    }
  }
  attr {
    key: "validate_shape"
    value {
      b: true
    }
  }
}
node {
  name: "save/Assign_102"
  op: "Assign"
  input: "DS-CNN/fc1/weights"
  input: "save/RestoreV2:102"
  attr {
    key: "T"
    value {
      type: DT_FLOAT
    }
  }
  attr {
    key: "_class"
    value {
      list {
        s: "loc:@DS-CNN/fc1/weights"
      }
    }
  }
  attr {
    key: "use_locking"
    value {
      b: true
    }
  }
  attr {
    key: "validate_shape"
    value {
      b: true
    }
  }
}
node {
  name: "save/Assign_103"
  op: "Assign"
  input: "DS-CNN/fc1/weights/Adam"
  input: "save/RestoreV2:103"
  attr {
    key: "T"
    value {
      type: DT_FLOAT
    }
  }
  attr {
    key: "_class"
    value {
      list {
        s: "loc:@DS-CNN/fc1/weights"
      }
    }
  }
  attr {
    key: "use_locking"
    value {
      b: true
    }
  }
  attr {
    key: "validate_shape"
    value {
      b: true
    }
  }
}
node {
  name: "save/Assign_104"
  op: "Assign"
  input: "DS-CNN/fc1/weights/Adam_1"
  input: "save/RestoreV2:104"
  attr {
    key: "T"
    value {
      type: DT_FLOAT
    }
  }
  attr {
    key: "_class"
    value {
      list {
        s: "loc:@DS-CNN/fc1/weights"
      }
    }
  }
  attr {
    key: "use_locking"
    value {
      b: true
    }
  }
  attr {
    key: "validate_shape"
    value {
      b: true
    }
  }
}
node {
  name: "save/Assign_105"
  op: "Assign"
  input: "global_step"
  input: "save/RestoreV2:105"
  attr {
    key: "T"
    value {
      type: DT_INT64
    }
  }
  attr {
    key: "_class"
    value {
      list {
        s: "loc:@global_step"
      }
    }
  }
  attr {
    key: "use_locking"
    value {
      b: true
    }
  }
  attr {
    key: "validate_shape"
    value {
      b: true
    }
  }
}
node {
  name: "save/Assign_106"
  op: "Assign"
  input: "train/beta1_power"
  input: "save/RestoreV2:106"
  attr {
    key: "T"
    value {
      type: DT_FLOAT
    }
  }
  attr {
    key: "_class"
    value {
      list {
        s: "loc:@DS-CNN/conv_1/batch_norm/beta"
      }
    }
  }
  attr {
    key: "use_locking"
    value {
      b: true
    }
  }
  attr {
    key: "validate_shape"
    value {
      b: true
    }
  }
}
node {
  name: "save/Assign_107"
  op: "Assign"
  input: "train/beta2_power"
  input: "save/RestoreV2:107"
  attr {
    key: "T"
    value {
      type: DT_FLOAT
    }
  }
  attr {
    key: "_class"
    value {
      list {
        s: "loc:@DS-CNN/conv_1/batch_norm/beta"
      }
    }
  }
  attr {
    key: "use_locking"
    value {
      b: true
    }
  }
  attr {
    key: "validate_shape"
    value {
      b: true
    }
  }
}
node {
  name: "save/restore_all"
  op: "NoOp"
  input: "^save/Assign"
  input: "^save/Assign_1"
  input: "^save/Assign_10"
  input: "^save/Assign_100"
  input: "^save/Assign_101"
  input: "^save/Assign_102"
  input: "^save/Assign_103"
  input: "^save/Assign_104"
  input: "^save/Assign_105"
  input: "^save/Assign_106"
  input: "^save/Assign_107"
  input: "^save/Assign_11"
  input: "^save/Assign_12"
  input: "^save/Assign_13"
  input: "^save/Assign_14"
  input: "^save/Assign_15"
  input: "^save/Assign_16"
  input: "^save/Assign_17"
  input: "^save/Assign_18"
  input: "^save/Assign_19"
  input: "^save/Assign_2"
  input: "^save/Assign_20"
  input: "^save/Assign_21"
  input: "^save/Assign_22"
  input: "^save/Assign_23"
  input: "^save/Assign_24"
  input: "^save/Assign_25"
  input: "^save/Assign_26"
  input: "^save/Assign_27"
  input: "^save/Assign_28"
  input: "^save/Assign_29"
  input: "^save/Assign_3"
  input: "^save/Assign_30"
  input: "^save/Assign_31"
  input: "^save/Assign_32"
  input: "^save/Assign_33"
  input: "^save/Assign_34"
  input: "^save/Assign_35"
  input: "^save/Assign_36"
  input: "^save/Assign_37"
  input: "^save/Assign_38"
  input: "^save/Assign_39"
  input: "^save/Assign_4"
  input: "^save/Assign_40"
  input: "^save/Assign_41"
  input: "^save/Assign_42"
  input: "^save/Assign_43"
  input: "^save/Assign_44"
  input: "^save/Assign_45"
  input: "^save/Assign_46"
  input: "^save/Assign_47"
  input: "^save/Assign_48"
  input: "^save/Assign_49"
  input: "^save/Assign_5"
  input: "^save/Assign_50"
  input: "^save/Assign_51"
  input: "^save/Assign_52"
  input: "^save/Assign_53"
  input: "^save/Assign_54"
  input: "^save/Assign_55"
  input: "^save/Assign_56"
  input: "^save/Assign_57"
  input: "^save/Assign_58"
  input: "^save/Assign_59"
  input: "^save/Assign_6"
  input: "^save/Assign_60"
  input: "^save/Assign_61"
  input: "^save/Assign_62"
  input: "^save/Assign_63"
  input: "^save/Assign_64"
  input: "^save/Assign_65"
  input: "^save/Assign_66"
  input: "^save/Assign_67"
  input: "^save/Assign_68"
  input: "^save/Assign_69"
  input: "^save/Assign_7"
  input: "^save/Assign_70"
  input: "^save/Assign_71"
  input: "^save/Assign_72"
  input: "^save/Assign_73"
  input: "^save/Assign_74"
  input: "^save/Assign_75"
  input: "^save/Assign_76"
  input: "^save/Assign_77"
  input: "^save/Assign_78"
  input: "^save/Assign_79"
  input: "^save/Assign_8"
  input: "^save/Assign_80"
  input: "^save/Assign_81"
  input: "^save/Assign_82"
  input: "^save/Assign_83"
  input: "^save/Assign_84"
  input: "^save/Assign_85"
  input: "^save/Assign_86"
  input: "^save/Assign_87"
  input: "^save/Assign_88"
  input: "^save/Assign_89"
  input: "^save/Assign_9"
  input: "^save/Assign_90"
  input: "^save/Assign_91"
  input: "^save/Assign_92"
  input: "^save/Assign_93"
  input: "^save/Assign_94"
  input: "^save/Assign_95"
  input: "^save/Assign_96"
  input: "^save/Assign_97"
  input: "^save/Assign_98"
  input: "^save/Assign_99"
}
node {
  name: "Merge/MergeSummary"
  op: "MergeSummary"
  input: "cross_entropy_1"
  input: "accuracy"
  attr {
    key: "N"
    value {
      i: 2
    }
  }
}
node {
  name: "init"
  op: "NoOp"
  input: "^DS-CNN/conv_1/batch_norm/beta/Adam/Assign"
  input: "^DS-CNN/conv_1/batch_norm/beta/Adam_1/Assign"
  input: "^DS-CNN/conv_1/batch_norm/beta/Assign"
  input: "^DS-CNN/conv_1/batch_norm/moving_mean/Assign"
  input: "^DS-CNN/conv_1/batch_norm/moving_variance/Assign"
  input: "^DS-CNN/conv_1/biases/Adam/Assign"
  input: "^DS-CNN/conv_1/biases/Adam_1/Assign"
  input: "^DS-CNN/conv_1/biases/Assign"
  input: "^DS-CNN/conv_1/weights/Adam/Assign"
  input: "^DS-CNN/conv_1/weights/Adam_1/Assign"
  input: "^DS-CNN/conv_1/weights/Assign"
  input: "^DS-CNN/conv_ds_1/dw_conv/batch_norm/beta/Adam/Assign"
  input: "^DS-CNN/conv_ds_1/dw_conv/batch_norm/beta/Adam_1/Assign"
  input: "^DS-CNN/conv_ds_1/dw_conv/batch_norm/beta/Assign"
  input: "^DS-CNN/conv_ds_1/dw_conv/batch_norm/moving_mean/Assign"
  input: "^DS-CNN/conv_ds_1/dw_conv/batch_norm/moving_variance/Assign"
  input: "^DS-CNN/conv_ds_1/dw_conv/biases/Adam/Assign"
  input: "^DS-CNN/conv_ds_1/dw_conv/biases/Adam_1/Assign"
  input: "^DS-CNN/conv_ds_1/dw_conv/biases/Assign"
  input: "^DS-CNN/conv_ds_1/dw_conv/depthwise_weights/Adam/Assign"
  input: "^DS-CNN/conv_ds_1/dw_conv/depthwise_weights/Adam_1/Assign"
  input: "^DS-CNN/conv_ds_1/dw_conv/depthwise_weights/Assign"
  input: "^DS-CNN/conv_ds_1/pw_conv/batch_norm/beta/Adam/Assign"
  input: "^DS-CNN/conv_ds_1/pw_conv/batch_norm/beta/Adam_1/Assign"
  input: "^DS-CNN/conv_ds_1/pw_conv/batch_norm/beta/Assign"
  input: "^DS-CNN/conv_ds_1/pw_conv/batch_norm/moving_mean/Assign"
  input: "^DS-CNN/conv_ds_1/pw_conv/batch_norm/moving_variance/Assign"
  input: "^DS-CNN/conv_ds_1/pw_conv/biases/Adam/Assign"
  input: "^DS-CNN/conv_ds_1/pw_conv/biases/Adam_1/Assign"
  input: "^DS-CNN/conv_ds_1/pw_conv/biases/Assign"
  input: "^DS-CNN/conv_ds_1/pw_conv/weights/Adam/Assign"
  input: "^DS-CNN/conv_ds_1/pw_conv/weights/Adam_1/Assign"
  input: "^DS-CNN/conv_ds_1/pw_conv/weights/Assign"
  input: "^DS-CNN/conv_ds_2/dw_conv/batch_norm/beta/Adam/Assign"
  input: "^DS-CNN/conv_ds_2/dw_conv/batch_norm/beta/Adam_1/Assign"
  input: "^DS-CNN/conv_ds_2/dw_conv/batch_norm/beta/Assign"
  input: "^DS-CNN/conv_ds_2/dw_conv/batch_norm/moving_mean/Assign"
  input: "^DS-CNN/conv_ds_2/dw_conv/batch_norm/moving_variance/Assign"
  input: "^DS-CNN/conv_ds_2/dw_conv/biases/Adam/Assign"
  input: "^DS-CNN/conv_ds_2/dw_conv/biases/Adam_1/Assign"
  input: "^DS-CNN/conv_ds_2/dw_conv/biases/Assign"
  input: "^DS-CNN/conv_ds_2/dw_conv/depthwise_weights/Adam/Assign"
  input: "^DS-CNN/conv_ds_2/dw_conv/depthwise_weights/Adam_1/Assign"
  input: "^DS-CNN/conv_ds_2/dw_conv/depthwise_weights/Assign"
  input: "^DS-CNN/conv_ds_2/pw_conv/batch_norm/beta/Adam/Assign"
  input: "^DS-CNN/conv_ds_2/pw_conv/batch_norm/beta/Adam_1/Assign"
  input: "^DS-CNN/conv_ds_2/pw_conv/batch_norm/beta/Assign"
  input: "^DS-CNN/conv_ds_2/pw_conv/batch_norm/moving_mean/Assign"
  input: "^DS-CNN/conv_ds_2/pw_conv/batch_norm/moving_variance/Assign"
  input: "^DS-CNN/conv_ds_2/pw_conv/biases/Adam/Assign"
  input: "^DS-CNN/conv_ds_2/pw_conv/biases/Adam_1/Assign"
  input: "^DS-CNN/conv_ds_2/pw_conv/biases/Assign"
  input: "^DS-CNN/conv_ds_2/pw_conv/weights/Adam/Assign"
  input: "^DS-CNN/conv_ds_2/pw_conv/weights/Adam_1/Assign"
  input: "^DS-CNN/conv_ds_2/pw_conv/weights/Assign"
  input: "^DS-CNN/conv_ds_3/dw_conv/batch_norm/beta/Adam/Assign"
  input: "^DS-CNN/conv_ds_3/dw_conv/batch_norm/beta/Adam_1/Assign"
  input: "^DS-CNN/conv_ds_3/dw_conv/batch_norm/beta/Assign"
  input: "^DS-CNN/conv_ds_3/dw_conv/batch_norm/moving_mean/Assign"
  input: "^DS-CNN/conv_ds_3/dw_conv/batch_norm/moving_variance/Assign"
  input: "^DS-CNN/conv_ds_3/dw_conv/biases/Adam/Assign"
  input: "^DS-CNN/conv_ds_3/dw_conv/biases/Adam_1/Assign"
  input: "^DS-CNN/conv_ds_3/dw_conv/biases/Assign"
  input: "^DS-CNN/conv_ds_3/dw_conv/depthwise_weights/Adam/Assign"
  input: "^DS-CNN/conv_ds_3/dw_conv/depthwise_weights/Adam_1/Assign"
  input: "^DS-CNN/conv_ds_3/dw_conv/depthwise_weights/Assign"
  input: "^DS-CNN/conv_ds_3/pw_conv/batch_norm/beta/Adam/Assign"
  input: "^DS-CNN/conv_ds_3/pw_conv/batch_norm/beta/Adam_1/Assign"
  input: "^DS-CNN/conv_ds_3/pw_conv/batch_norm/beta/Assign"
  input: "^DS-CNN/conv_ds_3/pw_conv/batch_norm/moving_mean/Assign"
  input: "^DS-CNN/conv_ds_3/pw_conv/batch_norm/moving_variance/Assign"
  input: "^DS-CNN/conv_ds_3/pw_conv/biases/Adam/Assign"
  input: "^DS-CNN/conv_ds_3/pw_conv/biases/Adam_1/Assign"
  input: "^DS-CNN/conv_ds_3/pw_conv/biases/Assign"
  input: "^DS-CNN/conv_ds_3/pw_conv/weights/Adam/Assign"
  input: "^DS-CNN/conv_ds_3/pw_conv/weights/Adam_1/Assign"
  input: "^DS-CNN/conv_ds_3/pw_conv/weights/Assign"
  input: "^DS-CNN/conv_ds_4/dw_conv/batch_norm/beta/Adam/Assign"
  input: "^DS-CNN/conv_ds_4/dw_conv/batch_norm/beta/Adam_1/Assign"
  input: "^DS-CNN/conv_ds_4/dw_conv/batch_norm/beta/Assign"
  input: "^DS-CNN/conv_ds_4/dw_conv/batch_norm/moving_mean/Assign"
  input: "^DS-CNN/conv_ds_4/dw_conv/batch_norm/moving_variance/Assign"
  input: "^DS-CNN/conv_ds_4/dw_conv/biases/Adam/Assign"
  input: "^DS-CNN/conv_ds_4/dw_conv/biases/Adam_1/Assign"
  input: "^DS-CNN/conv_ds_4/dw_conv/biases/Assign"
  input: "^DS-CNN/conv_ds_4/dw_conv/depthwise_weights/Adam/Assign"
  input: "^DS-CNN/conv_ds_4/dw_conv/depthwise_weights/Adam_1/Assign"
  input: "^DS-CNN/conv_ds_4/dw_conv/depthwise_weights/Assign"
  input: "^DS-CNN/conv_ds_4/pw_conv/batch_norm/beta/Adam/Assign"
  input: "^DS-CNN/conv_ds_4/pw_conv/batch_norm/beta/Adam_1/Assign"
  input: "^DS-CNN/conv_ds_4/pw_conv/batch_norm/beta/Assign"
  input: "^DS-CNN/conv_ds_4/pw_conv/batch_norm/moving_mean/Assign"
  input: "^DS-CNN/conv_ds_4/pw_conv/batch_norm/moving_variance/Assign"
  input: "^DS-CNN/conv_ds_4/pw_conv/biases/Adam/Assign"
  input: "^DS-CNN/conv_ds_4/pw_conv/biases/Adam_1/Assign"
  input: "^DS-CNN/conv_ds_4/pw_conv/biases/Assign"
  input: "^DS-CNN/conv_ds_4/pw_conv/weights/Adam/Assign"
  input: "^DS-CNN/conv_ds_4/pw_conv/weights/Adam_1/Assign"
  input: "^DS-CNN/conv_ds_4/pw_conv/weights/Assign"
  input: "^DS-CNN/fc1/biases/Adam/Assign"
  input: "^DS-CNN/fc1/biases/Adam_1/Assign"
  input: "^DS-CNN/fc1/biases/Assign"
  input: "^DS-CNN/fc1/weights/Adam/Assign"
  input: "^DS-CNN/fc1/weights/Adam_1/Assign"
  input: "^DS-CNN/fc1/weights/Assign"
  input: "^global_step/Assign"
  input: "^train/beta1_power/Assign"
  input: "^train/beta2_power/Assign"
}
node {
  name: "Shape"
  op: "Const"
  attr {
    key: "dtype"
    value {
      type: DT_INT32
    }
  }
  attr {
    key: "value"
    value {
      tensor {
        dtype: DT_INT32
        tensor_shape {
          dim {
            size: 4
          }
        }
        tensor_content: "\n\000\000\000\004\000\000\000\001\000\000\000@\000\000\000"
      }
    }
  }
}
node {
  name: "Shape_1"
  op: "Const"
  attr {
    key: "dtype"
    value {
      type: DT_INT32
    }
  }
  attr {
    key: "value"
    value {
      tensor {
        dtype: DT_INT32
        tensor_shape {
          dim {
            size: 1
          }
        }
        int_val: 64
      }
    }
  }
}
node {
  name: "Shape_2"
  op: "Const"
  attr {
    key: "dtype"
    value {
      type: DT_INT32
    }
  }
  attr {
    key: "value"
    value {
      tensor {
        dtype: DT_INT32
        tensor_shape {
          dim {
            size: 1
          }
        }
        int_val: 64
      }
    }
  }
}
node {
  name: "Shape_3"
  op: "Const"
  attr {
    key: "dtype"
    value {
      type: DT_INT32
    }
  }
  attr {
    key: "value"
    value {
      tensor {
        dtype: DT_INT32
        tensor_shape {
          dim {
            size: 4
          }
        }
        tensor_content: "\003\000\000\000\003\000\000\000@\000\000\000\001\000\000\000"
      }
    }
  }
}
node {
  name: "Shape_4"
  op: "Const"
  attr {
    key: "dtype"
    value {
      type: DT_INT32
    }
  }
  attr {
    key: "value"
    value {
      tensor {
        dtype: DT_INT32
        tensor_shape {
          dim {
            size: 1
          }
        }
        int_val: 64
      }
    }
  }
}
node {
  name: "Shape_5"
  op: "Const"
  attr {
    key: "dtype"
    value {
      type: DT_INT32
    }
  }
  attr {
    key: "value"
    value {
      tensor {
        dtype: DT_INT32
        tensor_shape {
          dim {
            size: 1
          }
        }
        int_val: 64
      }
    }
  }
}
node {
  name: "Shape_6"
  op: "Const"
  attr {
    key: "dtype"
    value {
      type: DT_INT32
    }
  }
  attr {
    key: "value"
    value {
      tensor {
        dtype: DT_INT32
        tensor_shape {
          dim {
            size: 4
          }
        }
        tensor_content: "\001\000\000\000\001\000\000\000@\000\000\000@\000\000\000"
      }
    }
  }
}
node {
  name: "Shape_7"
  op: "Const"
  attr {
    key: "dtype"
    value {
      type: DT_INT32
    }
  }
  attr {
    key: "value"
    value {
      tensor {
        dtype: DT_INT32
        tensor_shape {
          dim {
            size: 1
          }
        }
        int_val: 64
      }
    }
  }
}
node {
  name: "Shape_8"
  op: "Const"
  attr {
    key: "dtype"
    value {
      type: DT_INT32
    }
  }
  attr {
    key: "value"
    value {
      tensor {
        dtype: DT_INT32
        tensor_shape {
          dim {
            size: 1
          }
        }
        int_val: 64
      }
    }
  }
}
node {
  name: "Shape_9"
  op: "Const"
  attr {
    key: "dtype"
    value {
      type: DT_INT32
    }
  }
  attr {
    key: "value"
    value {
      tensor {
        dtype: DT_INT32
        tensor_shape {
          dim {
            size: 4
          }
        }
        tensor_content: "\003\000\000\000\003\000\000\000@\000\000\000\001\000\000\000"
      }
    }
  }
}
node {
  name: "Shape_10"
  op: "Const"
  attr {
    key: "dtype"
    value {
      type: DT_INT32
    }
  }
  attr {
    key: "value"
    value {
      tensor {
        dtype: DT_INT32
        tensor_shape {
          dim {
            size: 1
          }
        }
        int_val: 64
      }
    }
  }
}
node {
  name: "Shape_11"
  op: "Const"
  attr {
    key: "dtype"
    value {
      type: DT_INT32
    }
  }
  attr {
    key: "value"
    value {
      tensor {
        dtype: DT_INT32
        tensor_shape {
          dim {
            size: 1
          }
        }
        int_val: 64
      }
    }
  }
}
node {
  name: "Shape_12"
  op: "Const"
  attr {
    key: "dtype"
    value {
      type: DT_INT32
    }
  }
  attr {
    key: "value"
    value {
      tensor {
        dtype: DT_INT32
        tensor_shape {
          dim {
            size: 4
          }
        }
        tensor_content: "\001\000\000\000\001\000\000\000@\000\000\000@\000\000\000"
      }
    }
  }
}
node {
  name: "Shape_13"
  op: "Const"
  attr {
    key: "dtype"
    value {
      type: DT_INT32
    }
  }
  attr {
    key: "value"
    value {
      tensor {
        dtype: DT_INT32
        tensor_shape {
          dim {
            size: 1
          }
        }
        int_val: 64
      }
    }
  }
}
node {
  name: "Shape_14"
  op: "Const"
  attr {
    key: "dtype"
    value {
      type: DT_INT32
    }
  }
  attr {
    key: "value"
    value {
      tensor {
        dtype: DT_INT32
        tensor_shape {
          dim {
            size: 1
          }
        }
        int_val: 64
      }
    }
  }
}
node {
  name: "Shape_15"
  op: "Const"
  attr {
    key: "dtype"
    value {
      type: DT_INT32
    }
  }
  attr {
    key: "value"
    value {
      tensor {
        dtype: DT_INT32
        tensor_shape {
          dim {
            size: 4
          }
        }
        tensor_content: "\003\000\000\000\003\000\000\000@\000\000\000\001\000\000\000"
      }
    }
  }
}
node {
  name: "Shape_16"
  op: "Const"
  attr {
    key: "dtype"
    value {
      type: DT_INT32
    }
  }
  attr {
    key: "value"
    value {
      tensor {
        dtype: DT_INT32
        tensor_shape {
          dim {
            size: 1
          }
        }
        int_val: 64
      }
    }
  }
}
node {
  name: "Shape_17"
  op: "Const"
  attr {
    key: "dtype"
    value {
      type: DT_INT32
    }
  }
  attr {
    key: "value"
    value {
      tensor {
        dtype: DT_INT32
        tensor_shape {
          dim {
            size: 1
          }
        }
        int_val: 64
      }
    }
  }
}
node {
  name: "Shape_18"
  op: "Const"
  attr {
    key: "dtype"
    value {
      type: DT_INT32
    }
  }
  attr {
    key: "value"
    value {
      tensor {
        dtype: DT_INT32
        tensor_shape {
          dim {
            size: 4
          }
        }
        tensor_content: "\001\000\000\000\001\000\000\000@\000\000\000@\000\000\000"
      }
    }
  }
}
node {
  name: "Shape_19"
  op: "Const"
  attr {
    key: "dtype"
    value {
      type: DT_INT32
    }
  }
  attr {
    key: "value"
    value {
      tensor {
        dtype: DT_INT32
        tensor_shape {
          dim {
            size: 1
          }
        }
        int_val: 64
      }
    }
  }
}
node {
  name: "Shape_20"
  op: "Const"
  attr {
    key: "dtype"
    value {
      type: DT_INT32
    }
  }
  attr {
    key: "value"
    value {
      tensor {
        dtype: DT_INT32
        tensor_shape {
          dim {
            size: 1
          }
        }
        int_val: 64
      }
    }
  }
}
node {
  name: "Shape_21"
  op: "Const"
  attr {
    key: "dtype"
    value {
      type: DT_INT32
    }
  }
  attr {
    key: "value"
    value {
      tensor {
        dtype: DT_INT32
        tensor_shape {
          dim {
            size: 4
          }
        }
        tensor_content: "\003\000\000\000\003\000\000\000@\000\000\000\001\000\000\000"
      }
    }
  }
}
node {
  name: "Shape_22"
  op: "Const"
  attr {
    key: "dtype"
    value {
      type: DT_INT32
    }
  }
  attr {
    key: "value"
    value {
      tensor {
        dtype: DT_INT32
        tensor_shape {
          dim {
            size: 1
          }
        }
        int_val: 64
      }
    }
  }
}
node {
  name: "Shape_23"
  op: "Const"
  attr {
    key: "dtype"
    value {
      type: DT_INT32
    }
  }
  attr {
    key: "value"
    value {
      tensor {
        dtype: DT_INT32
        tensor_shape {
          dim {
            size: 1
          }
        }
        int_val: 64
      }
    }
  }
}
node {
  name: "Shape_24"
  op: "Const"
  attr {
    key: "dtype"
    value {
      type: DT_INT32
    }
  }
  attr {
    key: "value"
    value {
      tensor {
        dtype: DT_INT32
        tensor_shape {
          dim {
            size: 4
          }
        }
        tensor_content: "\001\000\000\000\001\000\000\000@\000\000\000@\000\000\000"
      }
    }
  }
}
node {
  name: "Shape_25"
  op: "Const"
  attr {
    key: "dtype"
    value {
      type: DT_INT32
    }
  }
  attr {
    key: "value"
    value {
      tensor {
        dtype: DT_INT32
        tensor_shape {
          dim {
            size: 1
          }
        }
        int_val: 64
      }
    }
  }
}
node {
  name: "Shape_26"
  op: "Const"
  attr {
    key: "dtype"
    value {
      type: DT_INT32
    }
  }
  attr {
    key: "value"
    value {
      tensor {
        dtype: DT_INT32
        tensor_shape {
          dim {
            size: 1
          }
        }
        int_val: 64
      }
    }
  }
}
node {
  name: "Shape_27"
  op: "Const"
  attr {
    key: "dtype"
    value {
      type: DT_INT32
    }
  }
  attr {
    key: "value"
    value {
      tensor {
        dtype: DT_INT32
        tensor_shape {
          dim {
            size: 2
          }
        }
        tensor_content: "@\000\000\000\016\000\000\000"
      }
    }
  }
}
node {
  name: "Shape_28"
  op: "Const"
  attr {
    key: "dtype"
    value {
      type: DT_INT32
    }
  }
  attr {
    key: "value"
    value {
      tensor {
        dtype: DT_INT32
        tensor_shape {
          dim {
            size: 1
          }
        }
        int_val: 14
      }
    }
  }
}
versions {
  producer: 38
}
